{"Layers": [{
  "Name": "Reformatting CopyNode for Network Input left_img",
  "LayerType": "Reformat",
  "Inputs": [
  {
    "Name": "left_img",
    "Location": "Device",
    "Dimensions": [1,3,256,512],
    "Format/Datatype": "Row major linear FP32"
  }],
  "Outputs": [
  {
    "Name": "Reformatted left_img",
    "Location": "Device",
    "Dimensions": [1,3,256,512],
    "Format/Datatype": "Channel major FP32 format where channel % 4 == 0"
  }],
  "ParameterType": "Reformat",
  "Origin": "REFORMAT",
  "TacticValue": "0x00000000000003ea",
  "StreamId": 0,
  "Metadata": ""
},{
  "Name": "Conv_0 + Clip_5",
  "LayerType": "CaskConvolution",
  "Inputs": [
  {
    "Name": "Reformatted left_img",
    "Location": "Device",
    "Dimensions": [1,3,256,512],
    "Format/Datatype": "Channel major FP32 format where channel % 4 == 0"
  }],
  "Outputs": [
  {
    "Name": "input.12",
    "Location": "Device",
    "Dimensions": [1,32,128,256],
    "Format/Datatype": "Channel major FP32 format where channel % 4 == 0"
  }],
  "ParameterType": "Convolution",
  "Kernel": [3,3],
  "PaddingMode": "kEXPLICIT_ROUND_DOWN",
  "PrePadding": [1,1],
  "PostPadding": [1,1],
  "Stride": [2,2],
  "Dilation": [1,1],
  "OutMaps": 32,
  "Groups": 1,
  "Weights": {"Type": "Float", "Count": 864},
  "Bias": {"Type": "Float", "Count": 32},
  "HasBias": 1,
  "HasReLU": 0,
  "HasSparseWeights": 0,
  "HasDynamicFilter": 0,
  "HasDynamicBias": 0,
  "HasResidual": 0,
  "ConvXAsActInputIdx": -1,
  "BiasAsActInputIdx": -1,
  "ResAsActInputIdx": -1,
  "Activation": "CLIPPED_RELU",
  "ParameterSubType": "[0.000000,6.000000]",
  "TacticName": "sm80_xmma_fprop_implicit_gemm_indexed_wo_smem_f32f32_tf32f32_f32_nhwckrsc_nhwc_tilesize128x32x16_stage1_warpsize4x1x1_g1_tensor16x8x8_alignc8",
  "TacticValue": "0x72a5d05b1bb165ef",
  "StreamId": 0,
  "Metadata": "[ONNX Layer: Conv_0]\u001e[ONNX Layer: Clip_5]"
},{
  "Name": "Conv_10 + Clip_15",
  "LayerType": "CaskConvolution",
  "Inputs": [
  {
    "Name": "input.12",
    "Location": "Device",
    "Dimensions": [1,32,128,256],
    "Format/Datatype": "Channel major FP32 format where channel % 4 == 0"
  }],
  "Outputs": [
  {
    "Name": "input.36",
    "Location": "Device",
    "Dimensions": [1,32,128,256],
    "Format/Datatype": "Channel major FP32 format where channel % 4 == 0"
  }],
  "ParameterType": "Convolution",
  "Kernel": [3,3],
  "PaddingMode": "kEXPLICIT_ROUND_DOWN",
  "PrePadding": [1,1],
  "PostPadding": [1,1],
  "Stride": [1,1],
  "Dilation": [1,1],
  "OutMaps": 32,
  "Groups": 32,
  "Weights": {"Type": "Float", "Count": 288},
  "Bias": {"Type": "Float", "Count": 32},
  "HasBias": 1,
  "HasReLU": 0,
  "HasSparseWeights": 0,
  "HasDynamicFilter": 0,
  "HasDynamicBias": 0,
  "HasResidual": 0,
  "ConvXAsActInputIdx": -1,
  "BiasAsActInputIdx": -1,
  "ResAsActInputIdx": -1,
  "Activation": "CLIPPED_RELU",
  "ParameterSubType": "[0.000000,6.000000]",
  "TacticName": "sm50_xmma_convolution_trt_depthwiseFP32NHWC4_fp32nhwcx4_fp32nhwcx4_fp32kcrs",
  "TacticValue": "0x2cac8ad6921b6398",
  "StreamId": 0,
  "Metadata": "[ONNX Layer: Conv_10]\u001e[ONNX Layer: Clip_15]"
},{
  "Name": "Conv_20",
  "LayerType": "CaskConvolution",
  "Inputs": [
  {
    "Name": "input.36",
    "Location": "Device",
    "Dimensions": [1,32,128,256],
    "Format/Datatype": "Channel major FP32 format where channel % 4 == 0"
  }],
  "Outputs": [
  {
    "Name": "input.44",
    "Location": "Device",
    "Dimensions": [1,16,128,256],
    "Format/Datatype": "Channel major FP32 format where channel % 4 == 0"
  }],
  "ParameterType": "Convolution",
  "Kernel": [1,1],
  "PaddingMode": "kEXPLICIT_ROUND_DOWN",
  "PrePadding": [0,0],
  "PostPadding": [0,0],
  "Stride": [1,1],
  "Dilation": [1,1],
  "OutMaps": 16,
  "Groups": 1,
  "Weights": {"Type": "Float", "Count": 512},
  "Bias": {"Type": "Float", "Count": 16},
  "HasBias": 1,
  "HasReLU": 0,
  "HasSparseWeights": 0,
  "HasDynamicFilter": 0,
  "HasDynamicBias": 0,
  "HasResidual": 0,
  "ConvXAsActInputIdx": -1,
  "BiasAsActInputIdx": -1,
  "ResAsActInputIdx": -1,
  "Activation": "NONE",
  "TacticName": "sm80_xmma_fprop_implicit_gemm_indexed_wo_smem_f32f32_tf32f32_f32_nhwckrsc_nhwc_tilesize128x16x32_stage1_warpsize4x1x1_g1_tensor16x8x8",
  "TacticValue": "0xae48d3ccfe1edfcd",
  "StreamId": 0,
  "Metadata": "[ONNX Layer: Conv_20]"
},{
  "Name": "Conv_22 + Clip_26",
  "LayerType": "CaskConvolution",
  "Inputs": [
  {
    "Name": "input.44",
    "Location": "Device",
    "Dimensions": [1,16,128,256],
    "Format/Datatype": "Channel major FP32 format where channel % 4 == 0"
  }],
  "Outputs": [
  {
    "Name": "input.60",
    "Location": "Device",
    "Dimensions": [1,96,128,256],
    "Format/Datatype": "Channel major FP32 format where channel % 4 == 0"
  }],
  "ParameterType": "Convolution",
  "Kernel": [1,1],
  "PaddingMode": "kEXPLICIT_ROUND_DOWN",
  "PrePadding": [0,0],
  "PostPadding": [0,0],
  "Stride": [1,1],
  "Dilation": [1,1],
  "OutMaps": 96,
  "Groups": 1,
  "Weights": {"Type": "Float", "Count": 1536},
  "Bias": {"Type": "Float", "Count": 96},
  "HasBias": 1,
  "HasReLU": 0,
  "HasSparseWeights": 0,
  "HasDynamicFilter": 0,
  "HasDynamicBias": 0,
  "HasResidual": 0,
  "ConvXAsActInputIdx": -1,
  "BiasAsActInputIdx": -1,
  "ResAsActInputIdx": -1,
  "Activation": "CLIPPED_RELU",
  "ParameterSubType": "[0.000000,6.000000]",
  "TacticName": "sm80_xmma_fprop_implicit_gemm_indexed_wo_smem_f32f32_tf32f32_f32_nhwckrsc_nhwc_tilesize128x32x16_stage1_warpsize4x1x1_g1_tensor16x8x8",
  "TacticValue": "0x9cb304e2edbc1221",
  "StreamId": 0,
  "Metadata": "[ONNX Layer: Conv_22]\u001e[ONNX Layer: Clip_26]"
},{
  "Name": "Conv_30 + Clip_34",
  "LayerType": "CaskConvolution",
  "Inputs": [
  {
    "Name": "input.60",
    "Location": "Device",
    "Dimensions": [1,96,128,256],
    "Format/Datatype": "Channel major FP32 format where channel % 4 == 0"
  }],
  "Outputs": [
  {
    "Name": "input.76",
    "Location": "Device",
    "Dimensions": [1,96,64,128],
    "Format/Datatype": "Channel major FP32 format where channel % 4 == 0"
  }],
  "ParameterType": "Convolution",
  "Kernel": [3,3],
  "PaddingMode": "kEXPLICIT_ROUND_DOWN",
  "PrePadding": [1,1],
  "PostPadding": [1,1],
  "Stride": [2,2],
  "Dilation": [1,1],
  "OutMaps": 96,
  "Groups": 96,
  "Weights": {"Type": "Float", "Count": 864},
  "Bias": {"Type": "Float", "Count": 96},
  "HasBias": 1,
  "HasReLU": 0,
  "HasSparseWeights": 0,
  "HasDynamicFilter": 0,
  "HasDynamicBias": 0,
  "HasResidual": 0,
  "ConvXAsActInputIdx": -1,
  "BiasAsActInputIdx": -1,
  "ResAsActInputIdx": -1,
  "Activation": "CLIPPED_RELU",
  "ParameterSubType": "[0.000000,6.000000]",
  "TacticName": "sm50_xmma_convolution_trt_depthwiseFP32NHWC4_fp32nhwcx4_fp32nhwcx4_fp32kcrs",
  "TacticValue": "0x2cac8ad6921b6398",
  "StreamId": 0,
  "Metadata": "[ONNX Layer: Conv_30]\u001e[ONNX Layer: Clip_34]"
},{
  "Name": "Reformatting CopyNode for Input Tensor 0 to Conv_38",
  "LayerType": "NoOp",
  "Inputs": [
  {
    "Name": "input.76",
    "Location": "Device",
    "Dimensions": [1,96,64,128],
    "Format/Datatype": "Channel major FP32 format where channel % 4 == 0"
  }],
  "Outputs": [
  {
    "Name": "Reformatted Input Tensor 0 to Conv_38",
    "Location": "Device",
    "Dimensions": [1,96,64,128],
    "Format/Datatype": "Channel major FP32 format"
  }],
  "TacticValue": "0x0000000000000000",
  "StreamId": 0,
  "Metadata": ""
},{
  "Name": "Conv_38",
  "LayerType": "CaskConvolution",
  "Inputs": [
  {
    "Name": "Reformatted Input Tensor 0 to Conv_38",
    "Location": "Device",
    "Dimensions": [1,96,64,128],
    "Format/Datatype": "Channel major FP32 format"
  }],
  "Outputs": [
  {
    "Name": "input.84",
    "Location": "Device",
    "Dimensions": [1,24,64,128],
    "Format/Datatype": "Channel major FP32 format"
  }],
  "ParameterType": "Convolution",
  "Kernel": [1,1],
  "PaddingMode": "kEXPLICIT_ROUND_DOWN",
  "PrePadding": [0,0],
  "PostPadding": [0,0],
  "Stride": [1,1],
  "Dilation": [1,1],
  "OutMaps": 24,
  "Groups": 1,
  "Weights": {"Type": "Float", "Count": 2304},
  "Bias": {"Type": "Float", "Count": 24},
  "HasBias": 1,
  "HasReLU": 0,
  "HasSparseWeights": 0,
  "HasDynamicFilter": 0,
  "HasDynamicBias": 0,
  "HasResidual": 0,
  "ConvXAsActInputIdx": -1,
  "BiasAsActInputIdx": -1,
  "ResAsActInputIdx": -1,
  "Activation": "NONE",
  "TacticName": "sm80_xmma_fprop_implicit_gemm_f32f32_f32f32_f32_nhwckrsc_nhwc_tilesize128x32x8_stage3_warpsize2x2x1_g1_ffma_simple_t1r1s1_aligna4_alignc4",
  "TacticValue": "0xd9eb6ca56ddc3a22",
  "StreamId": 0,
  "Metadata": "[ONNX Layer: Conv_38]"
},{
  "Name": "Reformatting CopyNode for Input Tensor 0 to Conv_40 + Clip_44",
  "LayerType": "NoOp",
  "Inputs": [
  {
    "Name": "input.84",
    "Location": "Device",
    "Dimensions": [1,24,64,128],
    "Format/Datatype": "Channel major FP32 format"
  }],
  "Outputs": [
  {
    "Name": "Reformatted Input Tensor 0 to Conv_40 + Clip_44",
    "Location": "Device",
    "Dimensions": [1,24,64,128],
    "Format/Datatype": "Channel major FP32 format where channel % 4 == 0"
  }],
  "TacticValue": "0x0000000000000000",
  "StreamId": 0,
  "Metadata": ""
},{
  "Name": "Conv_40 + Clip_44",
  "LayerType": "CaskConvolution",
  "Inputs": [
  {
    "Name": "Reformatted Input Tensor 0 to Conv_40 + Clip_44",
    "Location": "Device",
    "Dimensions": [1,24,64,128],
    "Format/Datatype": "Channel major FP32 format where channel % 4 == 0"
  }],
  "Outputs": [
  {
    "Name": "input.100",
    "Location": "Device",
    "Dimensions": [1,144,64,128],
    "Format/Datatype": "Channel major FP32 format where channel % 4 == 0"
  }],
  "ParameterType": "Convolution",
  "Kernel": [1,1],
  "PaddingMode": "kEXPLICIT_ROUND_DOWN",
  "PrePadding": [0,0],
  "PostPadding": [0,0],
  "Stride": [1,1],
  "Dilation": [1,1],
  "OutMaps": 144,
  "Groups": 1,
  "Weights": {"Type": "Float", "Count": 3456},
  "Bias": {"Type": "Float", "Count": 144},
  "HasBias": 1,
  "HasReLU": 0,
  "HasSparseWeights": 0,
  "HasDynamicFilter": 0,
  "HasDynamicBias": 0,
  "HasResidual": 0,
  "ConvXAsActInputIdx": -1,
  "BiasAsActInputIdx": -1,
  "ResAsActInputIdx": -1,
  "Activation": "CLIPPED_RELU",
  "ParameterSubType": "[0.000000,6.000000]",
  "TacticName": "sm80_xmma_fprop_implicit_gemm_indexed_wo_smem_f32f32_tf32f32_f32_nhwckrsc_nhwc_tilesize128x32x16_stage1_warpsize4x1x1_g1_tensor16x8x8",
  "TacticValue": "0x9cb304e2edbc1221",
  "StreamId": 0,
  "Metadata": "[ONNX Layer: Conv_40]\u001e[ONNX Layer: Clip_44]"
},{
  "Name": "Conv_48 + Clip_52",
  "LayerType": "CaskConvolution",
  "Inputs": [
  {
    "Name": "input.100",
    "Location": "Device",
    "Dimensions": [1,144,64,128],
    "Format/Datatype": "Channel major FP32 format where channel % 4 == 0"
  }],
  "Outputs": [
  {
    "Name": "input.116",
    "Location": "Device",
    "Dimensions": [1,144,64,128],
    "Format/Datatype": "Channel major FP32 format where channel % 4 == 0"
  }],
  "ParameterType": "Convolution",
  "Kernel": [3,3],
  "PaddingMode": "kEXPLICIT_ROUND_DOWN",
  "PrePadding": [1,1],
  "PostPadding": [1,1],
  "Stride": [1,1],
  "Dilation": [1,1],
  "OutMaps": 144,
  "Groups": 144,
  "Weights": {"Type": "Float", "Count": 1296},
  "Bias": {"Type": "Float", "Count": 144},
  "HasBias": 1,
  "HasReLU": 0,
  "HasSparseWeights": 0,
  "HasDynamicFilter": 0,
  "HasDynamicBias": 0,
  "HasResidual": 0,
  "ConvXAsActInputIdx": -1,
  "BiasAsActInputIdx": -1,
  "ResAsActInputIdx": -1,
  "Activation": "CLIPPED_RELU",
  "ParameterSubType": "[0.000000,6.000000]",
  "TacticName": "sm50_xmma_convolution_trt_depthwiseFP32NHWC4_fp32nhwcx4_fp32nhwcx4_fp32kcrs",
  "TacticValue": "0x2cac8ad6921b6398",
  "StreamId": 0,
  "Metadata": "[ONNX Layer: Conv_48]\u001e[ONNX Layer: Clip_52]"
},{
  "Name": "Reformatting CopyNode for Input Tensor 0 to Conv_56 + Add_58",
  "LayerType": "NoOp",
  "Inputs": [
  {
    "Name": "input.116",
    "Location": "Device",
    "Dimensions": [1,144,64,128],
    "Format/Datatype": "Channel major FP32 format where channel % 4 == 0"
  }],
  "Outputs": [
  {
    "Name": "Reformatted Input Tensor 0 to Conv_56 + Add_58",
    "Location": "Device",
    "Dimensions": [1,144,64,128],
    "Format/Datatype": "Channel major FP32 format"
  }],
  "TacticValue": "0x0000000000000000",
  "StreamId": 0,
  "Metadata": ""
},{
  "Name": "Conv_56 + Add_58",
  "LayerType": "CaskConvolution",
  "Inputs": [
  {
    "Name": "Reformatted Input Tensor 0 to Conv_56 + Add_58",
    "Location": "Device",
    "Dimensions": [1,144,64,128],
    "Format/Datatype": "Channel major FP32 format"
  },
  {
    "Name": "input.84",
    "Location": "Device",
    "Dimensions": [1,24,64,128],
    "Format/Datatype": "Channel major FP32 format"
  }],
  "Outputs": [
  {
    "Name": "input.124",
    "Location": "Device",
    "Dimensions": [1,24,64,128],
    "Format/Datatype": "Channel major FP32 format"
  }],
  "ParameterType": "Convolution",
  "Kernel": [1,1],
  "PaddingMode": "kEXPLICIT_ROUND_DOWN",
  "PrePadding": [0,0],
  "PostPadding": [0,0],
  "Stride": [1,1],
  "Dilation": [1,1],
  "OutMaps": 24,
  "Groups": 1,
  "Weights": {"Type": "Float", "Count": 3456},
  "Bias": {"Type": "Float", "Count": 24},
  "HasBias": 1,
  "HasReLU": 0,
  "HasSparseWeights": 0,
  "HasDynamicFilter": 0,
  "HasDynamicBias": 0,
  "HasResidual": 1,
  "ConvXAsActInputIdx": -1,
  "BiasAsActInputIdx": -1,
  "ResAsActInputIdx": -1,
  "Activation": "NONE",
  "TacticName": "sm80_xmma_fprop_implicit_gemm_f32f32_f32f32_f32_nhwckrsc_nhwc_tilesize128x32x8_stage3_warpsize2x2x1_g1_ffma_simple_t1r1s1_aligna4_alignc4",
  "TacticValue": "0xd9eb6ca56ddc3a22",
  "StreamId": 0,
  "Metadata": "[ONNX Layer: Conv_56]\u001e[ONNX Layer: Add_58]"
},{
  "Name": "Reformatting CopyNode for Input Tensor 0 to Conv_60 + Clip_64",
  "LayerType": "NoOp",
  "Inputs": [
  {
    "Name": "input.124",
    "Location": "Device",
    "Dimensions": [1,24,64,128],
    "Format/Datatype": "Channel major FP32 format"
  }],
  "Outputs": [
  {
    "Name": "Reformatted Input Tensor 0 to Conv_60 + Clip_64",
    "Location": "Device",
    "Dimensions": [1,24,64,128],
    "Format/Datatype": "Channel major FP32 format where channel % 4 == 0"
  }],
  "TacticValue": "0x0000000000000000",
  "StreamId": 0,
  "Metadata": ""
},{
  "Name": "Conv_60 + Clip_64",
  "LayerType": "CaskConvolution",
  "Inputs": [
  {
    "Name": "Reformatted Input Tensor 0 to Conv_60 + Clip_64",
    "Location": "Device",
    "Dimensions": [1,24,64,128],
    "Format/Datatype": "Channel major FP32 format where channel % 4 == 0"
  }],
  "Outputs": [
  {
    "Name": "input.140",
    "Location": "Device",
    "Dimensions": [1,144,64,128],
    "Format/Datatype": "Channel major FP32 format where channel % 4 == 0"
  }],
  "ParameterType": "Convolution",
  "Kernel": [1,1],
  "PaddingMode": "kEXPLICIT_ROUND_DOWN",
  "PrePadding": [0,0],
  "PostPadding": [0,0],
  "Stride": [1,1],
  "Dilation": [1,1],
  "OutMaps": 144,
  "Groups": 1,
  "Weights": {"Type": "Float", "Count": 3456},
  "Bias": {"Type": "Float", "Count": 144},
  "HasBias": 1,
  "HasReLU": 0,
  "HasSparseWeights": 0,
  "HasDynamicFilter": 0,
  "HasDynamicBias": 0,
  "HasResidual": 0,
  "ConvXAsActInputIdx": -1,
  "BiasAsActInputIdx": -1,
  "ResAsActInputIdx": -1,
  "Activation": "CLIPPED_RELU",
  "ParameterSubType": "[0.000000,6.000000]",
  "TacticName": "sm80_xmma_fprop_implicit_gemm_indexed_wo_smem_f32f32_tf32f32_f32_nhwckrsc_nhwc_tilesize128x32x16_stage1_warpsize4x1x1_g1_tensor16x8x8",
  "TacticValue": "0x9cb304e2edbc1221",
  "StreamId": 0,
  "Metadata": "[ONNX Layer: Conv_60]\u001e[ONNX Layer: Clip_64]"
},{
  "Name": "Conv_68 + Clip_72",
  "LayerType": "CaskConvolution",
  "Inputs": [
  {
    "Name": "input.140",
    "Location": "Device",
    "Dimensions": [1,144,64,128],
    "Format/Datatype": "Channel major FP32 format where channel % 4 == 0"
  }],
  "Outputs": [
  {
    "Name": "input.156",
    "Location": "Device",
    "Dimensions": [1,144,32,64],
    "Format/Datatype": "Channel major FP32 format where channel % 4 == 0"
  }],
  "ParameterType": "Convolution",
  "Kernel": [3,3],
  "PaddingMode": "kEXPLICIT_ROUND_DOWN",
  "PrePadding": [1,1],
  "PostPadding": [1,1],
  "Stride": [2,2],
  "Dilation": [1,1],
  "OutMaps": 144,
  "Groups": 144,
  "Weights": {"Type": "Float", "Count": 1296},
  "Bias": {"Type": "Float", "Count": 144},
  "HasBias": 1,
  "HasReLU": 0,
  "HasSparseWeights": 0,
  "HasDynamicFilter": 0,
  "HasDynamicBias": 0,
  "HasResidual": 0,
  "ConvXAsActInputIdx": -1,
  "BiasAsActInputIdx": -1,
  "ResAsActInputIdx": -1,
  "Activation": "CLIPPED_RELU",
  "ParameterSubType": "[0.000000,6.000000]",
  "TacticName": "sm50_xmma_convolution_trt_depthwiseFP32NHWC4_fp32nhwcx4_fp32nhwcx4_fp32kcrs",
  "TacticValue": "0x2cac8ad6921b6398",
  "StreamId": 0,
  "Metadata": "[ONNX Layer: Conv_68]\u001e[ONNX Layer: Clip_72]"
},{
  "Name": "Conv_76",
  "LayerType": "CaskGemmConvolution",
  "Inputs": [
  {
    "Name": "input.156",
    "Location": "Device",
    "Dimensions": [1,144,32,64],
    "Format/Datatype": "Channel major FP32 format where channel % 4 == 0"
  }],
  "Outputs": [
  {
    "Name": "input.164",
    "Location": "Device",
    "Dimensions": [1,32,32,64],
    "Format/Datatype": "Channel major FP32 format where channel % 4 == 0"
  }],
  "ParameterType": "Convolution",
  "Kernel": [1,1],
  "PaddingMode": "kEXPLICIT_ROUND_DOWN",
  "PrePadding": [0,0],
  "PostPadding": [0,0],
  "Stride": [1,1],
  "Dilation": [1,1],
  "OutMaps": 32,
  "Groups": 1,
  "Weights": {"Type": "Float", "Count": 4608},
  "Bias": {"Type": "Float", "Count": 32},
  "HasBias": 1,
  "HasReLU": 0,
  "HasSparseWeights": 0,
  "HasDynamicFilter": 0,
  "HasDynamicBias": 0,
  "HasResidual": 0,
  "ConvXAsActInputIdx": -1,
  "BiasAsActInputIdx": -1,
  "ResAsActInputIdx": -1,
  "Activation": "NONE",
  "TacticName": "sm80_xmma_gemm_f32f32_tf32f32_f32_tn_n_tilesize64x32x64_stage4_warpsize2x1x2_tensor16x8x8",
  "TacticValue": "0x0000000000020613",
  "StreamId": 0,
  "Metadata": "[ONNX Layer: Conv_76]"
},{
  "Name": "Conv_78 + Clip_82",
  "LayerType": "CaskConvolution",
  "Inputs": [
  {
    "Name": "input.164",
    "Location": "Device",
    "Dimensions": [1,32,32,64],
    "Format/Datatype": "Channel major FP32 format where channel % 4 == 0"
  }],
  "Outputs": [
  {
    "Name": "input.180",
    "Location": "Device",
    "Dimensions": [1,192,32,64],
    "Format/Datatype": "Channel major FP32 format where channel % 4 == 0"
  }],
  "ParameterType": "Convolution",
  "Kernel": [1,1],
  "PaddingMode": "kEXPLICIT_ROUND_DOWN",
  "PrePadding": [0,0],
  "PostPadding": [0,0],
  "Stride": [1,1],
  "Dilation": [1,1],
  "OutMaps": 192,
  "Groups": 1,
  "Weights": {"Type": "Float", "Count": 6144},
  "Bias": {"Type": "Float", "Count": 192},
  "HasBias": 1,
  "HasReLU": 0,
  "HasSparseWeights": 0,
  "HasDynamicFilter": 0,
  "HasDynamicBias": 0,
  "HasResidual": 0,
  "ConvXAsActInputIdx": -1,
  "BiasAsActInputIdx": -1,
  "ResAsActInputIdx": -1,
  "Activation": "CLIPPED_RELU",
  "ParameterSubType": "[0.000000,6.000000]",
  "TacticName": "sm80_xmma_fprop_implicit_gemm_indexed_wo_smem_f32f32_tf32f32_f32_nhwckrsc_nhwc_tilesize128x32x16_stage1_warpsize4x1x1_g1_tensor16x8x8_alignc8",
  "TacticValue": "0x72a5d05b1bb165ef",
  "StreamId": 0,
  "Metadata": "[ONNX Layer: Conv_78]\u001e[ONNX Layer: Clip_82]"
},{
  "Name": "Conv_86 + Clip_90",
  "LayerType": "CaskConvolution",
  "Inputs": [
  {
    "Name": "input.180",
    "Location": "Device",
    "Dimensions": [1,192,32,64],
    "Format/Datatype": "Channel major FP32 format where channel % 4 == 0"
  }],
  "Outputs": [
  {
    "Name": "input.196",
    "Location": "Device",
    "Dimensions": [1,192,32,64],
    "Format/Datatype": "Channel major FP32 format where channel % 4 == 0"
  }],
  "ParameterType": "Convolution",
  "Kernel": [3,3],
  "PaddingMode": "kEXPLICIT_ROUND_DOWN",
  "PrePadding": [1,1],
  "PostPadding": [1,1],
  "Stride": [1,1],
  "Dilation": [1,1],
  "OutMaps": 192,
  "Groups": 192,
  "Weights": {"Type": "Float", "Count": 1728},
  "Bias": {"Type": "Float", "Count": 192},
  "HasBias": 1,
  "HasReLU": 0,
  "HasSparseWeights": 0,
  "HasDynamicFilter": 0,
  "HasDynamicBias": 0,
  "HasResidual": 0,
  "ConvXAsActInputIdx": -1,
  "BiasAsActInputIdx": -1,
  "ResAsActInputIdx": -1,
  "Activation": "CLIPPED_RELU",
  "ParameterSubType": "[0.000000,6.000000]",
  "TacticName": "sm50_xmma_convolution_trt_depthwiseFP32NHWC4_fp32nhwcx4_fp32nhwcx4_fp32kcrs",
  "TacticValue": "0x2cac8ad6921b6398",
  "StreamId": 0,
  "Metadata": "[ONNX Layer: Conv_86]\u001e[ONNX Layer: Clip_90]"
},{
  "Name": "Conv_94 + Add_96",
  "LayerType": "CaskGemmConvolution",
  "Inputs": [
  {
    "Name": "input.196",
    "Location": "Device",
    "Dimensions": [1,192,32,64],
    "Format/Datatype": "Channel major FP32 format where channel % 4 == 0"
  },
  {
    "Name": "input.164",
    "Location": "Device",
    "Dimensions": [1,32,32,64],
    "Format/Datatype": "Channel major FP32 format where channel % 4 == 0"
  }],
  "Outputs": [
  {
    "Name": "input.204",
    "Location": "Device",
    "Dimensions": [1,32,32,64],
    "Format/Datatype": "Channel major FP32 format where channel % 4 == 0"
  }],
  "ParameterType": "Convolution",
  "Kernel": [1,1],
  "PaddingMode": "kEXPLICIT_ROUND_DOWN",
  "PrePadding": [0,0],
  "PostPadding": [0,0],
  "Stride": [1,1],
  "Dilation": [1,1],
  "OutMaps": 32,
  "Groups": 1,
  "Weights": {"Type": "Float", "Count": 6144},
  "Bias": {"Type": "Float", "Count": 32},
  "HasBias": 1,
  "HasReLU": 0,
  "HasSparseWeights": 0,
  "HasDynamicFilter": 0,
  "HasDynamicBias": 0,
  "HasResidual": 1,
  "ConvXAsActInputIdx": -1,
  "BiasAsActInputIdx": -1,
  "ResAsActInputIdx": -1,
  "Activation": "NONE",
  "TacticName": "sm80_xmma_gemm_f32f32_tf32f32_f32_tn_n_tilesize64x32x64_stage4_warpsize2x1x2_tensor16x8x8",
  "TacticValue": "0x0000000000020613",
  "StreamId": 0,
  "Metadata": "[ONNX Layer: Conv_94]\u001e[ONNX Layer: Add_96]"
},{
  "Name": "Conv_98 + Clip_102",
  "LayerType": "CaskConvolution",
  "Inputs": [
  {
    "Name": "input.204",
    "Location": "Device",
    "Dimensions": [1,32,32,64],
    "Format/Datatype": "Channel major FP32 format where channel % 4 == 0"
  }],
  "Outputs": [
  {
    "Name": "input.220",
    "Location": "Device",
    "Dimensions": [1,192,32,64],
    "Format/Datatype": "Channel major FP32 format where channel % 4 == 0"
  }],
  "ParameterType": "Convolution",
  "Kernel": [1,1],
  "PaddingMode": "kEXPLICIT_ROUND_DOWN",
  "PrePadding": [0,0],
  "PostPadding": [0,0],
  "Stride": [1,1],
  "Dilation": [1,1],
  "OutMaps": 192,
  "Groups": 1,
  "Weights": {"Type": "Float", "Count": 6144},
  "Bias": {"Type": "Float", "Count": 192},
  "HasBias": 1,
  "HasReLU": 0,
  "HasSparseWeights": 0,
  "HasDynamicFilter": 0,
  "HasDynamicBias": 0,
  "HasResidual": 0,
  "ConvXAsActInputIdx": -1,
  "BiasAsActInputIdx": -1,
  "ResAsActInputIdx": -1,
  "Activation": "CLIPPED_RELU",
  "ParameterSubType": "[0.000000,6.000000]",
  "TacticName": "sm80_xmma_fprop_implicit_gemm_indexed_wo_smem_f32f32_tf32f32_f32_nhwckrsc_nhwc_tilesize128x32x16_stage1_warpsize4x1x1_g1_tensor16x8x8_alignc8",
  "TacticValue": "0x72a5d05b1bb165ef",
  "StreamId": 0,
  "Metadata": "[ONNX Layer: Conv_98]\u001e[ONNX Layer: Clip_102]"
},{
  "Name": "Conv_106 + Clip_110",
  "LayerType": "CaskConvolution",
  "Inputs": [
  {
    "Name": "input.220",
    "Location": "Device",
    "Dimensions": [1,192,32,64],
    "Format/Datatype": "Channel major FP32 format where channel % 4 == 0"
  }],
  "Outputs": [
  {
    "Name": "input.236",
    "Location": "Device",
    "Dimensions": [1,192,32,64],
    "Format/Datatype": "Channel major FP32 format where channel % 4 == 0"
  }],
  "ParameterType": "Convolution",
  "Kernel": [3,3],
  "PaddingMode": "kEXPLICIT_ROUND_DOWN",
  "PrePadding": [1,1],
  "PostPadding": [1,1],
  "Stride": [1,1],
  "Dilation": [1,1],
  "OutMaps": 192,
  "Groups": 192,
  "Weights": {"Type": "Float", "Count": 1728},
  "Bias": {"Type": "Float", "Count": 192},
  "HasBias": 1,
  "HasReLU": 0,
  "HasSparseWeights": 0,
  "HasDynamicFilter": 0,
  "HasDynamicBias": 0,
  "HasResidual": 0,
  "ConvXAsActInputIdx": -1,
  "BiasAsActInputIdx": -1,
  "ResAsActInputIdx": -1,
  "Activation": "CLIPPED_RELU",
  "ParameterSubType": "[0.000000,6.000000]",
  "TacticName": "sm50_xmma_convolution_trt_depthwiseFP32NHWC4_fp32nhwcx4_fp32nhwcx4_fp32kcrs",
  "TacticValue": "0x2cac8ad6921b6398",
  "StreamId": 0,
  "Metadata": "[ONNX Layer: Conv_106]\u001e[ONNX Layer: Clip_110]"
},{
  "Name": "Conv_114 + Add_116",
  "LayerType": "CaskGemmConvolution",
  "Inputs": [
  {
    "Name": "input.236",
    "Location": "Device",
    "Dimensions": [1,192,32,64],
    "Format/Datatype": "Channel major FP32 format where channel % 4 == 0"
  },
  {
    "Name": "input.204",
    "Location": "Device",
    "Dimensions": [1,32,32,64],
    "Format/Datatype": "Channel major FP32 format where channel % 4 == 0"
  }],
  "Outputs": [
  {
    "Name": "input.244",
    "Location": "Device",
    "Dimensions": [1,32,32,64],
    "Format/Datatype": "Channel major FP32 format where channel % 4 == 0"
  }],
  "ParameterType": "Convolution",
  "Kernel": [1,1],
  "PaddingMode": "kEXPLICIT_ROUND_DOWN",
  "PrePadding": [0,0],
  "PostPadding": [0,0],
  "Stride": [1,1],
  "Dilation": [1,1],
  "OutMaps": 32,
  "Groups": 1,
  "Weights": {"Type": "Float", "Count": 6144},
  "Bias": {"Type": "Float", "Count": 32},
  "HasBias": 1,
  "HasReLU": 0,
  "HasSparseWeights": 0,
  "HasDynamicFilter": 0,
  "HasDynamicBias": 0,
  "HasResidual": 1,
  "ConvXAsActInputIdx": -1,
  "BiasAsActInputIdx": -1,
  "ResAsActInputIdx": -1,
  "Activation": "NONE",
  "TacticName": "sm80_xmma_gemm_f32f32_tf32f32_f32_tn_n_tilesize64x32x64_stage4_warpsize2x1x2_tensor16x8x8",
  "TacticValue": "0x0000000000020613",
  "StreamId": 0,
  "Metadata": "[ONNX Layer: Conv_114]\u001e[ONNX Layer: Add_116]"
},{
  "Name": "Conv_118 + Clip_122",
  "LayerType": "CaskConvolution",
  "Inputs": [
  {
    "Name": "input.244",
    "Location": "Device",
    "Dimensions": [1,32,32,64],
    "Format/Datatype": "Channel major FP32 format where channel % 4 == 0"
  }],
  "Outputs": [
  {
    "Name": "input.260",
    "Location": "Device",
    "Dimensions": [1,192,32,64],
    "Format/Datatype": "Channel major FP32 format where channel % 4 == 0"
  }],
  "ParameterType": "Convolution",
  "Kernel": [1,1],
  "PaddingMode": "kEXPLICIT_ROUND_DOWN",
  "PrePadding": [0,0],
  "PostPadding": [0,0],
  "Stride": [1,1],
  "Dilation": [1,1],
  "OutMaps": 192,
  "Groups": 1,
  "Weights": {"Type": "Float", "Count": 6144},
  "Bias": {"Type": "Float", "Count": 192},
  "HasBias": 1,
  "HasReLU": 0,
  "HasSparseWeights": 0,
  "HasDynamicFilter": 0,
  "HasDynamicBias": 0,
  "HasResidual": 0,
  "ConvXAsActInputIdx": -1,
  "BiasAsActInputIdx": -1,
  "ResAsActInputIdx": -1,
  "Activation": "CLIPPED_RELU",
  "ParameterSubType": "[0.000000,6.000000]",
  "TacticName": "sm80_xmma_fprop_implicit_gemm_indexed_wo_smem_f32f32_tf32f32_f32_nhwckrsc_nhwc_tilesize128x32x16_stage1_warpsize4x1x1_g1_tensor16x8x8_alignc8",
  "TacticValue": "0x72a5d05b1bb165ef",
  "StreamId": 0,
  "Metadata": "[ONNX Layer: Conv_118]\u001e[ONNX Layer: Clip_122]"
},{
  "Name": "Conv_126 + Clip_130",
  "LayerType": "CaskConvolution",
  "Inputs": [
  {
    "Name": "input.260",
    "Location": "Device",
    "Dimensions": [1,192,32,64],
    "Format/Datatype": "Channel major FP32 format where channel % 4 == 0"
  }],
  "Outputs": [
  {
    "Name": "input.276",
    "Location": "Device",
    "Dimensions": [1,192,16,32],
    "Format/Datatype": "Channel major FP32 format where channel % 4 == 0"
  }],
  "ParameterType": "Convolution",
  "Kernel": [3,3],
  "PaddingMode": "kEXPLICIT_ROUND_DOWN",
  "PrePadding": [1,1],
  "PostPadding": [1,1],
  "Stride": [2,2],
  "Dilation": [1,1],
  "OutMaps": 192,
  "Groups": 192,
  "Weights": {"Type": "Float", "Count": 1728},
  "Bias": {"Type": "Float", "Count": 192},
  "HasBias": 1,
  "HasReLU": 0,
  "HasSparseWeights": 0,
  "HasDynamicFilter": 0,
  "HasDynamicBias": 0,
  "HasResidual": 0,
  "ConvXAsActInputIdx": -1,
  "BiasAsActInputIdx": -1,
  "ResAsActInputIdx": -1,
  "Activation": "CLIPPED_RELU",
  "ParameterSubType": "[0.000000,6.000000]",
  "TacticName": "sm50_xmma_convolution_trt_depthwiseFP32NHWC4_fp32nhwcx4_fp32nhwcx4_fp32kcrs",
  "TacticValue": "0x2cac8ad6921b6398",
  "StreamId": 0,
  "Metadata": "[ONNX Layer: Conv_126]\u001e[ONNX Layer: Clip_130]"
},{
  "Name": "Conv_134",
  "LayerType": "CaskGemmConvolution",
  "Inputs": [
  {
    "Name": "input.276",
    "Location": "Device",
    "Dimensions": [1,192,16,32],
    "Format/Datatype": "Channel major FP32 format where channel % 4 == 0"
  }],
  "Outputs": [
  {
    "Name": "input.284",
    "Location": "Device",
    "Dimensions": [1,64,16,32],
    "Format/Datatype": "Channel major FP32 format where channel % 4 == 0"
  }],
  "ParameterType": "Convolution",
  "Kernel": [1,1],
  "PaddingMode": "kEXPLICIT_ROUND_DOWN",
  "PrePadding": [0,0],
  "PostPadding": [0,0],
  "Stride": [1,1],
  "Dilation": [1,1],
  "OutMaps": 64,
  "Groups": 1,
  "Weights": {"Type": "Float", "Count": 12288},
  "Bias": {"Type": "Float", "Count": 64},
  "HasBias": 1,
  "HasReLU": 0,
  "HasSparseWeights": 0,
  "HasDynamicFilter": 0,
  "HasDynamicBias": 0,
  "HasResidual": 0,
  "ConvXAsActInputIdx": -1,
  "BiasAsActInputIdx": -1,
  "ResAsActInputIdx": -1,
  "Activation": "NONE",
  "TacticName": "sm86_xmma_gemm_f32f32_tf32f32_f32_tn_n_tilesize32x32x64_stage6_warpsize2x2x1_tensor16x8x8",
  "TacticValue": "0x0000000000020464",
  "StreamId": 0,
  "Metadata": "[ONNX Layer: Conv_134]"
},{
  "Name": "Conv_136 + Clip_140",
  "LayerType": "CaskConvolution",
  "Inputs": [
  {
    "Name": "input.284",
    "Location": "Device",
    "Dimensions": [1,64,16,32],
    "Format/Datatype": "Channel major FP32 format where channel % 4 == 0"
  }],
  "Outputs": [
  {
    "Name": "input.300",
    "Location": "Device",
    "Dimensions": [1,384,16,32],
    "Format/Datatype": "Channel major FP32 format where channel % 4 == 0"
  }],
  "ParameterType": "Convolution",
  "Kernel": [1,1],
  "PaddingMode": "kEXPLICIT_ROUND_DOWN",
  "PrePadding": [0,0],
  "PostPadding": [0,0],
  "Stride": [1,1],
  "Dilation": [1,1],
  "OutMaps": 384,
  "Groups": 1,
  "Weights": {"Type": "Float", "Count": 24576},
  "Bias": {"Type": "Float", "Count": 384},
  "HasBias": 1,
  "HasReLU": 0,
  "HasSparseWeights": 0,
  "HasDynamicFilter": 0,
  "HasDynamicBias": 0,
  "HasResidual": 0,
  "ConvXAsActInputIdx": -1,
  "BiasAsActInputIdx": -1,
  "ResAsActInputIdx": -1,
  "Activation": "CLIPPED_RELU",
  "ParameterSubType": "[0.000000,6.000000]",
  "TacticName": "sm80_xmma_fprop_implicit_gemm_indexed_wo_smem_f32f32_tf32f32_f32_nhwckrsc_nhwc_tilesize128x16x64_stage1_warpsize4x1x1_g1_tensor16x8x8",
  "TacticValue": "0x10383a0781d24dde",
  "StreamId": 0,
  "Metadata": "[ONNX Layer: Conv_136]\u001e[ONNX Layer: Clip_140]"
},{
  "Name": "Conv_144 + Clip_148",
  "LayerType": "CaskConvolution",
  "Inputs": [
  {
    "Name": "input.300",
    "Location": "Device",
    "Dimensions": [1,384,16,32],
    "Format/Datatype": "Channel major FP32 format where channel % 4 == 0"
  }],
  "Outputs": [
  {
    "Name": "input.316",
    "Location": "Device",
    "Dimensions": [1,384,16,32],
    "Format/Datatype": "Channel major FP32 format where channel % 4 == 0"
  }],
  "ParameterType": "Convolution",
  "Kernel": [3,3],
  "PaddingMode": "kEXPLICIT_ROUND_DOWN",
  "PrePadding": [1,1],
  "PostPadding": [1,1],
  "Stride": [1,1],
  "Dilation": [1,1],
  "OutMaps": 384,
  "Groups": 384,
  "Weights": {"Type": "Float", "Count": 3456},
  "Bias": {"Type": "Float", "Count": 384},
  "HasBias": 1,
  "HasReLU": 0,
  "HasSparseWeights": 0,
  "HasDynamicFilter": 0,
  "HasDynamicBias": 0,
  "HasResidual": 0,
  "ConvXAsActInputIdx": -1,
  "BiasAsActInputIdx": -1,
  "ResAsActInputIdx": -1,
  "Activation": "CLIPPED_RELU",
  "ParameterSubType": "[0.000000,6.000000]",
  "TacticName": "sm50_xmma_convolution_trt_depthwiseFP32NHWC4_fp32nhwcx4_fp32nhwcx4_fp32kcrs",
  "TacticValue": "0x2cac8ad6921b6398",
  "StreamId": 0,
  "Metadata": "[ONNX Layer: Conv_144]\u001e[ONNX Layer: Clip_148]"
},{
  "Name": "Conv_152 + Add_154",
  "LayerType": "CaskGemmConvolution",
  "Inputs": [
  {
    "Name": "input.316",
    "Location": "Device",
    "Dimensions": [1,384,16,32],
    "Format/Datatype": "Channel major FP32 format where channel % 4 == 0"
  },
  {
    "Name": "input.284",
    "Location": "Device",
    "Dimensions": [1,64,16,32],
    "Format/Datatype": "Channel major FP32 format where channel % 4 == 0"
  }],
  "Outputs": [
  {
    "Name": "input.324",
    "Location": "Device",
    "Dimensions": [1,64,16,32],
    "Format/Datatype": "Channel major FP32 format where channel % 4 == 0"
  }],
  "ParameterType": "Convolution",
  "Kernel": [1,1],
  "PaddingMode": "kEXPLICIT_ROUND_DOWN",
  "PrePadding": [0,0],
  "PostPadding": [0,0],
  "Stride": [1,1],
  "Dilation": [1,1],
  "OutMaps": 64,
  "Groups": 1,
  "Weights": {"Type": "Float", "Count": 24576},
  "Bias": {"Type": "Float", "Count": 64},
  "HasBias": 1,
  "HasReLU": 0,
  "HasSparseWeights": 0,
  "HasDynamicFilter": 0,
  "HasDynamicBias": 0,
  "HasResidual": 1,
  "ConvXAsActInputIdx": -1,
  "BiasAsActInputIdx": -1,
  "ResAsActInputIdx": -1,
  "Activation": "NONE",
  "TacticName": "sm80_xmma_gemm_f32f32_tf32f32_f32_tn_n_tilesize32x32x64_stage3_warpsize2x1x2_tensor16x8x8",
  "TacticValue": "0x00000000000206ea",
  "StreamId": 0,
  "Metadata": "[ONNX Layer: Conv_152]\u001e[ONNX Layer: Add_154]"
},{
  "Name": "Conv_156 + Clip_160",
  "LayerType": "CaskConvolution",
  "Inputs": [
  {
    "Name": "input.324",
    "Location": "Device",
    "Dimensions": [1,64,16,32],
    "Format/Datatype": "Channel major FP32 format where channel % 4 == 0"
  }],
  "Outputs": [
  {
    "Name": "input.340",
    "Location": "Device",
    "Dimensions": [1,384,16,32],
    "Format/Datatype": "Channel major FP32 format where channel % 4 == 0"
  }],
  "ParameterType": "Convolution",
  "Kernel": [1,1],
  "PaddingMode": "kEXPLICIT_ROUND_DOWN",
  "PrePadding": [0,0],
  "PostPadding": [0,0],
  "Stride": [1,1],
  "Dilation": [1,1],
  "OutMaps": 384,
  "Groups": 1,
  "Weights": {"Type": "Float", "Count": 24576},
  "Bias": {"Type": "Float", "Count": 384},
  "HasBias": 1,
  "HasReLU": 0,
  "HasSparseWeights": 0,
  "HasDynamicFilter": 0,
  "HasDynamicBias": 0,
  "HasResidual": 0,
  "ConvXAsActInputIdx": -1,
  "BiasAsActInputIdx": -1,
  "ResAsActInputIdx": -1,
  "Activation": "CLIPPED_RELU",
  "ParameterSubType": "[0.000000,6.000000]",
  "TacticName": "sm80_xmma_fprop_implicit_gemm_indexed_wo_smem_f32f32_tf32f32_f32_nhwckrsc_nhwc_tilesize128x16x64_stage1_warpsize4x1x1_g1_tensor16x8x8",
  "TacticValue": "0x10383a0781d24dde",
  "StreamId": 0,
  "Metadata": "[ONNX Layer: Conv_156]\u001e[ONNX Layer: Clip_160]"
},{
  "Name": "Conv_164 + Clip_168",
  "LayerType": "CaskConvolution",
  "Inputs": [
  {
    "Name": "input.340",
    "Location": "Device",
    "Dimensions": [1,384,16,32],
    "Format/Datatype": "Channel major FP32 format where channel % 4 == 0"
  }],
  "Outputs": [
  {
    "Name": "input.356",
    "Location": "Device",
    "Dimensions": [1,384,16,32],
    "Format/Datatype": "Channel major FP32 format where channel % 4 == 0"
  }],
  "ParameterType": "Convolution",
  "Kernel": [3,3],
  "PaddingMode": "kEXPLICIT_ROUND_DOWN",
  "PrePadding": [1,1],
  "PostPadding": [1,1],
  "Stride": [1,1],
  "Dilation": [1,1],
  "OutMaps": 384,
  "Groups": 384,
  "Weights": {"Type": "Float", "Count": 3456},
  "Bias": {"Type": "Float", "Count": 384},
  "HasBias": 1,
  "HasReLU": 0,
  "HasSparseWeights": 0,
  "HasDynamicFilter": 0,
  "HasDynamicBias": 0,
  "HasResidual": 0,
  "ConvXAsActInputIdx": -1,
  "BiasAsActInputIdx": -1,
  "ResAsActInputIdx": -1,
  "Activation": "CLIPPED_RELU",
  "ParameterSubType": "[0.000000,6.000000]",
  "TacticName": "sm50_xmma_convolution_trt_depthwiseFP32NHWC4_fp32nhwcx4_fp32nhwcx4_fp32kcrs",
  "TacticValue": "0x2cac8ad6921b6398",
  "StreamId": 0,
  "Metadata": "[ONNX Layer: Conv_164]\u001e[ONNX Layer: Clip_168]"
},{
  "Name": "Conv_172 + Add_174",
  "LayerType": "CaskGemmConvolution",
  "Inputs": [
  {
    "Name": "input.356",
    "Location": "Device",
    "Dimensions": [1,384,16,32],
    "Format/Datatype": "Channel major FP32 format where channel % 4 == 0"
  },
  {
    "Name": "input.324",
    "Location": "Device",
    "Dimensions": [1,64,16,32],
    "Format/Datatype": "Channel major FP32 format where channel % 4 == 0"
  }],
  "Outputs": [
  {
    "Name": "input.364",
    "Location": "Device",
    "Dimensions": [1,64,16,32],
    "Format/Datatype": "Channel major FP32 format where channel % 4 == 0"
  }],
  "ParameterType": "Convolution",
  "Kernel": [1,1],
  "PaddingMode": "kEXPLICIT_ROUND_DOWN",
  "PrePadding": [0,0],
  "PostPadding": [0,0],
  "Stride": [1,1],
  "Dilation": [1,1],
  "OutMaps": 64,
  "Groups": 1,
  "Weights": {"Type": "Float", "Count": 24576},
  "Bias": {"Type": "Float", "Count": 64},
  "HasBias": 1,
  "HasReLU": 0,
  "HasSparseWeights": 0,
  "HasDynamicFilter": 0,
  "HasDynamicBias": 0,
  "HasResidual": 1,
  "ConvXAsActInputIdx": -1,
  "BiasAsActInputIdx": -1,
  "ResAsActInputIdx": -1,
  "Activation": "NONE",
  "TacticName": "sm80_xmma_gemm_f32f32_tf32f32_f32_tn_n_tilesize32x32x64_stage3_warpsize2x1x2_tensor16x8x8",
  "TacticValue": "0x00000000000206ea",
  "StreamId": 0,
  "Metadata": "[ONNX Layer: Conv_172]\u001e[ONNX Layer: Add_174]"
},{
  "Name": "Conv_176 + Clip_180",
  "LayerType": "CaskConvolution",
  "Inputs": [
  {
    "Name": "input.364",
    "Location": "Device",
    "Dimensions": [1,64,16,32],
    "Format/Datatype": "Channel major FP32 format where channel % 4 == 0"
  }],
  "Outputs": [
  {
    "Name": "input.380",
    "Location": "Device",
    "Dimensions": [1,384,16,32],
    "Format/Datatype": "Channel major FP32 format where channel % 4 == 0"
  }],
  "ParameterType": "Convolution",
  "Kernel": [1,1],
  "PaddingMode": "kEXPLICIT_ROUND_DOWN",
  "PrePadding": [0,0],
  "PostPadding": [0,0],
  "Stride": [1,1],
  "Dilation": [1,1],
  "OutMaps": 384,
  "Groups": 1,
  "Weights": {"Type": "Float", "Count": 24576},
  "Bias": {"Type": "Float", "Count": 384},
  "HasBias": 1,
  "HasReLU": 0,
  "HasSparseWeights": 0,
  "HasDynamicFilter": 0,
  "HasDynamicBias": 0,
  "HasResidual": 0,
  "ConvXAsActInputIdx": -1,
  "BiasAsActInputIdx": -1,
  "ResAsActInputIdx": -1,
  "Activation": "CLIPPED_RELU",
  "ParameterSubType": "[0.000000,6.000000]",
  "TacticName": "sm80_xmma_fprop_implicit_gemm_indexed_wo_smem_f32f32_tf32f32_f32_nhwckrsc_nhwc_tilesize128x16x64_stage1_warpsize4x1x1_g1_tensor16x8x8",
  "TacticValue": "0x10383a0781d24dde",
  "StreamId": 0,
  "Metadata": "[ONNX Layer: Conv_176]\u001e[ONNX Layer: Clip_180]"
},{
  "Name": "Conv_184 + Clip_188",
  "LayerType": "CaskConvolution",
  "Inputs": [
  {
    "Name": "input.380",
    "Location": "Device",
    "Dimensions": [1,384,16,32],
    "Format/Datatype": "Channel major FP32 format where channel % 4 == 0"
  }],
  "Outputs": [
  {
    "Name": "input.396",
    "Location": "Device",
    "Dimensions": [1,384,16,32],
    "Format/Datatype": "Channel major FP32 format where channel % 4 == 0"
  }],
  "ParameterType": "Convolution",
  "Kernel": [3,3],
  "PaddingMode": "kEXPLICIT_ROUND_DOWN",
  "PrePadding": [1,1],
  "PostPadding": [1,1],
  "Stride": [1,1],
  "Dilation": [1,1],
  "OutMaps": 384,
  "Groups": 384,
  "Weights": {"Type": "Float", "Count": 3456},
  "Bias": {"Type": "Float", "Count": 384},
  "HasBias": 1,
  "HasReLU": 0,
  "HasSparseWeights": 0,
  "HasDynamicFilter": 0,
  "HasDynamicBias": 0,
  "HasResidual": 0,
  "ConvXAsActInputIdx": -1,
  "BiasAsActInputIdx": -1,
  "ResAsActInputIdx": -1,
  "Activation": "CLIPPED_RELU",
  "ParameterSubType": "[0.000000,6.000000]",
  "TacticName": "sm50_xmma_convolution_trt_depthwiseFP32NHWC4_fp32nhwcx4_fp32nhwcx4_fp32kcrs",
  "TacticValue": "0x2cac8ad6921b6398",
  "StreamId": 0,
  "Metadata": "[ONNX Layer: Conv_184]\u001e[ONNX Layer: Clip_188]"
},{
  "Name": "Conv_192 + Add_194",
  "LayerType": "CaskGemmConvolution",
  "Inputs": [
  {
    "Name": "input.396",
    "Location": "Device",
    "Dimensions": [1,384,16,32],
    "Format/Datatype": "Channel major FP32 format where channel % 4 == 0"
  },
  {
    "Name": "input.364",
    "Location": "Device",
    "Dimensions": [1,64,16,32],
    "Format/Datatype": "Channel major FP32 format where channel % 4 == 0"
  }],
  "Outputs": [
  {
    "Name": "input.404",
    "Location": "Device",
    "Dimensions": [1,64,16,32],
    "Format/Datatype": "Channel major FP32 format where channel % 4 == 0"
  }],
  "ParameterType": "Convolution",
  "Kernel": [1,1],
  "PaddingMode": "kEXPLICIT_ROUND_DOWN",
  "PrePadding": [0,0],
  "PostPadding": [0,0],
  "Stride": [1,1],
  "Dilation": [1,1],
  "OutMaps": 64,
  "Groups": 1,
  "Weights": {"Type": "Float", "Count": 24576},
  "Bias": {"Type": "Float", "Count": 64},
  "HasBias": 1,
  "HasReLU": 0,
  "HasSparseWeights": 0,
  "HasDynamicFilter": 0,
  "HasDynamicBias": 0,
  "HasResidual": 1,
  "ConvXAsActInputIdx": -1,
  "BiasAsActInputIdx": -1,
  "ResAsActInputIdx": -1,
  "Activation": "NONE",
  "TacticName": "sm80_xmma_gemm_f32f32_tf32f32_f32_tn_n_tilesize32x32x64_stage3_warpsize2x1x2_tensor16x8x8",
  "TacticValue": "0x00000000000206ea",
  "StreamId": 0,
  "Metadata": "[ONNX Layer: Conv_192]\u001e[ONNX Layer: Add_194]"
},{
  "Name": "Conv_196 + Clip_200",
  "LayerType": "CaskConvolution",
  "Inputs": [
  {
    "Name": "input.404",
    "Location": "Device",
    "Dimensions": [1,64,16,32],
    "Format/Datatype": "Channel major FP32 format where channel % 4 == 0"
  }],
  "Outputs": [
  {
    "Name": "input.420",
    "Location": "Device",
    "Dimensions": [1,384,16,32],
    "Format/Datatype": "Channel major FP32 format where channel % 4 == 0"
  }],
  "ParameterType": "Convolution",
  "Kernel": [1,1],
  "PaddingMode": "kEXPLICIT_ROUND_DOWN",
  "PrePadding": [0,0],
  "PostPadding": [0,0],
  "Stride": [1,1],
  "Dilation": [1,1],
  "OutMaps": 384,
  "Groups": 1,
  "Weights": {"Type": "Float", "Count": 24576},
  "Bias": {"Type": "Float", "Count": 384},
  "HasBias": 1,
  "HasReLU": 0,
  "HasSparseWeights": 0,
  "HasDynamicFilter": 0,
  "HasDynamicBias": 0,
  "HasResidual": 0,
  "ConvXAsActInputIdx": -1,
  "BiasAsActInputIdx": -1,
  "ResAsActInputIdx": -1,
  "Activation": "CLIPPED_RELU",
  "ParameterSubType": "[0.000000,6.000000]",
  "TacticName": "sm80_xmma_fprop_implicit_gemm_indexed_wo_smem_f32f32_tf32f32_f32_nhwckrsc_nhwc_tilesize128x16x64_stage1_warpsize4x1x1_g1_tensor16x8x8",
  "TacticValue": "0x10383a0781d24dde",
  "StreamId": 0,
  "Metadata": "[ONNX Layer: Conv_196]\u001e[ONNX Layer: Clip_200]"
},{
  "Name": "Conv_204 + Clip_208",
  "LayerType": "CaskConvolution",
  "Inputs": [
  {
    "Name": "input.420",
    "Location": "Device",
    "Dimensions": [1,384,16,32],
    "Format/Datatype": "Channel major FP32 format where channel % 4 == 0"
  }],
  "Outputs": [
  {
    "Name": "input.436",
    "Location": "Device",
    "Dimensions": [1,384,16,32],
    "Format/Datatype": "Channel major FP32 format where channel % 4 == 0"
  }],
  "ParameterType": "Convolution",
  "Kernel": [3,3],
  "PaddingMode": "kEXPLICIT_ROUND_DOWN",
  "PrePadding": [1,1],
  "PostPadding": [1,1],
  "Stride": [1,1],
  "Dilation": [1,1],
  "OutMaps": 384,
  "Groups": 384,
  "Weights": {"Type": "Float", "Count": 3456},
  "Bias": {"Type": "Float", "Count": 384},
  "HasBias": 1,
  "HasReLU": 0,
  "HasSparseWeights": 0,
  "HasDynamicFilter": 0,
  "HasDynamicBias": 0,
  "HasResidual": 0,
  "ConvXAsActInputIdx": -1,
  "BiasAsActInputIdx": -1,
  "ResAsActInputIdx": -1,
  "Activation": "CLIPPED_RELU",
  "ParameterSubType": "[0.000000,6.000000]",
  "TacticName": "sm50_xmma_convolution_trt_depthwiseFP32NHWC4_fp32nhwcx4_fp32nhwcx4_fp32kcrs",
  "TacticValue": "0x2cac8ad6921b6398",
  "StreamId": 0,
  "Metadata": "[ONNX Layer: Conv_204]\u001e[ONNX Layer: Clip_208]"
},{
  "Name": "Conv_212",
  "LayerType": "CaskGemmConvolution",
  "Inputs": [
  {
    "Name": "input.436",
    "Location": "Device",
    "Dimensions": [1,384,16,32],
    "Format/Datatype": "Channel major FP32 format where channel % 4 == 0"
  }],
  "Outputs": [
  {
    "Name": "input.444",
    "Location": "Device",
    "Dimensions": [1,96,16,32],
    "Format/Datatype": "Channel major FP32 format where channel % 4 == 0"
  }],
  "ParameterType": "Convolution",
  "Kernel": [1,1],
  "PaddingMode": "kEXPLICIT_ROUND_DOWN",
  "PrePadding": [0,0],
  "PostPadding": [0,0],
  "Stride": [1,1],
  "Dilation": [1,1],
  "OutMaps": 96,
  "Groups": 1,
  "Weights": {"Type": "Float", "Count": 36864},
  "Bias": {"Type": "Float", "Count": 96},
  "HasBias": 1,
  "HasReLU": 0,
  "HasSparseWeights": 0,
  "HasDynamicFilter": 0,
  "HasDynamicBias": 0,
  "HasResidual": 0,
  "ConvXAsActInputIdx": -1,
  "BiasAsActInputIdx": -1,
  "ResAsActInputIdx": -1,
  "Activation": "NONE",
  "TacticName": "sm80_xmma_gemm_f32f32_tf32f32_f32_tn_n_tilesize64x32x64_stage4_warpsize2x1x2_tensor16x8x8",
  "TacticValue": "0x0000000000020613",
  "StreamId": 0,
  "Metadata": "[ONNX Layer: Conv_212]"
},{
  "Name": "Conv_214 + Clip_218",
  "LayerType": "CaskGemmConvolution",
  "Inputs": [
  {
    "Name": "input.444",
    "Location": "Device",
    "Dimensions": [1,96,16,32],
    "Format/Datatype": "Channel major FP32 format where channel % 4 == 0"
  }],
  "Outputs": [
  {
    "Name": "input.460",
    "Location": "Device",
    "Dimensions": [1,576,16,32],
    "Format/Datatype": "Channel major FP32 format where channel % 4 == 0"
  }],
  "ParameterType": "Convolution",
  "Kernel": [1,1],
  "PaddingMode": "kEXPLICIT_ROUND_DOWN",
  "PrePadding": [0,0],
  "PostPadding": [0,0],
  "Stride": [1,1],
  "Dilation": [1,1],
  "OutMaps": 576,
  "Groups": 1,
  "Weights": {"Type": "Float", "Count": 55296},
  "Bias": {"Type": "Float", "Count": 576},
  "HasBias": 1,
  "HasReLU": 0,
  "HasSparseWeights": 0,
  "HasDynamicFilter": 0,
  "HasDynamicBias": 0,
  "HasResidual": 0,
  "ConvXAsActInputIdx": -1,
  "BiasAsActInputIdx": -1,
  "ResAsActInputIdx": -1,
  "Activation": "CLIPPED_RELU",
  "ParameterSubType": "[0.000000,6.000000]",
  "TacticName": "sm86_xmma_gemm_f32f32_tf32f32_f32_tn_n_tilesize128x64x32_stage4_warpsize2x2x1_tensor16x8x8",
  "TacticValue": "0x0000000000020095",
  "StreamId": 0,
  "Metadata": "[ONNX Layer: Conv_214]\u001e[ONNX Layer: Clip_218]"
},{
  "Name": "Conv_222 + Clip_226",
  "LayerType": "CaskConvolution",
  "Inputs": [
  {
    "Name": "input.460",
    "Location": "Device",
    "Dimensions": [1,576,16,32],
    "Format/Datatype": "Channel major FP32 format where channel % 4 == 0"
  }],
  "Outputs": [
  {
    "Name": "input.476",
    "Location": "Device",
    "Dimensions": [1,576,16,32],
    "Format/Datatype": "Channel major FP32 format where channel % 4 == 0"
  }],
  "ParameterType": "Convolution",
  "Kernel": [3,3],
  "PaddingMode": "kEXPLICIT_ROUND_DOWN",
  "PrePadding": [1,1],
  "PostPadding": [1,1],
  "Stride": [1,1],
  "Dilation": [1,1],
  "OutMaps": 576,
  "Groups": 576,
  "Weights": {"Type": "Float", "Count": 5184},
  "Bias": {"Type": "Float", "Count": 576},
  "HasBias": 1,
  "HasReLU": 0,
  "HasSparseWeights": 0,
  "HasDynamicFilter": 0,
  "HasDynamicBias": 0,
  "HasResidual": 0,
  "ConvXAsActInputIdx": -1,
  "BiasAsActInputIdx": -1,
  "ResAsActInputIdx": -1,
  "Activation": "CLIPPED_RELU",
  "ParameterSubType": "[0.000000,6.000000]",
  "TacticName": "sm50_xmma_convolution_trt_depthwiseFP32NHWC4_fp32nhwcx4_fp32nhwcx4_fp32kcrs",
  "TacticValue": "0x2cac8ad6921b6398",
  "StreamId": 0,
  "Metadata": "[ONNX Layer: Conv_222]\u001e[ONNX Layer: Clip_226]"
},{
  "Name": "Conv_230 + Add_232",
  "LayerType": "CaskGemmConvolution",
  "Inputs": [
  {
    "Name": "input.476",
    "Location": "Device",
    "Dimensions": [1,576,16,32],
    "Format/Datatype": "Channel major FP32 format where channel % 4 == 0"
  },
  {
    "Name": "input.444",
    "Location": "Device",
    "Dimensions": [1,96,16,32],
    "Format/Datatype": "Channel major FP32 format where channel % 4 == 0"
  }],
  "Outputs": [
  {
    "Name": "input.484",
    "Location": "Device",
    "Dimensions": [1,96,16,32],
    "Format/Datatype": "Channel major FP32 format where channel % 4 == 0"
  }],
  "ParameterType": "Convolution",
  "Kernel": [1,1],
  "PaddingMode": "kEXPLICIT_ROUND_DOWN",
  "PrePadding": [0,0],
  "PostPadding": [0,0],
  "Stride": [1,1],
  "Dilation": [1,1],
  "OutMaps": 96,
  "Groups": 1,
  "Weights": {"Type": "Float", "Count": 55296},
  "Bias": {"Type": "Float", "Count": 96},
  "HasBias": 1,
  "HasReLU": 0,
  "HasSparseWeights": 0,
  "HasDynamicFilter": 0,
  "HasDynamicBias": 0,
  "HasResidual": 1,
  "ConvXAsActInputIdx": -1,
  "BiasAsActInputIdx": -1,
  "ResAsActInputIdx": -1,
  "Activation": "NONE",
  "TacticName": "sm80_xmma_gemm_f32f32_tf32f32_f32_tn_n_tilesize64x32x64_stage4_warpsize2x1x2_tensor16x8x8",
  "TacticValue": "0x0000000000020613",
  "StreamId": 0,
  "Metadata": "[ONNX Layer: Conv_230]\u001e[ONNX Layer: Add_232]"
},{
  "Name": "Conv_234 + Clip_238",
  "LayerType": "CaskGemmConvolution",
  "Inputs": [
  {
    "Name": "input.484",
    "Location": "Device",
    "Dimensions": [1,96,16,32],
    "Format/Datatype": "Channel major FP32 format where channel % 4 == 0"
  }],
  "Outputs": [
  {
    "Name": "input.500",
    "Location": "Device",
    "Dimensions": [1,576,16,32],
    "Format/Datatype": "Channel major FP32 format where channel % 4 == 0"
  }],
  "ParameterType": "Convolution",
  "Kernel": [1,1],
  "PaddingMode": "kEXPLICIT_ROUND_DOWN",
  "PrePadding": [0,0],
  "PostPadding": [0,0],
  "Stride": [1,1],
  "Dilation": [1,1],
  "OutMaps": 576,
  "Groups": 1,
  "Weights": {"Type": "Float", "Count": 55296},
  "Bias": {"Type": "Float", "Count": 576},
  "HasBias": 1,
  "HasReLU": 0,
  "HasSparseWeights": 0,
  "HasDynamicFilter": 0,
  "HasDynamicBias": 0,
  "HasResidual": 0,
  "ConvXAsActInputIdx": -1,
  "BiasAsActInputIdx": -1,
  "ResAsActInputIdx": -1,
  "Activation": "CLIPPED_RELU",
  "ParameterSubType": "[0.000000,6.000000]",
  "TacticName": "sm86_xmma_gemm_f32f32_tf32f32_f32_tn_n_tilesize128x64x32_stage4_warpsize2x2x1_tensor16x8x8",
  "TacticValue": "0x0000000000020095",
  "StreamId": 0,
  "Metadata": "[ONNX Layer: Conv_234]\u001e[ONNX Layer: Clip_238]"
},{
  "Name": "Conv_242 + Clip_246",
  "LayerType": "CaskConvolution",
  "Inputs": [
  {
    "Name": "input.500",
    "Location": "Device",
    "Dimensions": [1,576,16,32],
    "Format/Datatype": "Channel major FP32 format where channel % 4 == 0"
  }],
  "Outputs": [
  {
    "Name": "input.516",
    "Location": "Device",
    "Dimensions": [1,576,16,32],
    "Format/Datatype": "Channel major FP32 format where channel % 4 == 0"
  }],
  "ParameterType": "Convolution",
  "Kernel": [3,3],
  "PaddingMode": "kEXPLICIT_ROUND_DOWN",
  "PrePadding": [1,1],
  "PostPadding": [1,1],
  "Stride": [1,1],
  "Dilation": [1,1],
  "OutMaps": 576,
  "Groups": 576,
  "Weights": {"Type": "Float", "Count": 5184},
  "Bias": {"Type": "Float", "Count": 576},
  "HasBias": 1,
  "HasReLU": 0,
  "HasSparseWeights": 0,
  "HasDynamicFilter": 0,
  "HasDynamicBias": 0,
  "HasResidual": 0,
  "ConvXAsActInputIdx": -1,
  "BiasAsActInputIdx": -1,
  "ResAsActInputIdx": -1,
  "Activation": "CLIPPED_RELU",
  "ParameterSubType": "[0.000000,6.000000]",
  "TacticName": "sm50_xmma_convolution_trt_depthwiseFP32NHWC4_fp32nhwcx4_fp32nhwcx4_fp32kcrs",
  "TacticValue": "0x2cac8ad6921b6398",
  "StreamId": 0,
  "Metadata": "[ONNX Layer: Conv_242]\u001e[ONNX Layer: Clip_246]"
},{
  "Name": "Conv_250 + Add_252",
  "LayerType": "CaskGemmConvolution",
  "Inputs": [
  {
    "Name": "input.516",
    "Location": "Device",
    "Dimensions": [1,576,16,32],
    "Format/Datatype": "Channel major FP32 format where channel % 4 == 0"
  },
  {
    "Name": "input.484",
    "Location": "Device",
    "Dimensions": [1,96,16,32],
    "Format/Datatype": "Channel major FP32 format where channel % 4 == 0"
  }],
  "Outputs": [
  {
    "Name": "Reformatted Output Tensor 0 to Conv_250 + Add_252",
    "Location": "Device",
    "Dimensions": [1,96,16,32],
    "Format/Datatype": "Channel major FP32 format where channel % 4 == 0"
  }],
  "ParameterType": "Convolution",
  "Kernel": [1,1],
  "PaddingMode": "kEXPLICIT_ROUND_DOWN",
  "PrePadding": [0,0],
  "PostPadding": [0,0],
  "Stride": [1,1],
  "Dilation": [1,1],
  "OutMaps": 96,
  "Groups": 1,
  "Weights": {"Type": "Float", "Count": 55296},
  "Bias": {"Type": "Float", "Count": 96},
  "HasBias": 1,
  "HasReLU": 0,
  "HasSparseWeights": 0,
  "HasDynamicFilter": 0,
  "HasDynamicBias": 0,
  "HasResidual": 1,
  "ConvXAsActInputIdx": -1,
  "BiasAsActInputIdx": -1,
  "ResAsActInputIdx": -1,
  "Activation": "NONE",
  "TacticName": "sm80_xmma_gemm_f32f32_tf32f32_f32_tn_n_tilesize64x32x64_stage4_warpsize2x1x2_tensor16x8x8",
  "TacticValue": "0x0000000000020613",
  "StreamId": 0,
  "Metadata": "[ONNX Layer: Conv_250]\u001e[ONNX Layer: Add_252]"
},{
  "Name": "Reformatting CopyNode for Output Tensor 0 to Conv_250 + Add_252",
  "LayerType": "NoOp",
  "Inputs": [
  {
    "Name": "Reformatted Output Tensor 0 to Conv_250 + Add_252",
    "Location": "Device",
    "Dimensions": [1,96,16,32],
    "Format/Datatype": "Channel major FP32 format where channel % 4 == 0"
  }],
  "Outputs": [
  {
    "Name": "input.524",
    "Location": "Device",
    "Dimensions": [1,96,16,32],
    "Format/Datatype": "Channel major FP32 format"
  }],
  "TacticValue": "0x0000000000000000",
  "StreamId": 0,
  "Metadata": ""
},{
  "Name": "Reformatting CopyNode for Input Tensor 0 to Conv_254 + Clip_258",
  "LayerType": "NoOp",
  "Inputs": [
  {
    "Name": "input.524",
    "Location": "Device",
    "Dimensions": [1,96,16,32],
    "Format/Datatype": "Channel major FP32 format"
  }],
  "Outputs": [
  {
    "Name": "Reformatted Input Tensor 0 to Conv_254 + Clip_258",
    "Location": "Device",
    "Dimensions": [1,96,16,32],
    "Format/Datatype": "Channel major FP32 format where channel % 4 == 0"
  }],
  "TacticValue": "0x0000000000000000",
  "StreamId": 0,
  "Metadata": ""
},{
  "Name": "Conv_254 + Clip_258",
  "LayerType": "CaskGemmConvolution",
  "Inputs": [
  {
    "Name": "Reformatted Input Tensor 0 to Conv_254 + Clip_258",
    "Location": "Device",
    "Dimensions": [1,96,16,32],
    "Format/Datatype": "Channel major FP32 format where channel % 4 == 0"
  }],
  "Outputs": [
  {
    "Name": "input.540",
    "Location": "Device",
    "Dimensions": [1,576,16,32],
    "Format/Datatype": "Channel major FP32 format where channel % 4 == 0"
  }],
  "ParameterType": "Convolution",
  "Kernel": [1,1],
  "PaddingMode": "kEXPLICIT_ROUND_DOWN",
  "PrePadding": [0,0],
  "PostPadding": [0,0],
  "Stride": [1,1],
  "Dilation": [1,1],
  "OutMaps": 576,
  "Groups": 1,
  "Weights": {"Type": "Float", "Count": 55296},
  "Bias": {"Type": "Float", "Count": 576},
  "HasBias": 1,
  "HasReLU": 0,
  "HasSparseWeights": 0,
  "HasDynamicFilter": 0,
  "HasDynamicBias": 0,
  "HasResidual": 0,
  "ConvXAsActInputIdx": -1,
  "BiasAsActInputIdx": -1,
  "ResAsActInputIdx": -1,
  "Activation": "CLIPPED_RELU",
  "ParameterSubType": "[0.000000,6.000000]",
  "TacticName": "sm86_xmma_gemm_f32f32_tf32f32_f32_tn_n_tilesize128x64x32_stage4_warpsize2x2x1_tensor16x8x8",
  "TacticValue": "0x0000000000020095",
  "StreamId": 0,
  "Metadata": "[ONNX Layer: Conv_254]\u001e[ONNX Layer: Clip_258]"
},{
  "Name": "Conv_262 + Clip_266",
  "LayerType": "CaskConvolution",
  "Inputs": [
  {
    "Name": "input.540",
    "Location": "Device",
    "Dimensions": [1,576,16,32],
    "Format/Datatype": "Channel major FP32 format where channel % 4 == 0"
  }],
  "Outputs": [
  {
    "Name": "input.556",
    "Location": "Device",
    "Dimensions": [1,576,8,16],
    "Format/Datatype": "Channel major FP32 format where channel % 4 == 0"
  }],
  "ParameterType": "Convolution",
  "Kernel": [3,3],
  "PaddingMode": "kEXPLICIT_ROUND_DOWN",
  "PrePadding": [1,1],
  "PostPadding": [1,1],
  "Stride": [2,2],
  "Dilation": [1,1],
  "OutMaps": 576,
  "Groups": 576,
  "Weights": {"Type": "Float", "Count": 5184},
  "Bias": {"Type": "Float", "Count": 576},
  "HasBias": 1,
  "HasReLU": 0,
  "HasSparseWeights": 0,
  "HasDynamicFilter": 0,
  "HasDynamicBias": 0,
  "HasResidual": 0,
  "ConvXAsActInputIdx": -1,
  "BiasAsActInputIdx": -1,
  "ResAsActInputIdx": -1,
  "Activation": "CLIPPED_RELU",
  "ParameterSubType": "[0.000000,6.000000]",
  "TacticName": "sm50_xmma_convolution_trt_depthwiseFP32NHWC4_fp32nhwcx4_fp32nhwcx4_fp32kcrs",
  "TacticValue": "0x2cac8ad6921b6398",
  "StreamId": 0,
  "Metadata": "[ONNX Layer: Conv_262]\u001e[ONNX Layer: Clip_266]"
},{
  "Name": "Conv_270",
  "LayerType": "CaskGemmConvolution",
  "Inputs": [
  {
    "Name": "input.556",
    "Location": "Device",
    "Dimensions": [1,576,8,16],
    "Format/Datatype": "Channel major FP32 format where channel % 4 == 0"
  }],
  "Outputs": [
  {
    "Name": "input.564",
    "Location": "Device",
    "Dimensions": [1,160,8,16],
    "Format/Datatype": "Channel major FP32 format where channel % 4 == 0"
  }],
  "ParameterType": "Convolution",
  "Kernel": [1,1],
  "PaddingMode": "kEXPLICIT_ROUND_DOWN",
  "PrePadding": [0,0],
  "PostPadding": [0,0],
  "Stride": [1,1],
  "Dilation": [1,1],
  "OutMaps": 160,
  "Groups": 1,
  "Weights": {"Type": "Float", "Count": 92160},
  "Bias": {"Type": "Float", "Count": 160},
  "HasBias": 1,
  "HasReLU": 0,
  "HasSparseWeights": 0,
  "HasDynamicFilter": 0,
  "HasDynamicBias": 0,
  "HasResidual": 0,
  "ConvXAsActInputIdx": -1,
  "BiasAsActInputIdx": -1,
  "ResAsActInputIdx": -1,
  "Activation": "NONE",
  "TacticName": "sm80_xmma_gemm_f32f32_tf32f32_f32_tn_n_tilesize32x32x64_stage3_warpsize2x1x2_tensor16x8x8",
  "TacticValue": "0x00000000000206ea",
  "StreamId": 0,
  "Metadata": "[ONNX Layer: Conv_270]"
},{
  "Name": "Conv_272 + Clip_276",
  "LayerType": "CaskGemmConvolution",
  "Inputs": [
  {
    "Name": "input.564",
    "Location": "Device",
    "Dimensions": [1,160,8,16],
    "Format/Datatype": "Channel major FP32 format where channel % 4 == 0"
  }],
  "Outputs": [
  {
    "Name": "input.580",
    "Location": "Device",
    "Dimensions": [1,960,8,16],
    "Format/Datatype": "Channel major FP32 format where channel % 4 == 0"
  }],
  "ParameterType": "Convolution",
  "Kernel": [1,1],
  "PaddingMode": "kEXPLICIT_ROUND_DOWN",
  "PrePadding": [0,0],
  "PostPadding": [0,0],
  "Stride": [1,1],
  "Dilation": [1,1],
  "OutMaps": 960,
  "Groups": 1,
  "Weights": {"Type": "Float", "Count": 153600},
  "Bias": {"Type": "Float", "Count": 960},
  "HasBias": 1,
  "HasReLU": 0,
  "HasSparseWeights": 0,
  "HasDynamicFilter": 0,
  "HasDynamicBias": 0,
  "HasResidual": 0,
  "ConvXAsActInputIdx": -1,
  "BiasAsActInputIdx": -1,
  "ResAsActInputIdx": -1,
  "Activation": "CLIPPED_RELU",
  "ParameterSubType": "[0.000000,6.000000]",
  "TacticName": "sm86_xmma_gemm_f32f32_tf32f32_f32_tn_n_tilesize64x64x64_stage3_warpsize2x2x1_tensor16x8x8",
  "TacticValue": "0x00000000000202f5",
  "StreamId": 0,
  "Metadata": "[ONNX Layer: Conv_272]\u001e[ONNX Layer: Clip_276]"
},{
  "Name": "Conv_280 + Clip_284",
  "LayerType": "CaskConvolution",
  "Inputs": [
  {
    "Name": "input.580",
    "Location": "Device",
    "Dimensions": [1,960,8,16],
    "Format/Datatype": "Channel major FP32 format where channel % 4 == 0"
  }],
  "Outputs": [
  {
    "Name": "input.596",
    "Location": "Device",
    "Dimensions": [1,960,8,16],
    "Format/Datatype": "Channel major FP32 format where channel % 4 == 0"
  }],
  "ParameterType": "Convolution",
  "Kernel": [3,3],
  "PaddingMode": "kEXPLICIT_ROUND_DOWN",
  "PrePadding": [1,1],
  "PostPadding": [1,1],
  "Stride": [1,1],
  "Dilation": [1,1],
  "OutMaps": 960,
  "Groups": 960,
  "Weights": {"Type": "Float", "Count": 8640},
  "Bias": {"Type": "Float", "Count": 960},
  "HasBias": 1,
  "HasReLU": 0,
  "HasSparseWeights": 0,
  "HasDynamicFilter": 0,
  "HasDynamicBias": 0,
  "HasResidual": 0,
  "ConvXAsActInputIdx": -1,
  "BiasAsActInputIdx": -1,
  "ResAsActInputIdx": -1,
  "Activation": "CLIPPED_RELU",
  "ParameterSubType": "[0.000000,6.000000]",
  "TacticName": "sm50_xmma_convolution_trt_depthwiseFP32NHWC4_fp32nhwcx4_fp32nhwcx4_fp32kcrs",
  "TacticValue": "0x2cac8ad6921b6398",
  "StreamId": 0,
  "Metadata": "[ONNX Layer: Conv_280]\u001e[ONNX Layer: Clip_284]"
},{
  "Name": "Conv_288 + Add_290",
  "LayerType": "CaskGemmConvolution",
  "Inputs": [
  {
    "Name": "input.596",
    "Location": "Device",
    "Dimensions": [1,960,8,16],
    "Format/Datatype": "Channel major FP32 format where channel % 4 == 0"
  },
  {
    "Name": "input.564",
    "Location": "Device",
    "Dimensions": [1,160,8,16],
    "Format/Datatype": "Channel major FP32 format where channel % 4 == 0"
  }],
  "Outputs": [
  {
    "Name": "input.604",
    "Location": "Device",
    "Dimensions": [1,160,8,16],
    "Format/Datatype": "Channel major FP32 format where channel % 4 == 0"
  }],
  "ParameterType": "Convolution",
  "Kernel": [1,1],
  "PaddingMode": "kEXPLICIT_ROUND_DOWN",
  "PrePadding": [0,0],
  "PostPadding": [0,0],
  "Stride": [1,1],
  "Dilation": [1,1],
  "OutMaps": 160,
  "Groups": 1,
  "Weights": {"Type": "Float", "Count": 153600},
  "Bias": {"Type": "Float", "Count": 160},
  "HasBias": 1,
  "HasReLU": 0,
  "HasSparseWeights": 0,
  "HasDynamicFilter": 0,
  "HasDynamicBias": 0,
  "HasResidual": 1,
  "ConvXAsActInputIdx": -1,
  "BiasAsActInputIdx": -1,
  "ResAsActInputIdx": -1,
  "Activation": "NONE",
  "TacticName": "sm80_xmma_gemm_f32f32_tf32f32_f32_tn_n_tilesize32x32x64_stage3_warpsize2x1x2_tensor16x8x8",
  "TacticValue": "0x00000000000206ea",
  "StreamId": 0,
  "Metadata": "[ONNX Layer: Conv_288]\u001e[ONNX Layer: Add_290]"
},{
  "Name": "Conv_292 + Clip_296",
  "LayerType": "CaskGemmConvolution",
  "Inputs": [
  {
    "Name": "input.604",
    "Location": "Device",
    "Dimensions": [1,160,8,16],
    "Format/Datatype": "Channel major FP32 format where channel % 4 == 0"
  }],
  "Outputs": [
  {
    "Name": "input.620",
    "Location": "Device",
    "Dimensions": [1,960,8,16],
    "Format/Datatype": "Channel major FP32 format where channel % 4 == 0"
  }],
  "ParameterType": "Convolution",
  "Kernel": [1,1],
  "PaddingMode": "kEXPLICIT_ROUND_DOWN",
  "PrePadding": [0,0],
  "PostPadding": [0,0],
  "Stride": [1,1],
  "Dilation": [1,1],
  "OutMaps": 960,
  "Groups": 1,
  "Weights": {"Type": "Float", "Count": 153600},
  "Bias": {"Type": "Float", "Count": 960},
  "HasBias": 1,
  "HasReLU": 0,
  "HasSparseWeights": 0,
  "HasDynamicFilter": 0,
  "HasDynamicBias": 0,
  "HasResidual": 0,
  "ConvXAsActInputIdx": -1,
  "BiasAsActInputIdx": -1,
  "ResAsActInputIdx": -1,
  "Activation": "CLIPPED_RELU",
  "ParameterSubType": "[0.000000,6.000000]",
  "TacticName": "sm86_xmma_gemm_f32f32_tf32f32_f32_tn_n_tilesize64x64x64_stage3_warpsize2x2x1_tensor16x8x8",
  "TacticValue": "0x00000000000202f5",
  "StreamId": 0,
  "Metadata": "[ONNX Layer: Conv_292]\u001e[ONNX Layer: Clip_296]"
},{
  "Name": "Conv_300 + Clip_304",
  "LayerType": "CaskConvolution",
  "Inputs": [
  {
    "Name": "input.620",
    "Location": "Device",
    "Dimensions": [1,960,8,16],
    "Format/Datatype": "Channel major FP32 format where channel % 4 == 0"
  }],
  "Outputs": [
  {
    "Name": "input.636",
    "Location": "Device",
    "Dimensions": [1,960,8,16],
    "Format/Datatype": "Channel major FP32 format where channel % 4 == 0"
  }],
  "ParameterType": "Convolution",
  "Kernel": [3,3],
  "PaddingMode": "kEXPLICIT_ROUND_DOWN",
  "PrePadding": [1,1],
  "PostPadding": [1,1],
  "Stride": [1,1],
  "Dilation": [1,1],
  "OutMaps": 960,
  "Groups": 960,
  "Weights": {"Type": "Float", "Count": 8640},
  "Bias": {"Type": "Float", "Count": 960},
  "HasBias": 1,
  "HasReLU": 0,
  "HasSparseWeights": 0,
  "HasDynamicFilter": 0,
  "HasDynamicBias": 0,
  "HasResidual": 0,
  "ConvXAsActInputIdx": -1,
  "BiasAsActInputIdx": -1,
  "ResAsActInputIdx": -1,
  "Activation": "CLIPPED_RELU",
  "ParameterSubType": "[0.000000,6.000000]",
  "TacticName": "sm50_xmma_convolution_trt_depthwiseFP32NHWC4_fp32nhwcx4_fp32nhwcx4_fp32kcrs",
  "TacticValue": "0x2cac8ad6921b6398",
  "StreamId": 0,
  "Metadata": "[ONNX Layer: Conv_300]\u001e[ONNX Layer: Clip_304]"
},{
  "Name": "Conv_308 + Add_310",
  "LayerType": "CaskGemmConvolution",
  "Inputs": [
  {
    "Name": "input.636",
    "Location": "Device",
    "Dimensions": [1,960,8,16],
    "Format/Datatype": "Channel major FP32 format where channel % 4 == 0"
  },
  {
    "Name": "input.604",
    "Location": "Device",
    "Dimensions": [1,160,8,16],
    "Format/Datatype": "Channel major FP32 format where channel % 4 == 0"
  }],
  "Outputs": [
  {
    "Name": "input.644",
    "Location": "Device",
    "Dimensions": [1,160,8,16],
    "Format/Datatype": "Channel major FP32 format where channel % 4 == 0"
  }],
  "ParameterType": "Convolution",
  "Kernel": [1,1],
  "PaddingMode": "kEXPLICIT_ROUND_DOWN",
  "PrePadding": [0,0],
  "PostPadding": [0,0],
  "Stride": [1,1],
  "Dilation": [1,1],
  "OutMaps": 160,
  "Groups": 1,
  "Weights": {"Type": "Float", "Count": 153600},
  "Bias": {"Type": "Float", "Count": 160},
  "HasBias": 1,
  "HasReLU": 0,
  "HasSparseWeights": 0,
  "HasDynamicFilter": 0,
  "HasDynamicBias": 0,
  "HasResidual": 1,
  "ConvXAsActInputIdx": -1,
  "BiasAsActInputIdx": -1,
  "ResAsActInputIdx": -1,
  "Activation": "NONE",
  "TacticName": "sm80_xmma_gemm_f32f32_tf32f32_f32_tn_n_tilesize32x32x64_stage3_warpsize2x1x2_tensor16x8x8",
  "TacticValue": "0x00000000000206ea",
  "StreamId": 0,
  "Metadata": "[ONNX Layer: Conv_308]\u001e[ONNX Layer: Add_310]"
},{
  "Name": "Reformatting CopyNode for Input Tensor 0 to ConvTranspose_312",
  "LayerType": "Reformat",
  "Inputs": [
  {
    "Name": "input.644",
    "Location": "Device",
    "Dimensions": [1,160,8,16],
    "Format/Datatype": "Channel major FP32 format where channel % 4 == 0"
  }],
  "Outputs": [
  {
    "Name": "Reformatted Input Tensor 0 to ConvTranspose_312",
    "Location": "Device",
    "Dimensions": [1,160,8,16],
    "Format/Datatype": "Row major linear FP32"
  }],
  "ParameterType": "Reformat",
  "Origin": "REFORMAT",
  "TacticValue": "0x0000000000000000",
  "StreamId": 0,
  "Metadata": ""
},{
  "Name": "ConvTranspose_312",
  "LayerType": "CaskGemmDeconvolution",
  "Inputs": [
  {
    "Name": "Reformatted Input Tensor 0 to ConvTranspose_312",
    "Location": "Device",
    "Dimensions": [1,160,8,16],
    "Format/Datatype": "Row major linear FP32"
  }],
  "Outputs": [
  {
    "Name": "input.652",
    "Location": "Device",
    "Dimensions": [1,96,16,32],
    "Format/Datatype": "Row major linear FP32"
  }],
  "ParameterType": "Convolution",
  "Kernel": [4,4],
  "PaddingMode": "kEXPLICIT_ROUND_DOWN",
  "PrePadding": [1,1],
  "PostPadding": [1,1],
  "Stride": [2,2],
  "Dilation": [1,1],
  "OutMaps": 96,
  "Groups": 1,
  "Weights": {"Type": "Float", "Count": 245760},
  "Bias": {"Type": "Float", "Count": 96},
  "HasBias": 1,
  "HasReLU": 0,
  "HasSparseWeights": 0,
  "HasDynamicFilter": 0,
  "HasDynamicBias": 0,
  "HasResidual": 0,
  "ConvXAsActInputIdx": -1,
  "BiasAsActInputIdx": -1,
  "ResAsActInputIdx": -1,
  "Activation": "NONE",
  "TacticValue": "0x00000000000200ad",
  "StreamId": 0,
  "Metadata": "[ONNX Layer: ConvTranspose_312]"
},{
  "Name": "__myl_MoveMulLtSele_myl57_0",
  "LayerType": "kgen",
  "Inputs": [
  {
    "Name": "input.652",
    "Dimensions": [1,96,16,32],
    "Format/Datatype": "Float"
  }],
  "Outputs": [
  {
    "Name": "input.660",
    "Dimensions": [1,96,16,32],
    "Format/Datatype": "Float"
  }],
  "TacticName": "__myl_MoveMulLtSele_0x3be8c460a535d8c983b3547b16bd0509",
  "StreamId": 0,
  "Metadata": "[ONNX Layer: LeakyRelu_314]"
},{
  "Name": "input.524 copy",
  "LayerType": "Reformat",
  "Inputs": [
  {
    "Name": "input.524",
    "Location": "Device",
    "Dimensions": [1,96,16,32],
    "Format/Datatype": "Channel major FP32 format"
  }],
  "Outputs": [
  {
    "Name": "input.660",
    "Location": "Device",
    "Dimensions": [1,96,16,32],
    "Format/Datatype": "Row major linear FP32"
  }],
  "ParameterType": "Reformat",
  "Origin": "CONCAT",
  "TacticValue": "0x0000000000000000",
  "StreamId": 0,
  "Metadata": "[ONNX Layer: Concat_316]"
},{
  "Name": "Conv_318",
  "LayerType": "CaskConvolution",
  "Inputs": [
  {
    "Name": "input.660",
    "Location": "Device",
    "Dimensions": [1,192,16,32],
    "Format/Datatype": "Row major linear FP32"
  }],
  "Outputs": [
  {
    "Name": "input.668",
    "Location": "Device",
    "Dimensions": [1,96,16,32],
    "Format/Datatype": "Row major linear FP32"
  }],
  "ParameterType": "Convolution",
  "Kernel": [3,3],
  "PaddingMode": "kEXPLICIT_ROUND_DOWN",
  "PrePadding": [1,1],
  "PostPadding": [1,1],
  "Stride": [1,1],
  "Dilation": [1,1],
  "OutMaps": 96,
  "Groups": 1,
  "Weights": {"Type": "Float", "Count": 165888},
  "Bias": {"Type": "Float", "Count": 96},
  "HasBias": 1,
  "HasReLU": 0,
  "HasSparseWeights": 0,
  "HasDynamicFilter": 0,
  "HasDynamicBias": 0,
  "HasResidual": 0,
  "ConvXAsActInputIdx": -1,
  "BiasAsActInputIdx": -1,
  "ResAsActInputIdx": -1,
  "Activation": "NONE",
  "TacticName": "sm80_xmma_fprop_wngd_f32f32_f32_f32_nchwkcrs_nchw_tilesize8x16x16x8_warpsize8x1x1_wngd2x2",
  "TacticValue": "0xe38e9dfd56c33779",
  "StreamId": 0,
  "Metadata": "[ONNX Layer: Conv_318]"
},{
  "Name": "__myl_MoveMulLtSele_myl60_0",
  "LayerType": "kgen",
  "Inputs": [
  {
    "Name": "input.668",
    "Dimensions": [1,96,16,32],
    "Format/Datatype": "Float"
  }],
  "Outputs": [
  {
    "Name": "Reformatted Output Tensor 0 to PWN(LeakyRelu_320)",
    "Dimensions": [1,96,16,32],
    "Format/Datatype": "Float"
  }],
  "TacticName": "__myl_MoveMulLtSele_0xdfafe5231036941aa79aa4b64d5413a7",
  "StreamId": 0,
  "Metadata": "[ONNX Layer: LeakyRelu_320]"
},{
  "Name": "Reformatting CopyNode for Output Tensor 0 to PWN(LeakyRelu_320)",
  "LayerType": "Reformat",
  "Inputs": [
  {
    "Name": "Reformatted Output Tensor 0 to PWN(LeakyRelu_320)",
    "Location": "Device",
    "Dimensions": [1,96,16,32],
    "Format/Datatype": "Row major linear FP32"
  }],
  "Outputs": [
  {
    "Name": "input.676",
    "Location": "Device",
    "Dimensions": [1,96,16,32],
    "Format/Datatype": "Channel major FP32 format"
  }],
  "ParameterType": "Reformat",
  "Origin": "REFORMAT",
  "TacticValue": "0x0000000000000000",
  "StreamId": 0,
  "Metadata": ""
},{
  "Name": "Reformatting CopyNode for Input Tensor 0 to ConvTranspose_322",
  "LayerType": "NoOp",
  "Inputs": [
  {
    "Name": "input.676",
    "Location": "Device",
    "Dimensions": [1,96,16,32],
    "Format/Datatype": "Channel major FP32 format"
  }],
  "Outputs": [
  {
    "Name": "Reformatted Input Tensor 0 to ConvTranspose_322",
    "Location": "Device",
    "Dimensions": [1,96,16,32],
    "Format/Datatype": "Channel major FP32 format where channel % 4 == 0"
  }],
  "TacticValue": "0x0000000000000000",
  "StreamId": 0,
  "Metadata": ""
},{
  "Name": "ConvTranspose_322",
  "LayerType": "CaskDeconvolutionV2",
  "Inputs": [
  {
    "Name": "Reformatted Input Tensor 0 to ConvTranspose_322",
    "Location": "Device",
    "Dimensions": [1,96,16,32],
    "Format/Datatype": "Channel major FP32 format where channel % 4 == 0"
  }],
  "Outputs": [
  {
    "Name": "input.684",
    "Location": "Device",
    "Dimensions": [1,32,32,64],
    "Format/Datatype": "Channel major FP32 format where channel % 4 == 0"
  }],
  "ParameterType": "Convolution",
  "Kernel": [4,4],
  "PaddingMode": "kEXPLICIT_ROUND_DOWN",
  "PrePadding": [1,1],
  "PostPadding": [1,1],
  "Stride": [2,2],
  "Dilation": [1,1],
  "OutMaps": 32,
  "Groups": 1,
  "Weights": {"Type": "Float", "Count": 49152},
  "Bias": {"Type": "Float", "Count": 32},
  "HasBias": 1,
  "HasReLU": 0,
  "HasSparseWeights": 0,
  "HasDynamicFilter": 0,
  "HasDynamicBias": 0,
  "HasResidual": 0,
  "ConvXAsActInputIdx": -1,
  "BiasAsActInputIdx": -1,
  "ResAsActInputIdx": -1,
  "Activation": "NONE",
  "TacticName": "sm80_xmma_deconv_implicit_gemm_indexed_f32f32_f32f32_f32_nhwckrsc_nhwc_tilesize32x32x8_stage3_warpsize1x2x1_g1_ffma_strided_aligna4_alignc4",
  "TacticValue": "0x043c81cea95f3c97",
  "StreamId": 0,
  "Metadata": "[ONNX Layer: ConvTranspose_322]"
},{
  "Name": "Reformatting CopyNode for Input Tensor 0 to PWN(LeakyRelu_328)",
  "LayerType": "NoOp",
  "Inputs": [
  {
    "Name": "input.684",
    "Location": "Device",
    "Dimensions": [1,32,32,64],
    "Format/Datatype": "Channel major FP32 format where channel % 4 == 0"
  }],
  "Outputs": [
  {
    "Name": "Reformatted Input Tensor 0 to PWN(LeakyRelu_328)",
    "Location": "Device",
    "Dimensions": [1,32,32,64],
    "Format/Datatype": "Channel major FP32 format"
  }],
  "TacticValue": "0x0000000000000000",
  "StreamId": 0,
  "Metadata": ""
},{
  "Name": "__myl_MoveMulLtSele_myl65_0",
  "LayerType": "kgen",
  "Inputs": [
  {
    "Name": "Reformatted Input Tensor 0 to PWN(LeakyRelu_328)",
    "Dimensions": [1,32,32,64],
    "Format/Datatype": "Float"
  }],
  "Outputs": [
  {
    "Name": "input.708",
    "Dimensions": [1,32,32,64],
    "Format/Datatype": "Float"
  }],
  "TacticName": "__myl_MoveMulLtSele_0x464eb836b1921aa3729d2ffec1d8228d",
  "StreamId": 0,
  "Metadata": "[ONNX Layer: LeakyRelu_328]"
},{
  "Name": "input.244 copy",
  "LayerType": "Reformat",
  "Inputs": [
  {
    "Name": "input.244",
    "Location": "Device",
    "Dimensions": [1,32,32,64],
    "Format/Datatype": "Channel major FP32 format where channel % 4 == 0"
  }],
  "Outputs": [
  {
    "Name": "input.708",
    "Location": "Device",
    "Dimensions": [1,32,32,64],
    "Format/Datatype": "Channel major FP32 format"
  }],
  "ParameterType": "Reformat",
  "Origin": "CONCAT",
  "TacticValue": "0x0000000000000000",
  "StreamId": 0,
  "Metadata": "[ONNX Layer: Concat_333]"
},{
  "Name": "Reformatting CopyNode for Input Tensor 0 to Conv_336",
  "LayerType": "NoOp",
  "Inputs": [
  {
    "Name": "input.708",
    "Location": "Device",
    "Dimensions": [1,64,32,64],
    "Format/Datatype": "Channel major FP32 format"
  }],
  "Outputs": [
  {
    "Name": "Reformatted Input Tensor 0 to Conv_336",
    "Location": "Device",
    "Dimensions": [1,64,32,64],
    "Format/Datatype": "Channel major FP32 format where channel % 4 == 0"
  }],
  "TacticValue": "0x0000000000000000",
  "StreamId": 0,
  "Metadata": ""
},{
  "Name": "Conv_336",
  "LayerType": "CaskConvolution",
  "Inputs": [
  {
    "Name": "Reformatted Input Tensor 0 to Conv_336",
    "Location": "Device",
    "Dimensions": [1,64,32,64],
    "Format/Datatype": "Channel major FP32 format where channel % 4 == 0"
  }],
  "Outputs": [
  {
    "Name": "input.716",
    "Location": "Device",
    "Dimensions": [1,32,32,64],
    "Format/Datatype": "Channel major FP32 format where channel % 4 == 0"
  }],
  "ParameterType": "Convolution",
  "Kernel": [3,3],
  "PaddingMode": "kEXPLICIT_ROUND_DOWN",
  "PrePadding": [1,1],
  "PostPadding": [1,1],
  "Stride": [1,1],
  "Dilation": [1,1],
  "OutMaps": 32,
  "Groups": 1,
  "Weights": {"Type": "Float", "Count": 18432},
  "Bias": {"Type": "Float", "Count": 32},
  "HasBias": 1,
  "HasReLU": 0,
  "HasSparseWeights": 0,
  "HasDynamicFilter": 0,
  "HasDynamicBias": 0,
  "HasResidual": 0,
  "ConvXAsActInputIdx": -1,
  "BiasAsActInputIdx": -1,
  "ResAsActInputIdx": -1,
  "Activation": "NONE",
  "TacticName": "sm80_xmma_fprop_implicit_gemm_indexed_wo_smem_f32f32_tf32f32_f32_nhwckrsc_nhwc_tilesize128x16x64_stage1_warpsize4x1x1_g1_tensor16x8x8",
  "TacticValue": "0x10383a0781d24dde",
  "StreamId": 0,
  "Metadata": "[ONNX Layer: Conv_336]"
},{
  "Name": "__myl_MoveMulLtSele_myl69_0",
  "LayerType": "kgen",
  "Inputs": [
  {
    "Name": "input.716",
    "Dimensions": [1,32,32,64],
    "Format/Datatype": "Float"
  }],
  "Outputs": [
  {
    "Name": "input.724",
    "Dimensions": [1,32,32,64],
    "Format/Datatype": "Float"
  }],
  "TacticName": "__myl_MoveMulLtSele_0xb0ca64d5bf4fbc6134f9c4bd5b91dabd",
  "StreamId": 0,
  "Metadata": "[ONNX Layer: LeakyRelu_339]"
},{
  "Name": "Reformatting CopyNode for Input Tensor 0 to ConvTranspose_342",
  "LayerType": "NoOp",
  "Inputs": [
  {
    "Name": "input.724",
    "Location": "Device",
    "Dimensions": [1,32,32,64],
    "Format/Datatype": "Channel major FP32 format where channel % 4 == 0"
  }],
  "Outputs": [
  {
    "Name": "Reformatted Input Tensor 0 to ConvTranspose_342",
    "Location": "Device",
    "Dimensions": [1,32,32,64],
    "Format/Datatype": "Channel major FP32 format"
  }],
  "TacticValue": "0x0000000000000000",
  "StreamId": 0,
  "Metadata": ""
},{
  "Name": "ConvTranspose_342",
  "LayerType": "CaskDeconvolutionV2",
  "Inputs": [
  {
    "Name": "Reformatted Input Tensor 0 to ConvTranspose_342",
    "Location": "Device",
    "Dimensions": [1,32,32,64],
    "Format/Datatype": "Channel major FP32 format"
  }],
  "Outputs": [
  {
    "Name": "input.736",
    "Location": "Device",
    "Dimensions": [1,24,64,128],
    "Format/Datatype": "Channel major FP32 format"
  }],
  "ParameterType": "Convolution",
  "Kernel": [4,4],
  "PaddingMode": "kEXPLICIT_ROUND_DOWN",
  "PrePadding": [1,1],
  "PostPadding": [1,1],
  "Stride": [2,2],
  "Dilation": [1,1],
  "OutMaps": 24,
  "Groups": 1,
  "Weights": {"Type": "Float", "Count": 12288},
  "Bias": {"Type": "Float", "Count": 24},
  "HasBias": 1,
  "HasReLU": 0,
  "HasSparseWeights": 0,
  "HasDynamicFilter": 0,
  "HasDynamicBias": 0,
  "HasResidual": 0,
  "ConvXAsActInputIdx": -1,
  "BiasAsActInputIdx": -1,
  "ResAsActInputIdx": -1,
  "Activation": "NONE",
  "TacticName": "sm80_xmma_deconv_implicit_gemm_indexed_f32f32_f32f32_f32_nhwckrsc_nhwc_tilesize128x32x8_stage3_warpsize2x2x1_g1_ffma_strided_aligna4_alignc4",
  "TacticValue": "0x0af5b8971b78dc1f",
  "StreamId": 0,
  "Metadata": "[ONNX Layer: ConvTranspose_342]"
},{
  "Name": "__myl_MoveMulLtSele_myl72_0",
  "LayerType": "kgen",
  "Inputs": [
  {
    "Name": "input.736",
    "Dimensions": [1,24,64,128],
    "Format/Datatype": "Float"
  }],
  "Outputs": [
  {
    "Name": "Reformatted Output Tensor 0 to PWN(LeakyRelu_349)",
    "Dimensions": [1,24,64,128],
    "Format/Datatype": "Float"
  }],
  "TacticName": "__myl_MoveMulLtSele_0xfc45ef0c1491297996140c5be141e439",
  "StreamId": 0,
  "Metadata": "[ONNX Layer: LeakyRelu_349]"
},{
  "Name": "Reformatting CopyNode for Output Tensor 0 to PWN(LeakyRelu_349)",
  "LayerType": "Reformat",
  "Inputs": [
  {
    "Name": "Reformatted Output Tensor 0 to PWN(LeakyRelu_349)",
    "Location": "Device",
    "Dimensions": [1,24,64,128],
    "Format/Datatype": "Channel major FP32 format"
  }],
  "Outputs": [
  {
    "Name": "input.760",
    "Location": "Device",
    "Dimensions": [1,24,64,128],
    "Format/Datatype": "Row major linear FP32"
  }],
  "ParameterType": "Reformat",
  "Origin": "REFORMAT",
  "TacticValue": "0x0000000000000000",
  "StreamId": 0,
  "Metadata": ""
},{
  "Name": "input.124 copy",
  "LayerType": "Reformat",
  "Inputs": [
  {
    "Name": "input.124",
    "Location": "Device",
    "Dimensions": [1,24,64,128],
    "Format/Datatype": "Channel major FP32 format"
  }],
  "Outputs": [
  {
    "Name": "input.760",
    "Location": "Device",
    "Dimensions": [1,24,64,128],
    "Format/Datatype": "Row major linear FP32"
  }],
  "ParameterType": "Reformat",
  "Origin": "CONCAT",
  "TacticValue": "0x0000000000000000",
  "StreamId": 0,
  "Metadata": "[ONNX Layer: Concat_354]"
},{
  "Name": "Conv_357",
  "LayerType": "CaskConvolution",
  "Inputs": [
  {
    "Name": "input.760",
    "Location": "Device",
    "Dimensions": [1,48,64,128],
    "Format/Datatype": "Row major linear FP32"
  }],
  "Outputs": [
  {
    "Name": "input.768",
    "Location": "Device",
    "Dimensions": [1,24,64,128],
    "Format/Datatype": "Row major linear FP32"
  }],
  "ParameterType": "Convolution",
  "Kernel": [3,3],
  "PaddingMode": "kEXPLICIT_ROUND_DOWN",
  "PrePadding": [1,1],
  "PostPadding": [1,1],
  "Stride": [1,1],
  "Dilation": [1,1],
  "OutMaps": 24,
  "Groups": 1,
  "Weights": {"Type": "Float", "Count": 10368},
  "Bias": {"Type": "Float", "Count": 24},
  "HasBias": 1,
  "HasReLU": 0,
  "HasSparseWeights": 0,
  "HasDynamicFilter": 0,
  "HasDynamicBias": 0,
  "HasResidual": 0,
  "ConvXAsActInputIdx": -1,
  "BiasAsActInputIdx": -1,
  "ResAsActInputIdx": -1,
  "Activation": "NONE",
  "TacticName": "ampere_scudnn_winograd_128x128_ldg1_ldg4_relu_tile148t_nt_v1",
  "TacticValue": "0x94119b4c514b211a",
  "StreamId": 0,
  "Metadata": "[ONNX Layer: Conv_357]"
},{
  "Name": "__myl_MoveMulLtSele_myl76_0",
  "LayerType": "kgen",
  "Inputs": [
  {
    "Name": "input.768",
    "Dimensions": [1,24,64,128],
    "Format/Datatype": "Float"
  }],
  "Outputs": [
  {
    "Name": "onnx::Pad_1823",
    "Dimensions": [1,24,64,128],
    "Format/Datatype": "Float"
  }],
  "TacticName": "__myl_MoveMulLtSele_0xb9162ebd7e92c4c84ea0d4906498d045",
  "StreamId": 0,
  "Metadata": "[ONNX Layer: LeakyRelu_360]"
},{
  "Name": "Pad_363",
  "LayerType": "Slice",
  "Inputs": [
  {
    "Name": "onnx::Pad_1823",
    "Location": "Device",
    "Dimensions": [1,24,64,128],
    "Format/Datatype": "Row major linear FP32"
  }],
  "Outputs": [
  {
    "Name": "input.780",
    "Location": "Device",
    "Dimensions": [1,24,66,130],
    "Format/Datatype": "Row major linear FP32"
  }],
  "ParameterType": "Slice",
  "Start": [0,0,-1,-1],
  "Size": [1,24,66,130],
  "Stride": [1,1,1,1],
  "Mode": "CLAMP",
  "negativeInfinityPadding": 0,
  "TacticValue": "0x0000000000000000",
  "StreamId": 0,
  "Metadata": "[ONNX Layer: Pad_363]"
},{
  "Name": "Conv_366",
  "LayerType": "CaskConvolution",
  "Inputs": [
  {
    "Name": "input.780",
    "Location": "Device",
    "Dimensions": [1,24,66,130],
    "Format/Datatype": "Row major linear FP32"
  }],
  "Outputs": [
  {
    "Name": "input_data",
    "Location": "Device",
    "Dimensions": [1,24,64,128],
    "Format/Datatype": "Row major linear FP32"
  }],
  "ParameterType": "Convolution",
  "Kernel": [3,3],
  "PaddingMode": "kEXPLICIT_ROUND_DOWN",
  "PrePadding": [0,0],
  "PostPadding": [0,0],
  "Stride": [1,1],
  "Dilation": [1,1],
  "OutMaps": 24,
  "Groups": 1,
  "Weights": {"Type": "Float", "Count": 5184},
  "Bias": {"Type": "Float", "Count": 0},
  "HasBias": 0,
  "HasReLU": 0,
  "HasSparseWeights": 0,
  "HasDynamicFilter": 0,
  "HasDynamicBias": 0,
  "HasResidual": 0,
  "ConvXAsActInputIdx": -1,
  "BiasAsActInputIdx": -1,
  "ResAsActInputIdx": -1,
  "Activation": "NONE",
  "TacticName": "ampere_scudnn_winograd_128x128_ldg1_ldg4_relu_tile148t_nt_v1",
  "TacticValue": "0x94119b4c514b211a",
  "StreamId": 0,
  "Metadata": "[ONNX Layer: Conv_366]"
},{
  "Name": "__myl_Inor_myl79_0",
  "LayerType": "kgen",
  "Inputs": [
  {
    "Name": "input_data",
    "Dimensions": [1,24,64,128],
    "Format/Datatype": "Float"
  }],
  "Outputs": [
  {
    "Name": "input.788",
    "Dimensions": [1,24,64,128],
    "Format/Datatype": "Float"
  }],
  "TacticName": "__myl_Inor_0x6c1116c1463522346f972bb8f4a2f07d",
  "StreamId": 0,
  "Metadata": "[ONNX Layer: InstanceNormalization_368]"
},{
  "Name": "Reformatting CopyNode for Input Tensor 0 to Conv_1 + Clip_8",
  "LayerType": "Reformat",
  "Inputs": [
  {
    "Name": "right_img",
    "Location": "Device",
    "Dimensions": [1,3,256,512],
    "Format/Datatype": "Row major linear FP32"
  }],
  "Outputs": [
  {
    "Name": "Reformatted Input Tensor 0 to Conv_1 + Clip_8",
    "Location": "Device",
    "Dimensions": [1,3,256,512],
    "Format/Datatype": "Channel major FP32 format where channel % 4 == 0"
  }],
  "ParameterType": "Reformat",
  "Origin": "REFORMAT",
  "TacticValue": "0x00000000000003ea",
  "StreamId": 0,
  "Metadata": ""
},{
  "Name": "Conv_1 + Clip_8",
  "LayerType": "CaskConvolution",
  "Inputs": [
  {
    "Name": "Reformatted Input Tensor 0 to Conv_1 + Clip_8",
    "Location": "Device",
    "Dimensions": [1,3,256,512],
    "Format/Datatype": "Channel major FP32 format where channel % 4 == 0"
  }],
  "Outputs": [
  {
    "Name": "input.16",
    "Location": "Device",
    "Dimensions": [1,32,128,256],
    "Format/Datatype": "Channel major FP32 format where channel % 4 == 0"
  }],
  "ParameterType": "Convolution",
  "Kernel": [3,3],
  "PaddingMode": "kEXPLICIT_ROUND_DOWN",
  "PrePadding": [1,1],
  "PostPadding": [1,1],
  "Stride": [2,2],
  "Dilation": [1,1],
  "OutMaps": 32,
  "Groups": 1,
  "Weights": {"Type": "Float", "Count": 864},
  "Bias": {"Type": "Float", "Count": 32},
  "HasBias": 1,
  "HasReLU": 0,
  "HasSparseWeights": 0,
  "HasDynamicFilter": 0,
  "HasDynamicBias": 0,
  "HasResidual": 0,
  "ConvXAsActInputIdx": -1,
  "BiasAsActInputIdx": -1,
  "ResAsActInputIdx": -1,
  "Activation": "CLIPPED_RELU",
  "ParameterSubType": "[0.000000,6.000000]",
  "TacticName": "sm80_xmma_fprop_implicit_gemm_indexed_wo_smem_f32f32_tf32f32_f32_nhwckrsc_nhwc_tilesize128x32x16_stage1_warpsize4x1x1_g1_tensor16x8x8_alignc8",
  "TacticValue": "0x72a5d05b1bb165ef",
  "StreamId": 0,
  "Metadata": "[ONNX Layer: Conv_1]\u001e[ONNX Layer: Clip_8]"
},{
  "Name": "Conv_11 + Clip_18",
  "LayerType": "CaskConvolution",
  "Inputs": [
  {
    "Name": "input.16",
    "Location": "Device",
    "Dimensions": [1,32,128,256],
    "Format/Datatype": "Channel major FP32 format where channel % 4 == 0"
  }],
  "Outputs": [
  {
    "Name": "input.40",
    "Location": "Device",
    "Dimensions": [1,32,128,256],
    "Format/Datatype": "Channel major FP32 format where channel % 4 == 0"
  }],
  "ParameterType": "Convolution",
  "Kernel": [3,3],
  "PaddingMode": "kEXPLICIT_ROUND_DOWN",
  "PrePadding": [1,1],
  "PostPadding": [1,1],
  "Stride": [1,1],
  "Dilation": [1,1],
  "OutMaps": 32,
  "Groups": 32,
  "Weights": {"Type": "Float", "Count": 288},
  "Bias": {"Type": "Float", "Count": 32},
  "HasBias": 1,
  "HasReLU": 0,
  "HasSparseWeights": 0,
  "HasDynamicFilter": 0,
  "HasDynamicBias": 0,
  "HasResidual": 0,
  "ConvXAsActInputIdx": -1,
  "BiasAsActInputIdx": -1,
  "ResAsActInputIdx": -1,
  "Activation": "CLIPPED_RELU",
  "ParameterSubType": "[0.000000,6.000000]",
  "TacticName": "sm50_xmma_convolution_trt_depthwiseFP32NHWC4_fp32nhwcx4_fp32nhwcx4_fp32kcrs",
  "TacticValue": "0x2cac8ad6921b6398",
  "StreamId": 0,
  "Metadata": "[ONNX Layer: Conv_11]\u001e[ONNX Layer: Clip_18]"
},{
  "Name": "Conv_21",
  "LayerType": "CaskConvolution",
  "Inputs": [
  {
    "Name": "input.40",
    "Location": "Device",
    "Dimensions": [1,32,128,256],
    "Format/Datatype": "Channel major FP32 format where channel % 4 == 0"
  }],
  "Outputs": [
  {
    "Name": "input.48",
    "Location": "Device",
    "Dimensions": [1,16,128,256],
    "Format/Datatype": "Channel major FP32 format where channel % 4 == 0"
  }],
  "ParameterType": "Convolution",
  "Kernel": [1,1],
  "PaddingMode": "kEXPLICIT_ROUND_DOWN",
  "PrePadding": [0,0],
  "PostPadding": [0,0],
  "Stride": [1,1],
  "Dilation": [1,1],
  "OutMaps": 16,
  "Groups": 1,
  "Weights": {"Type": "Float", "Count": 512},
  "Bias": {"Type": "Float", "Count": 16},
  "HasBias": 1,
  "HasReLU": 0,
  "HasSparseWeights": 0,
  "HasDynamicFilter": 0,
  "HasDynamicBias": 0,
  "HasResidual": 0,
  "ConvXAsActInputIdx": -1,
  "BiasAsActInputIdx": -1,
  "ResAsActInputIdx": -1,
  "Activation": "NONE",
  "TacticName": "sm80_xmma_fprop_implicit_gemm_indexed_wo_smem_f32f32_tf32f32_f32_nhwckrsc_nhwc_tilesize128x16x32_stage1_warpsize4x1x1_g1_tensor16x8x8",
  "TacticValue": "0xae48d3ccfe1edfcd",
  "StreamId": 0,
  "Metadata": "[ONNX Layer: Conv_21]"
},{
  "Name": "Conv_23 + Clip_29",
  "LayerType": "CaskConvolution",
  "Inputs": [
  {
    "Name": "input.48",
    "Location": "Device",
    "Dimensions": [1,16,128,256],
    "Format/Datatype": "Channel major FP32 format where channel % 4 == 0"
  }],
  "Outputs": [
  {
    "Name": "input.64",
    "Location": "Device",
    "Dimensions": [1,96,128,256],
    "Format/Datatype": "Channel major FP32 format where channel % 4 == 0"
  }],
  "ParameterType": "Convolution",
  "Kernel": [1,1],
  "PaddingMode": "kEXPLICIT_ROUND_DOWN",
  "PrePadding": [0,0],
  "PostPadding": [0,0],
  "Stride": [1,1],
  "Dilation": [1,1],
  "OutMaps": 96,
  "Groups": 1,
  "Weights": {"Type": "Float", "Count": 1536},
  "Bias": {"Type": "Float", "Count": 96},
  "HasBias": 1,
  "HasReLU": 0,
  "HasSparseWeights": 0,
  "HasDynamicFilter": 0,
  "HasDynamicBias": 0,
  "HasResidual": 0,
  "ConvXAsActInputIdx": -1,
  "BiasAsActInputIdx": -1,
  "ResAsActInputIdx": -1,
  "Activation": "CLIPPED_RELU",
  "ParameterSubType": "[0.000000,6.000000]",
  "TacticName": "sm80_xmma_fprop_implicit_gemm_indexed_wo_smem_f32f32_tf32f32_f32_nhwckrsc_nhwc_tilesize128x32x16_stage1_warpsize4x1x1_g1_tensor16x8x8",
  "TacticValue": "0x9cb304e2edbc1221",
  "StreamId": 0,
  "Metadata": "[ONNX Layer: Conv_23]\u001e[ONNX Layer: Clip_29]"
},{
  "Name": "Conv_31 + Clip_37",
  "LayerType": "CaskConvolution",
  "Inputs": [
  {
    "Name": "input.64",
    "Location": "Device",
    "Dimensions": [1,96,128,256],
    "Format/Datatype": "Channel major FP32 format where channel % 4 == 0"
  }],
  "Outputs": [
  {
    "Name": "input.80",
    "Location": "Device",
    "Dimensions": [1,96,64,128],
    "Format/Datatype": "Channel major FP32 format where channel % 4 == 0"
  }],
  "ParameterType": "Convolution",
  "Kernel": [3,3],
  "PaddingMode": "kEXPLICIT_ROUND_DOWN",
  "PrePadding": [1,1],
  "PostPadding": [1,1],
  "Stride": [2,2],
  "Dilation": [1,1],
  "OutMaps": 96,
  "Groups": 96,
  "Weights": {"Type": "Float", "Count": 864},
  "Bias": {"Type": "Float", "Count": 96},
  "HasBias": 1,
  "HasReLU": 0,
  "HasSparseWeights": 0,
  "HasDynamicFilter": 0,
  "HasDynamicBias": 0,
  "HasResidual": 0,
  "ConvXAsActInputIdx": -1,
  "BiasAsActInputIdx": -1,
  "ResAsActInputIdx": -1,
  "Activation": "CLIPPED_RELU",
  "ParameterSubType": "[0.000000,6.000000]",
  "TacticName": "sm50_xmma_convolution_trt_depthwiseFP32NHWC4_fp32nhwcx4_fp32nhwcx4_fp32kcrs",
  "TacticValue": "0x2cac8ad6921b6398",
  "StreamId": 0,
  "Metadata": "[ONNX Layer: Conv_31]\u001e[ONNX Layer: Clip_37]"
},{
  "Name": "Reformatting CopyNode for Input Tensor 0 to Conv_39",
  "LayerType": "NoOp",
  "Inputs": [
  {
    "Name": "input.80",
    "Location": "Device",
    "Dimensions": [1,96,64,128],
    "Format/Datatype": "Channel major FP32 format where channel % 4 == 0"
  }],
  "Outputs": [
  {
    "Name": "Reformatted Input Tensor 0 to Conv_39",
    "Location": "Device",
    "Dimensions": [1,96,64,128],
    "Format/Datatype": "Channel major FP32 format"
  }],
  "TacticValue": "0x0000000000000000",
  "StreamId": 0,
  "Metadata": ""
},{
  "Name": "Conv_39",
  "LayerType": "CaskConvolution",
  "Inputs": [
  {
    "Name": "Reformatted Input Tensor 0 to Conv_39",
    "Location": "Device",
    "Dimensions": [1,96,64,128],
    "Format/Datatype": "Channel major FP32 format"
  }],
  "Outputs": [
  {
    "Name": "input.88",
    "Location": "Device",
    "Dimensions": [1,24,64,128],
    "Format/Datatype": "Channel major FP32 format"
  }],
  "ParameterType": "Convolution",
  "Kernel": [1,1],
  "PaddingMode": "kEXPLICIT_ROUND_DOWN",
  "PrePadding": [0,0],
  "PostPadding": [0,0],
  "Stride": [1,1],
  "Dilation": [1,1],
  "OutMaps": 24,
  "Groups": 1,
  "Weights": {"Type": "Float", "Count": 2304},
  "Bias": {"Type": "Float", "Count": 24},
  "HasBias": 1,
  "HasReLU": 0,
  "HasSparseWeights": 0,
  "HasDynamicFilter": 0,
  "HasDynamicBias": 0,
  "HasResidual": 0,
  "ConvXAsActInputIdx": -1,
  "BiasAsActInputIdx": -1,
  "ResAsActInputIdx": -1,
  "Activation": "NONE",
  "TacticName": "sm80_xmma_fprop_implicit_gemm_f32f32_f32f32_f32_nhwckrsc_nhwc_tilesize128x32x8_stage3_warpsize2x2x1_g1_ffma_simple_t1r1s1_aligna4_alignc4",
  "TacticValue": "0xd9eb6ca56ddc3a22",
  "StreamId": 0,
  "Metadata": "[ONNX Layer: Conv_39]"
},{
  "Name": "Reformatting CopyNode for Input Tensor 0 to Conv_41 + Clip_47",
  "LayerType": "NoOp",
  "Inputs": [
  {
    "Name": "input.88",
    "Location": "Device",
    "Dimensions": [1,24,64,128],
    "Format/Datatype": "Channel major FP32 format"
  }],
  "Outputs": [
  {
    "Name": "Reformatted Input Tensor 0 to Conv_41 + Clip_47",
    "Location": "Device",
    "Dimensions": [1,24,64,128],
    "Format/Datatype": "Channel major FP32 format where channel % 4 == 0"
  }],
  "TacticValue": "0x0000000000000000",
  "StreamId": 0,
  "Metadata": ""
},{
  "Name": "Conv_41 + Clip_47",
  "LayerType": "CaskConvolution",
  "Inputs": [
  {
    "Name": "Reformatted Input Tensor 0 to Conv_41 + Clip_47",
    "Location": "Device",
    "Dimensions": [1,24,64,128],
    "Format/Datatype": "Channel major FP32 format where channel % 4 == 0"
  }],
  "Outputs": [
  {
    "Name": "input.104",
    "Location": "Device",
    "Dimensions": [1,144,64,128],
    "Format/Datatype": "Channel major FP32 format where channel % 4 == 0"
  }],
  "ParameterType": "Convolution",
  "Kernel": [1,1],
  "PaddingMode": "kEXPLICIT_ROUND_DOWN",
  "PrePadding": [0,0],
  "PostPadding": [0,0],
  "Stride": [1,1],
  "Dilation": [1,1],
  "OutMaps": 144,
  "Groups": 1,
  "Weights": {"Type": "Float", "Count": 3456},
  "Bias": {"Type": "Float", "Count": 144},
  "HasBias": 1,
  "HasReLU": 0,
  "HasSparseWeights": 0,
  "HasDynamicFilter": 0,
  "HasDynamicBias": 0,
  "HasResidual": 0,
  "ConvXAsActInputIdx": -1,
  "BiasAsActInputIdx": -1,
  "ResAsActInputIdx": -1,
  "Activation": "CLIPPED_RELU",
  "ParameterSubType": "[0.000000,6.000000]",
  "TacticName": "sm80_xmma_fprop_implicit_gemm_indexed_wo_smem_f32f32_tf32f32_f32_nhwckrsc_nhwc_tilesize128x32x16_stage1_warpsize4x1x1_g1_tensor16x8x8",
  "TacticValue": "0x9cb304e2edbc1221",
  "StreamId": 0,
  "Metadata": "[ONNX Layer: Conv_41]\u001e[ONNX Layer: Clip_47]"
},{
  "Name": "Conv_49 + Clip_55",
  "LayerType": "CaskConvolution",
  "Inputs": [
  {
    "Name": "input.104",
    "Location": "Device",
    "Dimensions": [1,144,64,128],
    "Format/Datatype": "Channel major FP32 format where channel % 4 == 0"
  }],
  "Outputs": [
  {
    "Name": "input.120",
    "Location": "Device",
    "Dimensions": [1,144,64,128],
    "Format/Datatype": "Channel major FP32 format where channel % 4 == 0"
  }],
  "ParameterType": "Convolution",
  "Kernel": [3,3],
  "PaddingMode": "kEXPLICIT_ROUND_DOWN",
  "PrePadding": [1,1],
  "PostPadding": [1,1],
  "Stride": [1,1],
  "Dilation": [1,1],
  "OutMaps": 144,
  "Groups": 144,
  "Weights": {"Type": "Float", "Count": 1296},
  "Bias": {"Type": "Float", "Count": 144},
  "HasBias": 1,
  "HasReLU": 0,
  "HasSparseWeights": 0,
  "HasDynamicFilter": 0,
  "HasDynamicBias": 0,
  "HasResidual": 0,
  "ConvXAsActInputIdx": -1,
  "BiasAsActInputIdx": -1,
  "ResAsActInputIdx": -1,
  "Activation": "CLIPPED_RELU",
  "ParameterSubType": "[0.000000,6.000000]",
  "TacticName": "sm50_xmma_convolution_trt_depthwiseFP32NHWC4_fp32nhwcx4_fp32nhwcx4_fp32kcrs",
  "TacticValue": "0x2cac8ad6921b6398",
  "StreamId": 0,
  "Metadata": "[ONNX Layer: Conv_49]\u001e[ONNX Layer: Clip_55]"
},{
  "Name": "Reformatting CopyNode for Input Tensor 0 to Conv_57 + Add_59",
  "LayerType": "NoOp",
  "Inputs": [
  {
    "Name": "input.120",
    "Location": "Device",
    "Dimensions": [1,144,64,128],
    "Format/Datatype": "Channel major FP32 format where channel % 4 == 0"
  }],
  "Outputs": [
  {
    "Name": "Reformatted Input Tensor 0 to Conv_57 + Add_59",
    "Location": "Device",
    "Dimensions": [1,144,64,128],
    "Format/Datatype": "Channel major FP32 format"
  }],
  "TacticValue": "0x0000000000000000",
  "StreamId": 0,
  "Metadata": ""
},{
  "Name": "Conv_57 + Add_59",
  "LayerType": "CaskConvolution",
  "Inputs": [
  {
    "Name": "Reformatted Input Tensor 0 to Conv_57 + Add_59",
    "Location": "Device",
    "Dimensions": [1,144,64,128],
    "Format/Datatype": "Channel major FP32 format"
  },
  {
    "Name": "input.88",
    "Location": "Device",
    "Dimensions": [1,24,64,128],
    "Format/Datatype": "Channel major FP32 format"
  }],
  "Outputs": [
  {
    "Name": "input.128",
    "Location": "Device",
    "Dimensions": [1,24,64,128],
    "Format/Datatype": "Channel major FP32 format"
  }],
  "ParameterType": "Convolution",
  "Kernel": [1,1],
  "PaddingMode": "kEXPLICIT_ROUND_DOWN",
  "PrePadding": [0,0],
  "PostPadding": [0,0],
  "Stride": [1,1],
  "Dilation": [1,1],
  "OutMaps": 24,
  "Groups": 1,
  "Weights": {"Type": "Float", "Count": 3456},
  "Bias": {"Type": "Float", "Count": 24},
  "HasBias": 1,
  "HasReLU": 0,
  "HasSparseWeights": 0,
  "HasDynamicFilter": 0,
  "HasDynamicBias": 0,
  "HasResidual": 1,
  "ConvXAsActInputIdx": -1,
  "BiasAsActInputIdx": -1,
  "ResAsActInputIdx": -1,
  "Activation": "NONE",
  "TacticName": "sm80_xmma_fprop_implicit_gemm_f32f32_f32f32_f32_nhwckrsc_nhwc_tilesize128x32x8_stage3_warpsize2x2x1_g1_ffma_simple_t1r1s1_aligna4_alignc4",
  "TacticValue": "0xd9eb6ca56ddc3a22",
  "StreamId": 0,
  "Metadata": "[ONNX Layer: Conv_57]\u001e[ONNX Layer: Add_59]"
},{
  "Name": "Reformatting CopyNode for Input Tensor 0 to Conv_61 + Clip_67",
  "LayerType": "NoOp",
  "Inputs": [
  {
    "Name": "input.128",
    "Location": "Device",
    "Dimensions": [1,24,64,128],
    "Format/Datatype": "Channel major FP32 format"
  }],
  "Outputs": [
  {
    "Name": "Reformatted Input Tensor 0 to Conv_61 + Clip_67",
    "Location": "Device",
    "Dimensions": [1,24,64,128],
    "Format/Datatype": "Channel major FP32 format where channel % 4 == 0"
  }],
  "TacticValue": "0x0000000000000000",
  "StreamId": 0,
  "Metadata": ""
},{
  "Name": "Conv_61 + Clip_67",
  "LayerType": "CaskConvolution",
  "Inputs": [
  {
    "Name": "Reformatted Input Tensor 0 to Conv_61 + Clip_67",
    "Location": "Device",
    "Dimensions": [1,24,64,128],
    "Format/Datatype": "Channel major FP32 format where channel % 4 == 0"
  }],
  "Outputs": [
  {
    "Name": "input.144",
    "Location": "Device",
    "Dimensions": [1,144,64,128],
    "Format/Datatype": "Channel major FP32 format where channel % 4 == 0"
  }],
  "ParameterType": "Convolution",
  "Kernel": [1,1],
  "PaddingMode": "kEXPLICIT_ROUND_DOWN",
  "PrePadding": [0,0],
  "PostPadding": [0,0],
  "Stride": [1,1],
  "Dilation": [1,1],
  "OutMaps": 144,
  "Groups": 1,
  "Weights": {"Type": "Float", "Count": 3456},
  "Bias": {"Type": "Float", "Count": 144},
  "HasBias": 1,
  "HasReLU": 0,
  "HasSparseWeights": 0,
  "HasDynamicFilter": 0,
  "HasDynamicBias": 0,
  "HasResidual": 0,
  "ConvXAsActInputIdx": -1,
  "BiasAsActInputIdx": -1,
  "ResAsActInputIdx": -1,
  "Activation": "CLIPPED_RELU",
  "ParameterSubType": "[0.000000,6.000000]",
  "TacticName": "sm80_xmma_fprop_implicit_gemm_indexed_wo_smem_f32f32_tf32f32_f32_nhwckrsc_nhwc_tilesize128x32x16_stage1_warpsize4x1x1_g1_tensor16x8x8",
  "TacticValue": "0x9cb304e2edbc1221",
  "StreamId": 0,
  "Metadata": "[ONNX Layer: Conv_61]\u001e[ONNX Layer: Clip_67]"
},{
  "Name": "Conv_69 + Clip_75",
  "LayerType": "CaskConvolution",
  "Inputs": [
  {
    "Name": "input.144",
    "Location": "Device",
    "Dimensions": [1,144,64,128],
    "Format/Datatype": "Channel major FP32 format where channel % 4 == 0"
  }],
  "Outputs": [
  {
    "Name": "input.160",
    "Location": "Device",
    "Dimensions": [1,144,32,64],
    "Format/Datatype": "Channel major FP32 format where channel % 4 == 0"
  }],
  "ParameterType": "Convolution",
  "Kernel": [3,3],
  "PaddingMode": "kEXPLICIT_ROUND_DOWN",
  "PrePadding": [1,1],
  "PostPadding": [1,1],
  "Stride": [2,2],
  "Dilation": [1,1],
  "OutMaps": 144,
  "Groups": 144,
  "Weights": {"Type": "Float", "Count": 1296},
  "Bias": {"Type": "Float", "Count": 144},
  "HasBias": 1,
  "HasReLU": 0,
  "HasSparseWeights": 0,
  "HasDynamicFilter": 0,
  "HasDynamicBias": 0,
  "HasResidual": 0,
  "ConvXAsActInputIdx": -1,
  "BiasAsActInputIdx": -1,
  "ResAsActInputIdx": -1,
  "Activation": "CLIPPED_RELU",
  "ParameterSubType": "[0.000000,6.000000]",
  "TacticName": "sm50_xmma_convolution_trt_depthwiseFP32NHWC4_fp32nhwcx4_fp32nhwcx4_fp32kcrs",
  "TacticValue": "0x2cac8ad6921b6398",
  "StreamId": 0,
  "Metadata": "[ONNX Layer: Conv_69]\u001e[ONNX Layer: Clip_75]"
},{
  "Name": "Conv_77",
  "LayerType": "CaskGemmConvolution",
  "Inputs": [
  {
    "Name": "input.160",
    "Location": "Device",
    "Dimensions": [1,144,32,64],
    "Format/Datatype": "Channel major FP32 format where channel % 4 == 0"
  }],
  "Outputs": [
  {
    "Name": "input.168",
    "Location": "Device",
    "Dimensions": [1,32,32,64],
    "Format/Datatype": "Channel major FP32 format where channel % 4 == 0"
  }],
  "ParameterType": "Convolution",
  "Kernel": [1,1],
  "PaddingMode": "kEXPLICIT_ROUND_DOWN",
  "PrePadding": [0,0],
  "PostPadding": [0,0],
  "Stride": [1,1],
  "Dilation": [1,1],
  "OutMaps": 32,
  "Groups": 1,
  "Weights": {"Type": "Float", "Count": 4608},
  "Bias": {"Type": "Float", "Count": 32},
  "HasBias": 1,
  "HasReLU": 0,
  "HasSparseWeights": 0,
  "HasDynamicFilter": 0,
  "HasDynamicBias": 0,
  "HasResidual": 0,
  "ConvXAsActInputIdx": -1,
  "BiasAsActInputIdx": -1,
  "ResAsActInputIdx": -1,
  "Activation": "NONE",
  "TacticName": "sm80_xmma_gemm_f32f32_tf32f32_f32_tn_n_tilesize64x32x64_stage4_warpsize2x1x2_tensor16x8x8",
  "TacticValue": "0x0000000000020613",
  "StreamId": 0,
  "Metadata": "[ONNX Layer: Conv_77]"
},{
  "Name": "Conv_79 + Clip_85",
  "LayerType": "CaskConvolution",
  "Inputs": [
  {
    "Name": "input.168",
    "Location": "Device",
    "Dimensions": [1,32,32,64],
    "Format/Datatype": "Channel major FP32 format where channel % 4 == 0"
  }],
  "Outputs": [
  {
    "Name": "input.184",
    "Location": "Device",
    "Dimensions": [1,192,32,64],
    "Format/Datatype": "Channel major FP32 format where channel % 4 == 0"
  }],
  "ParameterType": "Convolution",
  "Kernel": [1,1],
  "PaddingMode": "kEXPLICIT_ROUND_DOWN",
  "PrePadding": [0,0],
  "PostPadding": [0,0],
  "Stride": [1,1],
  "Dilation": [1,1],
  "OutMaps": 192,
  "Groups": 1,
  "Weights": {"Type": "Float", "Count": 6144},
  "Bias": {"Type": "Float", "Count": 192},
  "HasBias": 1,
  "HasReLU": 0,
  "HasSparseWeights": 0,
  "HasDynamicFilter": 0,
  "HasDynamicBias": 0,
  "HasResidual": 0,
  "ConvXAsActInputIdx": -1,
  "BiasAsActInputIdx": -1,
  "ResAsActInputIdx": -1,
  "Activation": "CLIPPED_RELU",
  "ParameterSubType": "[0.000000,6.000000]",
  "TacticName": "sm80_xmma_fprop_implicit_gemm_indexed_wo_smem_f32f32_tf32f32_f32_nhwckrsc_nhwc_tilesize128x32x16_stage1_warpsize4x1x1_g1_tensor16x8x8_alignc8",
  "TacticValue": "0x72a5d05b1bb165ef",
  "StreamId": 0,
  "Metadata": "[ONNX Layer: Conv_79]\u001e[ONNX Layer: Clip_85]"
},{
  "Name": "Conv_87 + Clip_93",
  "LayerType": "CaskConvolution",
  "Inputs": [
  {
    "Name": "input.184",
    "Location": "Device",
    "Dimensions": [1,192,32,64],
    "Format/Datatype": "Channel major FP32 format where channel % 4 == 0"
  }],
  "Outputs": [
  {
    "Name": "input.200",
    "Location": "Device",
    "Dimensions": [1,192,32,64],
    "Format/Datatype": "Channel major FP32 format where channel % 4 == 0"
  }],
  "ParameterType": "Convolution",
  "Kernel": [3,3],
  "PaddingMode": "kEXPLICIT_ROUND_DOWN",
  "PrePadding": [1,1],
  "PostPadding": [1,1],
  "Stride": [1,1],
  "Dilation": [1,1],
  "OutMaps": 192,
  "Groups": 192,
  "Weights": {"Type": "Float", "Count": 1728},
  "Bias": {"Type": "Float", "Count": 192},
  "HasBias": 1,
  "HasReLU": 0,
  "HasSparseWeights": 0,
  "HasDynamicFilter": 0,
  "HasDynamicBias": 0,
  "HasResidual": 0,
  "ConvXAsActInputIdx": -1,
  "BiasAsActInputIdx": -1,
  "ResAsActInputIdx": -1,
  "Activation": "CLIPPED_RELU",
  "ParameterSubType": "[0.000000,6.000000]",
  "TacticName": "sm50_xmma_convolution_trt_depthwiseFP32NHWC4_fp32nhwcx4_fp32nhwcx4_fp32kcrs",
  "TacticValue": "0x2cac8ad6921b6398",
  "StreamId": 0,
  "Metadata": "[ONNX Layer: Conv_87]\u001e[ONNX Layer: Clip_93]"
},{
  "Name": "Conv_95 + Add_97",
  "LayerType": "CaskGemmConvolution",
  "Inputs": [
  {
    "Name": "input.200",
    "Location": "Device",
    "Dimensions": [1,192,32,64],
    "Format/Datatype": "Channel major FP32 format where channel % 4 == 0"
  },
  {
    "Name": "input.168",
    "Location": "Device",
    "Dimensions": [1,32,32,64],
    "Format/Datatype": "Channel major FP32 format where channel % 4 == 0"
  }],
  "Outputs": [
  {
    "Name": "input.208",
    "Location": "Device",
    "Dimensions": [1,32,32,64],
    "Format/Datatype": "Channel major FP32 format where channel % 4 == 0"
  }],
  "ParameterType": "Convolution",
  "Kernel": [1,1],
  "PaddingMode": "kEXPLICIT_ROUND_DOWN",
  "PrePadding": [0,0],
  "PostPadding": [0,0],
  "Stride": [1,1],
  "Dilation": [1,1],
  "OutMaps": 32,
  "Groups": 1,
  "Weights": {"Type": "Float", "Count": 6144},
  "Bias": {"Type": "Float", "Count": 32},
  "HasBias": 1,
  "HasReLU": 0,
  "HasSparseWeights": 0,
  "HasDynamicFilter": 0,
  "HasDynamicBias": 0,
  "HasResidual": 1,
  "ConvXAsActInputIdx": -1,
  "BiasAsActInputIdx": -1,
  "ResAsActInputIdx": -1,
  "Activation": "NONE",
  "TacticName": "sm80_xmma_gemm_f32f32_tf32f32_f32_tn_n_tilesize64x32x64_stage4_warpsize2x1x2_tensor16x8x8",
  "TacticValue": "0x0000000000020613",
  "StreamId": 0,
  "Metadata": "[ONNX Layer: Conv_95]\u001e[ONNX Layer: Add_97]"
},{
  "Name": "Conv_99 + Clip_105",
  "LayerType": "CaskConvolution",
  "Inputs": [
  {
    "Name": "input.208",
    "Location": "Device",
    "Dimensions": [1,32,32,64],
    "Format/Datatype": "Channel major FP32 format where channel % 4 == 0"
  }],
  "Outputs": [
  {
    "Name": "input.224",
    "Location": "Device",
    "Dimensions": [1,192,32,64],
    "Format/Datatype": "Channel major FP32 format where channel % 4 == 0"
  }],
  "ParameterType": "Convolution",
  "Kernel": [1,1],
  "PaddingMode": "kEXPLICIT_ROUND_DOWN",
  "PrePadding": [0,0],
  "PostPadding": [0,0],
  "Stride": [1,1],
  "Dilation": [1,1],
  "OutMaps": 192,
  "Groups": 1,
  "Weights": {"Type": "Float", "Count": 6144},
  "Bias": {"Type": "Float", "Count": 192},
  "HasBias": 1,
  "HasReLU": 0,
  "HasSparseWeights": 0,
  "HasDynamicFilter": 0,
  "HasDynamicBias": 0,
  "HasResidual": 0,
  "ConvXAsActInputIdx": -1,
  "BiasAsActInputIdx": -1,
  "ResAsActInputIdx": -1,
  "Activation": "CLIPPED_RELU",
  "ParameterSubType": "[0.000000,6.000000]",
  "TacticName": "sm80_xmma_fprop_implicit_gemm_indexed_wo_smem_f32f32_tf32f32_f32_nhwckrsc_nhwc_tilesize128x32x16_stage1_warpsize4x1x1_g1_tensor16x8x8_alignc8",
  "TacticValue": "0x72a5d05b1bb165ef",
  "StreamId": 0,
  "Metadata": "[ONNX Layer: Conv_99]\u001e[ONNX Layer: Clip_105]"
},{
  "Name": "Conv_107 + Clip_113",
  "LayerType": "CaskConvolution",
  "Inputs": [
  {
    "Name": "input.224",
    "Location": "Device",
    "Dimensions": [1,192,32,64],
    "Format/Datatype": "Channel major FP32 format where channel % 4 == 0"
  }],
  "Outputs": [
  {
    "Name": "input.240",
    "Location": "Device",
    "Dimensions": [1,192,32,64],
    "Format/Datatype": "Channel major FP32 format where channel % 4 == 0"
  }],
  "ParameterType": "Convolution",
  "Kernel": [3,3],
  "PaddingMode": "kEXPLICIT_ROUND_DOWN",
  "PrePadding": [1,1],
  "PostPadding": [1,1],
  "Stride": [1,1],
  "Dilation": [1,1],
  "OutMaps": 192,
  "Groups": 192,
  "Weights": {"Type": "Float", "Count": 1728},
  "Bias": {"Type": "Float", "Count": 192},
  "HasBias": 1,
  "HasReLU": 0,
  "HasSparseWeights": 0,
  "HasDynamicFilter": 0,
  "HasDynamicBias": 0,
  "HasResidual": 0,
  "ConvXAsActInputIdx": -1,
  "BiasAsActInputIdx": -1,
  "ResAsActInputIdx": -1,
  "Activation": "CLIPPED_RELU",
  "ParameterSubType": "[0.000000,6.000000]",
  "TacticName": "sm50_xmma_convolution_trt_depthwiseFP32NHWC4_fp32nhwcx4_fp32nhwcx4_fp32kcrs",
  "TacticValue": "0x2cac8ad6921b6398",
  "StreamId": 0,
  "Metadata": "[ONNX Layer: Conv_107]\u001e[ONNX Layer: Clip_113]"
},{
  "Name": "Conv_115 + Add_117",
  "LayerType": "CaskGemmConvolution",
  "Inputs": [
  {
    "Name": "input.240",
    "Location": "Device",
    "Dimensions": [1,192,32,64],
    "Format/Datatype": "Channel major FP32 format where channel % 4 == 0"
  },
  {
    "Name": "input.208",
    "Location": "Device",
    "Dimensions": [1,32,32,64],
    "Format/Datatype": "Channel major FP32 format where channel % 4 == 0"
  }],
  "Outputs": [
  {
    "Name": "input.248",
    "Location": "Device",
    "Dimensions": [1,32,32,64],
    "Format/Datatype": "Channel major FP32 format where channel % 4 == 0"
  }],
  "ParameterType": "Convolution",
  "Kernel": [1,1],
  "PaddingMode": "kEXPLICIT_ROUND_DOWN",
  "PrePadding": [0,0],
  "PostPadding": [0,0],
  "Stride": [1,1],
  "Dilation": [1,1],
  "OutMaps": 32,
  "Groups": 1,
  "Weights": {"Type": "Float", "Count": 6144},
  "Bias": {"Type": "Float", "Count": 32},
  "HasBias": 1,
  "HasReLU": 0,
  "HasSparseWeights": 0,
  "HasDynamicFilter": 0,
  "HasDynamicBias": 0,
  "HasResidual": 1,
  "ConvXAsActInputIdx": -1,
  "BiasAsActInputIdx": -1,
  "ResAsActInputIdx": -1,
  "Activation": "NONE",
  "TacticName": "sm80_xmma_gemm_f32f32_tf32f32_f32_tn_n_tilesize64x32x64_stage4_warpsize2x1x2_tensor16x8x8",
  "TacticValue": "0x0000000000020613",
  "StreamId": 0,
  "Metadata": "[ONNX Layer: Conv_115]\u001e[ONNX Layer: Add_117]"
},{
  "Name": "Conv_119 + Clip_125",
  "LayerType": "CaskConvolution",
  "Inputs": [
  {
    "Name": "input.248",
    "Location": "Device",
    "Dimensions": [1,32,32,64],
    "Format/Datatype": "Channel major FP32 format where channel % 4 == 0"
  }],
  "Outputs": [
  {
    "Name": "input.264",
    "Location": "Device",
    "Dimensions": [1,192,32,64],
    "Format/Datatype": "Channel major FP32 format where channel % 4 == 0"
  }],
  "ParameterType": "Convolution",
  "Kernel": [1,1],
  "PaddingMode": "kEXPLICIT_ROUND_DOWN",
  "PrePadding": [0,0],
  "PostPadding": [0,0],
  "Stride": [1,1],
  "Dilation": [1,1],
  "OutMaps": 192,
  "Groups": 1,
  "Weights": {"Type": "Float", "Count": 6144},
  "Bias": {"Type": "Float", "Count": 192},
  "HasBias": 1,
  "HasReLU": 0,
  "HasSparseWeights": 0,
  "HasDynamicFilter": 0,
  "HasDynamicBias": 0,
  "HasResidual": 0,
  "ConvXAsActInputIdx": -1,
  "BiasAsActInputIdx": -1,
  "ResAsActInputIdx": -1,
  "Activation": "CLIPPED_RELU",
  "ParameterSubType": "[0.000000,6.000000]",
  "TacticName": "sm80_xmma_fprop_implicit_gemm_indexed_wo_smem_f32f32_tf32f32_f32_nhwckrsc_nhwc_tilesize128x32x16_stage1_warpsize4x1x1_g1_tensor16x8x8_alignc8",
  "TacticValue": "0x72a5d05b1bb165ef",
  "StreamId": 0,
  "Metadata": "[ONNX Layer: Conv_119]\u001e[ONNX Layer: Clip_125]"
},{
  "Name": "Conv_127 + Clip_133",
  "LayerType": "CaskConvolution",
  "Inputs": [
  {
    "Name": "input.264",
    "Location": "Device",
    "Dimensions": [1,192,32,64],
    "Format/Datatype": "Channel major FP32 format where channel % 4 == 0"
  }],
  "Outputs": [
  {
    "Name": "input.280",
    "Location": "Device",
    "Dimensions": [1,192,16,32],
    "Format/Datatype": "Channel major FP32 format where channel % 4 == 0"
  }],
  "ParameterType": "Convolution",
  "Kernel": [3,3],
  "PaddingMode": "kEXPLICIT_ROUND_DOWN",
  "PrePadding": [1,1],
  "PostPadding": [1,1],
  "Stride": [2,2],
  "Dilation": [1,1],
  "OutMaps": 192,
  "Groups": 192,
  "Weights": {"Type": "Float", "Count": 1728},
  "Bias": {"Type": "Float", "Count": 192},
  "HasBias": 1,
  "HasReLU": 0,
  "HasSparseWeights": 0,
  "HasDynamicFilter": 0,
  "HasDynamicBias": 0,
  "HasResidual": 0,
  "ConvXAsActInputIdx": -1,
  "BiasAsActInputIdx": -1,
  "ResAsActInputIdx": -1,
  "Activation": "CLIPPED_RELU",
  "ParameterSubType": "[0.000000,6.000000]",
  "TacticName": "sm50_xmma_convolution_trt_depthwiseFP32NHWC4_fp32nhwcx4_fp32nhwcx4_fp32kcrs",
  "TacticValue": "0x2cac8ad6921b6398",
  "StreamId": 0,
  "Metadata": "[ONNX Layer: Conv_127]\u001e[ONNX Layer: Clip_133]"
},{
  "Name": "Conv_135",
  "LayerType": "CaskGemmConvolution",
  "Inputs": [
  {
    "Name": "input.280",
    "Location": "Device",
    "Dimensions": [1,192,16,32],
    "Format/Datatype": "Channel major FP32 format where channel % 4 == 0"
  }],
  "Outputs": [
  {
    "Name": "input.288",
    "Location": "Device",
    "Dimensions": [1,64,16,32],
    "Format/Datatype": "Channel major FP32 format where channel % 4 == 0"
  }],
  "ParameterType": "Convolution",
  "Kernel": [1,1],
  "PaddingMode": "kEXPLICIT_ROUND_DOWN",
  "PrePadding": [0,0],
  "PostPadding": [0,0],
  "Stride": [1,1],
  "Dilation": [1,1],
  "OutMaps": 64,
  "Groups": 1,
  "Weights": {"Type": "Float", "Count": 12288},
  "Bias": {"Type": "Float", "Count": 64},
  "HasBias": 1,
  "HasReLU": 0,
  "HasSparseWeights": 0,
  "HasDynamicFilter": 0,
  "HasDynamicBias": 0,
  "HasResidual": 0,
  "ConvXAsActInputIdx": -1,
  "BiasAsActInputIdx": -1,
  "ResAsActInputIdx": -1,
  "Activation": "NONE",
  "TacticName": "sm86_xmma_gemm_f32f32_tf32f32_f32_tn_n_tilesize32x32x64_stage6_warpsize2x2x1_tensor16x8x8",
  "TacticValue": "0x0000000000020464",
  "StreamId": 0,
  "Metadata": "[ONNX Layer: Conv_135]"
},{
  "Name": "Conv_137 + Clip_143",
  "LayerType": "CaskConvolution",
  "Inputs": [
  {
    "Name": "input.288",
    "Location": "Device",
    "Dimensions": [1,64,16,32],
    "Format/Datatype": "Channel major FP32 format where channel % 4 == 0"
  }],
  "Outputs": [
  {
    "Name": "input.304",
    "Location": "Device",
    "Dimensions": [1,384,16,32],
    "Format/Datatype": "Channel major FP32 format where channel % 4 == 0"
  }],
  "ParameterType": "Convolution",
  "Kernel": [1,1],
  "PaddingMode": "kEXPLICIT_ROUND_DOWN",
  "PrePadding": [0,0],
  "PostPadding": [0,0],
  "Stride": [1,1],
  "Dilation": [1,1],
  "OutMaps": 384,
  "Groups": 1,
  "Weights": {"Type": "Float", "Count": 24576},
  "Bias": {"Type": "Float", "Count": 384},
  "HasBias": 1,
  "HasReLU": 0,
  "HasSparseWeights": 0,
  "HasDynamicFilter": 0,
  "HasDynamicBias": 0,
  "HasResidual": 0,
  "ConvXAsActInputIdx": -1,
  "BiasAsActInputIdx": -1,
  "ResAsActInputIdx": -1,
  "Activation": "CLIPPED_RELU",
  "ParameterSubType": "[0.000000,6.000000]",
  "TacticName": "sm80_xmma_fprop_implicit_gemm_indexed_wo_smem_f32f32_tf32f32_f32_nhwckrsc_nhwc_tilesize128x16x64_stage1_warpsize4x1x1_g1_tensor16x8x8",
  "TacticValue": "0x10383a0781d24dde",
  "StreamId": 0,
  "Metadata": "[ONNX Layer: Conv_137]\u001e[ONNX Layer: Clip_143]"
},{
  "Name": "Conv_145 + Clip_151",
  "LayerType": "CaskConvolution",
  "Inputs": [
  {
    "Name": "input.304",
    "Location": "Device",
    "Dimensions": [1,384,16,32],
    "Format/Datatype": "Channel major FP32 format where channel % 4 == 0"
  }],
  "Outputs": [
  {
    "Name": "input.320",
    "Location": "Device",
    "Dimensions": [1,384,16,32],
    "Format/Datatype": "Channel major FP32 format where channel % 4 == 0"
  }],
  "ParameterType": "Convolution",
  "Kernel": [3,3],
  "PaddingMode": "kEXPLICIT_ROUND_DOWN",
  "PrePadding": [1,1],
  "PostPadding": [1,1],
  "Stride": [1,1],
  "Dilation": [1,1],
  "OutMaps": 384,
  "Groups": 384,
  "Weights": {"Type": "Float", "Count": 3456},
  "Bias": {"Type": "Float", "Count": 384},
  "HasBias": 1,
  "HasReLU": 0,
  "HasSparseWeights": 0,
  "HasDynamicFilter": 0,
  "HasDynamicBias": 0,
  "HasResidual": 0,
  "ConvXAsActInputIdx": -1,
  "BiasAsActInputIdx": -1,
  "ResAsActInputIdx": -1,
  "Activation": "CLIPPED_RELU",
  "ParameterSubType": "[0.000000,6.000000]",
  "TacticName": "sm50_xmma_convolution_trt_depthwiseFP32NHWC4_fp32nhwcx4_fp32nhwcx4_fp32kcrs",
  "TacticValue": "0x2cac8ad6921b6398",
  "StreamId": 0,
  "Metadata": "[ONNX Layer: Conv_145]\u001e[ONNX Layer: Clip_151]"
},{
  "Name": "Conv_153 + Add_155",
  "LayerType": "CaskGemmConvolution",
  "Inputs": [
  {
    "Name": "input.320",
    "Location": "Device",
    "Dimensions": [1,384,16,32],
    "Format/Datatype": "Channel major FP32 format where channel % 4 == 0"
  },
  {
    "Name": "input.288",
    "Location": "Device",
    "Dimensions": [1,64,16,32],
    "Format/Datatype": "Channel major FP32 format where channel % 4 == 0"
  }],
  "Outputs": [
  {
    "Name": "input.328",
    "Location": "Device",
    "Dimensions": [1,64,16,32],
    "Format/Datatype": "Channel major FP32 format where channel % 4 == 0"
  }],
  "ParameterType": "Convolution",
  "Kernel": [1,1],
  "PaddingMode": "kEXPLICIT_ROUND_DOWN",
  "PrePadding": [0,0],
  "PostPadding": [0,0],
  "Stride": [1,1],
  "Dilation": [1,1],
  "OutMaps": 64,
  "Groups": 1,
  "Weights": {"Type": "Float", "Count": 24576},
  "Bias": {"Type": "Float", "Count": 64},
  "HasBias": 1,
  "HasReLU": 0,
  "HasSparseWeights": 0,
  "HasDynamicFilter": 0,
  "HasDynamicBias": 0,
  "HasResidual": 1,
  "ConvXAsActInputIdx": -1,
  "BiasAsActInputIdx": -1,
  "ResAsActInputIdx": -1,
  "Activation": "NONE",
  "TacticName": "sm80_xmma_gemm_f32f32_tf32f32_f32_tn_n_tilesize32x32x64_stage3_warpsize2x1x2_tensor16x8x8",
  "TacticValue": "0x00000000000206ea",
  "StreamId": 0,
  "Metadata": "[ONNX Layer: Conv_153]\u001e[ONNX Layer: Add_155]"
},{
  "Name": "Conv_157 + Clip_163",
  "LayerType": "CaskConvolution",
  "Inputs": [
  {
    "Name": "input.328",
    "Location": "Device",
    "Dimensions": [1,64,16,32],
    "Format/Datatype": "Channel major FP32 format where channel % 4 == 0"
  }],
  "Outputs": [
  {
    "Name": "input.344",
    "Location": "Device",
    "Dimensions": [1,384,16,32],
    "Format/Datatype": "Channel major FP32 format where channel % 4 == 0"
  }],
  "ParameterType": "Convolution",
  "Kernel": [1,1],
  "PaddingMode": "kEXPLICIT_ROUND_DOWN",
  "PrePadding": [0,0],
  "PostPadding": [0,0],
  "Stride": [1,1],
  "Dilation": [1,1],
  "OutMaps": 384,
  "Groups": 1,
  "Weights": {"Type": "Float", "Count": 24576},
  "Bias": {"Type": "Float", "Count": 384},
  "HasBias": 1,
  "HasReLU": 0,
  "HasSparseWeights": 0,
  "HasDynamicFilter": 0,
  "HasDynamicBias": 0,
  "HasResidual": 0,
  "ConvXAsActInputIdx": -1,
  "BiasAsActInputIdx": -1,
  "ResAsActInputIdx": -1,
  "Activation": "CLIPPED_RELU",
  "ParameterSubType": "[0.000000,6.000000]",
  "TacticName": "sm80_xmma_fprop_implicit_gemm_indexed_wo_smem_f32f32_tf32f32_f32_nhwckrsc_nhwc_tilesize128x16x64_stage1_warpsize4x1x1_g1_tensor16x8x8",
  "TacticValue": "0x10383a0781d24dde",
  "StreamId": 0,
  "Metadata": "[ONNX Layer: Conv_157]\u001e[ONNX Layer: Clip_163]"
},{
  "Name": "Conv_165 + Clip_171",
  "LayerType": "CaskConvolution",
  "Inputs": [
  {
    "Name": "input.344",
    "Location": "Device",
    "Dimensions": [1,384,16,32],
    "Format/Datatype": "Channel major FP32 format where channel % 4 == 0"
  }],
  "Outputs": [
  {
    "Name": "input.360",
    "Location": "Device",
    "Dimensions": [1,384,16,32],
    "Format/Datatype": "Channel major FP32 format where channel % 4 == 0"
  }],
  "ParameterType": "Convolution",
  "Kernel": [3,3],
  "PaddingMode": "kEXPLICIT_ROUND_DOWN",
  "PrePadding": [1,1],
  "PostPadding": [1,1],
  "Stride": [1,1],
  "Dilation": [1,1],
  "OutMaps": 384,
  "Groups": 384,
  "Weights": {"Type": "Float", "Count": 3456},
  "Bias": {"Type": "Float", "Count": 384},
  "HasBias": 1,
  "HasReLU": 0,
  "HasSparseWeights": 0,
  "HasDynamicFilter": 0,
  "HasDynamicBias": 0,
  "HasResidual": 0,
  "ConvXAsActInputIdx": -1,
  "BiasAsActInputIdx": -1,
  "ResAsActInputIdx": -1,
  "Activation": "CLIPPED_RELU",
  "ParameterSubType": "[0.000000,6.000000]",
  "TacticName": "sm50_xmma_convolution_trt_depthwiseFP32NHWC4_fp32nhwcx4_fp32nhwcx4_fp32kcrs",
  "TacticValue": "0x2cac8ad6921b6398",
  "StreamId": 0,
  "Metadata": "[ONNX Layer: Conv_165]\u001e[ONNX Layer: Clip_171]"
},{
  "Name": "Conv_173 + Add_175",
  "LayerType": "CaskGemmConvolution",
  "Inputs": [
  {
    "Name": "input.360",
    "Location": "Device",
    "Dimensions": [1,384,16,32],
    "Format/Datatype": "Channel major FP32 format where channel % 4 == 0"
  },
  {
    "Name": "input.328",
    "Location": "Device",
    "Dimensions": [1,64,16,32],
    "Format/Datatype": "Channel major FP32 format where channel % 4 == 0"
  }],
  "Outputs": [
  {
    "Name": "input.368",
    "Location": "Device",
    "Dimensions": [1,64,16,32],
    "Format/Datatype": "Channel major FP32 format where channel % 4 == 0"
  }],
  "ParameterType": "Convolution",
  "Kernel": [1,1],
  "PaddingMode": "kEXPLICIT_ROUND_DOWN",
  "PrePadding": [0,0],
  "PostPadding": [0,0],
  "Stride": [1,1],
  "Dilation": [1,1],
  "OutMaps": 64,
  "Groups": 1,
  "Weights": {"Type": "Float", "Count": 24576},
  "Bias": {"Type": "Float", "Count": 64},
  "HasBias": 1,
  "HasReLU": 0,
  "HasSparseWeights": 0,
  "HasDynamicFilter": 0,
  "HasDynamicBias": 0,
  "HasResidual": 1,
  "ConvXAsActInputIdx": -1,
  "BiasAsActInputIdx": -1,
  "ResAsActInputIdx": -1,
  "Activation": "NONE",
  "TacticName": "sm80_xmma_gemm_f32f32_tf32f32_f32_tn_n_tilesize32x32x64_stage3_warpsize2x1x2_tensor16x8x8",
  "TacticValue": "0x00000000000206ea",
  "StreamId": 0,
  "Metadata": "[ONNX Layer: Conv_173]\u001e[ONNX Layer: Add_175]"
},{
  "Name": "Conv_177 + Clip_183",
  "LayerType": "CaskConvolution",
  "Inputs": [
  {
    "Name": "input.368",
    "Location": "Device",
    "Dimensions": [1,64,16,32],
    "Format/Datatype": "Channel major FP32 format where channel % 4 == 0"
  }],
  "Outputs": [
  {
    "Name": "input.384",
    "Location": "Device",
    "Dimensions": [1,384,16,32],
    "Format/Datatype": "Channel major FP32 format where channel % 4 == 0"
  }],
  "ParameterType": "Convolution",
  "Kernel": [1,1],
  "PaddingMode": "kEXPLICIT_ROUND_DOWN",
  "PrePadding": [0,0],
  "PostPadding": [0,0],
  "Stride": [1,1],
  "Dilation": [1,1],
  "OutMaps": 384,
  "Groups": 1,
  "Weights": {"Type": "Float", "Count": 24576},
  "Bias": {"Type": "Float", "Count": 384},
  "HasBias": 1,
  "HasReLU": 0,
  "HasSparseWeights": 0,
  "HasDynamicFilter": 0,
  "HasDynamicBias": 0,
  "HasResidual": 0,
  "ConvXAsActInputIdx": -1,
  "BiasAsActInputIdx": -1,
  "ResAsActInputIdx": -1,
  "Activation": "CLIPPED_RELU",
  "ParameterSubType": "[0.000000,6.000000]",
  "TacticName": "sm80_xmma_fprop_implicit_gemm_indexed_wo_smem_f32f32_tf32f32_f32_nhwckrsc_nhwc_tilesize128x16x64_stage1_warpsize4x1x1_g1_tensor16x8x8",
  "TacticValue": "0x10383a0781d24dde",
  "StreamId": 0,
  "Metadata": "[ONNX Layer: Conv_177]\u001e[ONNX Layer: Clip_183]"
},{
  "Name": "Conv_185 + Clip_191",
  "LayerType": "CaskConvolution",
  "Inputs": [
  {
    "Name": "input.384",
    "Location": "Device",
    "Dimensions": [1,384,16,32],
    "Format/Datatype": "Channel major FP32 format where channel % 4 == 0"
  }],
  "Outputs": [
  {
    "Name": "input.400",
    "Location": "Device",
    "Dimensions": [1,384,16,32],
    "Format/Datatype": "Channel major FP32 format where channel % 4 == 0"
  }],
  "ParameterType": "Convolution",
  "Kernel": [3,3],
  "PaddingMode": "kEXPLICIT_ROUND_DOWN",
  "PrePadding": [1,1],
  "PostPadding": [1,1],
  "Stride": [1,1],
  "Dilation": [1,1],
  "OutMaps": 384,
  "Groups": 384,
  "Weights": {"Type": "Float", "Count": 3456},
  "Bias": {"Type": "Float", "Count": 384},
  "HasBias": 1,
  "HasReLU": 0,
  "HasSparseWeights": 0,
  "HasDynamicFilter": 0,
  "HasDynamicBias": 0,
  "HasResidual": 0,
  "ConvXAsActInputIdx": -1,
  "BiasAsActInputIdx": -1,
  "ResAsActInputIdx": -1,
  "Activation": "CLIPPED_RELU",
  "ParameterSubType": "[0.000000,6.000000]",
  "TacticName": "sm50_xmma_convolution_trt_depthwiseFP32NHWC4_fp32nhwcx4_fp32nhwcx4_fp32kcrs",
  "TacticValue": "0x2cac8ad6921b6398",
  "StreamId": 0,
  "Metadata": "[ONNX Layer: Conv_185]\u001e[ONNX Layer: Clip_191]"
},{
  "Name": "Conv_193 + Add_195",
  "LayerType": "CaskGemmConvolution",
  "Inputs": [
  {
    "Name": "input.400",
    "Location": "Device",
    "Dimensions": [1,384,16,32],
    "Format/Datatype": "Channel major FP32 format where channel % 4 == 0"
  },
  {
    "Name": "input.368",
    "Location": "Device",
    "Dimensions": [1,64,16,32],
    "Format/Datatype": "Channel major FP32 format where channel % 4 == 0"
  }],
  "Outputs": [
  {
    "Name": "input.408",
    "Location": "Device",
    "Dimensions": [1,64,16,32],
    "Format/Datatype": "Channel major FP32 format where channel % 4 == 0"
  }],
  "ParameterType": "Convolution",
  "Kernel": [1,1],
  "PaddingMode": "kEXPLICIT_ROUND_DOWN",
  "PrePadding": [0,0],
  "PostPadding": [0,0],
  "Stride": [1,1],
  "Dilation": [1,1],
  "OutMaps": 64,
  "Groups": 1,
  "Weights": {"Type": "Float", "Count": 24576},
  "Bias": {"Type": "Float", "Count": 64},
  "HasBias": 1,
  "HasReLU": 0,
  "HasSparseWeights": 0,
  "HasDynamicFilter": 0,
  "HasDynamicBias": 0,
  "HasResidual": 1,
  "ConvXAsActInputIdx": -1,
  "BiasAsActInputIdx": -1,
  "ResAsActInputIdx": -1,
  "Activation": "NONE",
  "TacticName": "sm80_xmma_gemm_f32f32_tf32f32_f32_tn_n_tilesize32x32x64_stage3_warpsize2x1x2_tensor16x8x8",
  "TacticValue": "0x00000000000206ea",
  "StreamId": 0,
  "Metadata": "[ONNX Layer: Conv_193]\u001e[ONNX Layer: Add_195]"
},{
  "Name": "Conv_197 + Clip_203",
  "LayerType": "CaskConvolution",
  "Inputs": [
  {
    "Name": "input.408",
    "Location": "Device",
    "Dimensions": [1,64,16,32],
    "Format/Datatype": "Channel major FP32 format where channel % 4 == 0"
  }],
  "Outputs": [
  {
    "Name": "input.424",
    "Location": "Device",
    "Dimensions": [1,384,16,32],
    "Format/Datatype": "Channel major FP32 format where channel % 4 == 0"
  }],
  "ParameterType": "Convolution",
  "Kernel": [1,1],
  "PaddingMode": "kEXPLICIT_ROUND_DOWN",
  "PrePadding": [0,0],
  "PostPadding": [0,0],
  "Stride": [1,1],
  "Dilation": [1,1],
  "OutMaps": 384,
  "Groups": 1,
  "Weights": {"Type": "Float", "Count": 24576},
  "Bias": {"Type": "Float", "Count": 384},
  "HasBias": 1,
  "HasReLU": 0,
  "HasSparseWeights": 0,
  "HasDynamicFilter": 0,
  "HasDynamicBias": 0,
  "HasResidual": 0,
  "ConvXAsActInputIdx": -1,
  "BiasAsActInputIdx": -1,
  "ResAsActInputIdx": -1,
  "Activation": "CLIPPED_RELU",
  "ParameterSubType": "[0.000000,6.000000]",
  "TacticName": "sm80_xmma_fprop_implicit_gemm_indexed_wo_smem_f32f32_tf32f32_f32_nhwckrsc_nhwc_tilesize128x16x64_stage1_warpsize4x1x1_g1_tensor16x8x8",
  "TacticValue": "0x10383a0781d24dde",
  "StreamId": 0,
  "Metadata": "[ONNX Layer: Conv_197]\u001e[ONNX Layer: Clip_203]"
},{
  "Name": "Conv_205 + Clip_211",
  "LayerType": "CaskConvolution",
  "Inputs": [
  {
    "Name": "input.424",
    "Location": "Device",
    "Dimensions": [1,384,16,32],
    "Format/Datatype": "Channel major FP32 format where channel % 4 == 0"
  }],
  "Outputs": [
  {
    "Name": "input.440",
    "Location": "Device",
    "Dimensions": [1,384,16,32],
    "Format/Datatype": "Channel major FP32 format where channel % 4 == 0"
  }],
  "ParameterType": "Convolution",
  "Kernel": [3,3],
  "PaddingMode": "kEXPLICIT_ROUND_DOWN",
  "PrePadding": [1,1],
  "PostPadding": [1,1],
  "Stride": [1,1],
  "Dilation": [1,1],
  "OutMaps": 384,
  "Groups": 384,
  "Weights": {"Type": "Float", "Count": 3456},
  "Bias": {"Type": "Float", "Count": 384},
  "HasBias": 1,
  "HasReLU": 0,
  "HasSparseWeights": 0,
  "HasDynamicFilter": 0,
  "HasDynamicBias": 0,
  "HasResidual": 0,
  "ConvXAsActInputIdx": -1,
  "BiasAsActInputIdx": -1,
  "ResAsActInputIdx": -1,
  "Activation": "CLIPPED_RELU",
  "ParameterSubType": "[0.000000,6.000000]",
  "TacticName": "sm50_xmma_convolution_trt_depthwiseFP32NHWC4_fp32nhwcx4_fp32nhwcx4_fp32kcrs",
  "TacticValue": "0x2cac8ad6921b6398",
  "StreamId": 0,
  "Metadata": "[ONNX Layer: Conv_205]\u001e[ONNX Layer: Clip_211]"
},{
  "Name": "Conv_213",
  "LayerType": "CaskGemmConvolution",
  "Inputs": [
  {
    "Name": "input.440",
    "Location": "Device",
    "Dimensions": [1,384,16,32],
    "Format/Datatype": "Channel major FP32 format where channel % 4 == 0"
  }],
  "Outputs": [
  {
    "Name": "input.448",
    "Location": "Device",
    "Dimensions": [1,96,16,32],
    "Format/Datatype": "Channel major FP32 format where channel % 4 == 0"
  }],
  "ParameterType": "Convolution",
  "Kernel": [1,1],
  "PaddingMode": "kEXPLICIT_ROUND_DOWN",
  "PrePadding": [0,0],
  "PostPadding": [0,0],
  "Stride": [1,1],
  "Dilation": [1,1],
  "OutMaps": 96,
  "Groups": 1,
  "Weights": {"Type": "Float", "Count": 36864},
  "Bias": {"Type": "Float", "Count": 96},
  "HasBias": 1,
  "HasReLU": 0,
  "HasSparseWeights": 0,
  "HasDynamicFilter": 0,
  "HasDynamicBias": 0,
  "HasResidual": 0,
  "ConvXAsActInputIdx": -1,
  "BiasAsActInputIdx": -1,
  "ResAsActInputIdx": -1,
  "Activation": "NONE",
  "TacticName": "sm80_xmma_gemm_f32f32_tf32f32_f32_tn_n_tilesize64x32x64_stage4_warpsize2x1x2_tensor16x8x8",
  "TacticValue": "0x0000000000020613",
  "StreamId": 0,
  "Metadata": "[ONNX Layer: Conv_213]"
},{
  "Name": "Conv_215 + Clip_221",
  "LayerType": "CaskGemmConvolution",
  "Inputs": [
  {
    "Name": "input.448",
    "Location": "Device",
    "Dimensions": [1,96,16,32],
    "Format/Datatype": "Channel major FP32 format where channel % 4 == 0"
  }],
  "Outputs": [
  {
    "Name": "input.464",
    "Location": "Device",
    "Dimensions": [1,576,16,32],
    "Format/Datatype": "Channel major FP32 format where channel % 4 == 0"
  }],
  "ParameterType": "Convolution",
  "Kernel": [1,1],
  "PaddingMode": "kEXPLICIT_ROUND_DOWN",
  "PrePadding": [0,0],
  "PostPadding": [0,0],
  "Stride": [1,1],
  "Dilation": [1,1],
  "OutMaps": 576,
  "Groups": 1,
  "Weights": {"Type": "Float", "Count": 55296},
  "Bias": {"Type": "Float", "Count": 576},
  "HasBias": 1,
  "HasReLU": 0,
  "HasSparseWeights": 0,
  "HasDynamicFilter": 0,
  "HasDynamicBias": 0,
  "HasResidual": 0,
  "ConvXAsActInputIdx": -1,
  "BiasAsActInputIdx": -1,
  "ResAsActInputIdx": -1,
  "Activation": "CLIPPED_RELU",
  "ParameterSubType": "[0.000000,6.000000]",
  "TacticName": "sm86_xmma_gemm_f32f32_tf32f32_f32_tn_n_tilesize128x64x32_stage4_warpsize2x2x1_tensor16x8x8",
  "TacticValue": "0x0000000000020095",
  "StreamId": 0,
  "Metadata": "[ONNX Layer: Conv_215]\u001e[ONNX Layer: Clip_221]"
},{
  "Name": "Conv_223 + Clip_229",
  "LayerType": "CaskConvolution",
  "Inputs": [
  {
    "Name": "input.464",
    "Location": "Device",
    "Dimensions": [1,576,16,32],
    "Format/Datatype": "Channel major FP32 format where channel % 4 == 0"
  }],
  "Outputs": [
  {
    "Name": "input.480",
    "Location": "Device",
    "Dimensions": [1,576,16,32],
    "Format/Datatype": "Channel major FP32 format where channel % 4 == 0"
  }],
  "ParameterType": "Convolution",
  "Kernel": [3,3],
  "PaddingMode": "kEXPLICIT_ROUND_DOWN",
  "PrePadding": [1,1],
  "PostPadding": [1,1],
  "Stride": [1,1],
  "Dilation": [1,1],
  "OutMaps": 576,
  "Groups": 576,
  "Weights": {"Type": "Float", "Count": 5184},
  "Bias": {"Type": "Float", "Count": 576},
  "HasBias": 1,
  "HasReLU": 0,
  "HasSparseWeights": 0,
  "HasDynamicFilter": 0,
  "HasDynamicBias": 0,
  "HasResidual": 0,
  "ConvXAsActInputIdx": -1,
  "BiasAsActInputIdx": -1,
  "ResAsActInputIdx": -1,
  "Activation": "CLIPPED_RELU",
  "ParameterSubType": "[0.000000,6.000000]",
  "TacticName": "sm50_xmma_convolution_trt_depthwiseFP32NHWC4_fp32nhwcx4_fp32nhwcx4_fp32kcrs",
  "TacticValue": "0x2cac8ad6921b6398",
  "StreamId": 0,
  "Metadata": "[ONNX Layer: Conv_223]\u001e[ONNX Layer: Clip_229]"
},{
  "Name": "Conv_231 + Add_233",
  "LayerType": "CaskGemmConvolution",
  "Inputs": [
  {
    "Name": "input.480",
    "Location": "Device",
    "Dimensions": [1,576,16,32],
    "Format/Datatype": "Channel major FP32 format where channel % 4 == 0"
  },
  {
    "Name": "input.448",
    "Location": "Device",
    "Dimensions": [1,96,16,32],
    "Format/Datatype": "Channel major FP32 format where channel % 4 == 0"
  }],
  "Outputs": [
  {
    "Name": "input.488",
    "Location": "Device",
    "Dimensions": [1,96,16,32],
    "Format/Datatype": "Channel major FP32 format where channel % 4 == 0"
  }],
  "ParameterType": "Convolution",
  "Kernel": [1,1],
  "PaddingMode": "kEXPLICIT_ROUND_DOWN",
  "PrePadding": [0,0],
  "PostPadding": [0,0],
  "Stride": [1,1],
  "Dilation": [1,1],
  "OutMaps": 96,
  "Groups": 1,
  "Weights": {"Type": "Float", "Count": 55296},
  "Bias": {"Type": "Float", "Count": 96},
  "HasBias": 1,
  "HasReLU": 0,
  "HasSparseWeights": 0,
  "HasDynamicFilter": 0,
  "HasDynamicBias": 0,
  "HasResidual": 1,
  "ConvXAsActInputIdx": -1,
  "BiasAsActInputIdx": -1,
  "ResAsActInputIdx": -1,
  "Activation": "NONE",
  "TacticName": "sm80_xmma_gemm_f32f32_tf32f32_f32_tn_n_tilesize64x32x64_stage4_warpsize2x1x2_tensor16x8x8",
  "TacticValue": "0x0000000000020613",
  "StreamId": 0,
  "Metadata": "[ONNX Layer: Conv_231]\u001e[ONNX Layer: Add_233]"
},{
  "Name": "Conv_235 + Clip_241",
  "LayerType": "CaskGemmConvolution",
  "Inputs": [
  {
    "Name": "input.488",
    "Location": "Device",
    "Dimensions": [1,96,16,32],
    "Format/Datatype": "Channel major FP32 format where channel % 4 == 0"
  }],
  "Outputs": [
  {
    "Name": "input.504",
    "Location": "Device",
    "Dimensions": [1,576,16,32],
    "Format/Datatype": "Channel major FP32 format where channel % 4 == 0"
  }],
  "ParameterType": "Convolution",
  "Kernel": [1,1],
  "PaddingMode": "kEXPLICIT_ROUND_DOWN",
  "PrePadding": [0,0],
  "PostPadding": [0,0],
  "Stride": [1,1],
  "Dilation": [1,1],
  "OutMaps": 576,
  "Groups": 1,
  "Weights": {"Type": "Float", "Count": 55296},
  "Bias": {"Type": "Float", "Count": 576},
  "HasBias": 1,
  "HasReLU": 0,
  "HasSparseWeights": 0,
  "HasDynamicFilter": 0,
  "HasDynamicBias": 0,
  "HasResidual": 0,
  "ConvXAsActInputIdx": -1,
  "BiasAsActInputIdx": -1,
  "ResAsActInputIdx": -1,
  "Activation": "CLIPPED_RELU",
  "ParameterSubType": "[0.000000,6.000000]",
  "TacticName": "sm86_xmma_gemm_f32f32_tf32f32_f32_tn_n_tilesize128x64x32_stage4_warpsize2x2x1_tensor16x8x8",
  "TacticValue": "0x0000000000020095",
  "StreamId": 0,
  "Metadata": "[ONNX Layer: Conv_235]\u001e[ONNX Layer: Clip_241]"
},{
  "Name": "Conv_243 + Clip_249",
  "LayerType": "CaskConvolution",
  "Inputs": [
  {
    "Name": "input.504",
    "Location": "Device",
    "Dimensions": [1,576,16,32],
    "Format/Datatype": "Channel major FP32 format where channel % 4 == 0"
  }],
  "Outputs": [
  {
    "Name": "input.520",
    "Location": "Device",
    "Dimensions": [1,576,16,32],
    "Format/Datatype": "Channel major FP32 format where channel % 4 == 0"
  }],
  "ParameterType": "Convolution",
  "Kernel": [3,3],
  "PaddingMode": "kEXPLICIT_ROUND_DOWN",
  "PrePadding": [1,1],
  "PostPadding": [1,1],
  "Stride": [1,1],
  "Dilation": [1,1],
  "OutMaps": 576,
  "Groups": 576,
  "Weights": {"Type": "Float", "Count": 5184},
  "Bias": {"Type": "Float", "Count": 576},
  "HasBias": 1,
  "HasReLU": 0,
  "HasSparseWeights": 0,
  "HasDynamicFilter": 0,
  "HasDynamicBias": 0,
  "HasResidual": 0,
  "ConvXAsActInputIdx": -1,
  "BiasAsActInputIdx": -1,
  "ResAsActInputIdx": -1,
  "Activation": "CLIPPED_RELU",
  "ParameterSubType": "[0.000000,6.000000]",
  "TacticName": "sm50_xmma_convolution_trt_depthwiseFP32NHWC4_fp32nhwcx4_fp32nhwcx4_fp32kcrs",
  "TacticValue": "0x2cac8ad6921b6398",
  "StreamId": 0,
  "Metadata": "[ONNX Layer: Conv_243]\u001e[ONNX Layer: Clip_249]"
},{
  "Name": "Conv_251 + Add_253",
  "LayerType": "CaskGemmConvolution",
  "Inputs": [
  {
    "Name": "input.520",
    "Location": "Device",
    "Dimensions": [1,576,16,32],
    "Format/Datatype": "Channel major FP32 format where channel % 4 == 0"
  },
  {
    "Name": "input.488",
    "Location": "Device",
    "Dimensions": [1,96,16,32],
    "Format/Datatype": "Channel major FP32 format where channel % 4 == 0"
  }],
  "Outputs": [
  {
    "Name": "Reformatted Output Tensor 0 to Conv_251 + Add_253",
    "Location": "Device",
    "Dimensions": [1,96,16,32],
    "Format/Datatype": "Channel major FP32 format where channel % 4 == 0"
  }],
  "ParameterType": "Convolution",
  "Kernel": [1,1],
  "PaddingMode": "kEXPLICIT_ROUND_DOWN",
  "PrePadding": [0,0],
  "PostPadding": [0,0],
  "Stride": [1,1],
  "Dilation": [1,1],
  "OutMaps": 96,
  "Groups": 1,
  "Weights": {"Type": "Float", "Count": 55296},
  "Bias": {"Type": "Float", "Count": 96},
  "HasBias": 1,
  "HasReLU": 0,
  "HasSparseWeights": 0,
  "HasDynamicFilter": 0,
  "HasDynamicBias": 0,
  "HasResidual": 1,
  "ConvXAsActInputIdx": -1,
  "BiasAsActInputIdx": -1,
  "ResAsActInputIdx": -1,
  "Activation": "NONE",
  "TacticName": "sm80_xmma_gemm_f32f32_tf32f32_f32_tn_n_tilesize64x32x64_stage4_warpsize2x1x2_tensor16x8x8",
  "TacticValue": "0x0000000000020613",
  "StreamId": 0,
  "Metadata": "[ONNX Layer: Conv_251]\u001e[ONNX Layer: Add_253]"
},{
  "Name": "Reformatting CopyNode for Output Tensor 0 to Conv_251 + Add_253",
  "LayerType": "NoOp",
  "Inputs": [
  {
    "Name": "Reformatted Output Tensor 0 to Conv_251 + Add_253",
    "Location": "Device",
    "Dimensions": [1,96,16,32],
    "Format/Datatype": "Channel major FP32 format where channel % 4 == 0"
  }],
  "Outputs": [
  {
    "Name": "input.528",
    "Location": "Device",
    "Dimensions": [1,96,16,32],
    "Format/Datatype": "Channel major FP32 format"
  }],
  "TacticValue": "0x0000000000000000",
  "StreamId": 0,
  "Metadata": ""
},{
  "Name": "Reformatting CopyNode for Input Tensor 0 to Conv_255 + Clip_261",
  "LayerType": "NoOp",
  "Inputs": [
  {
    "Name": "input.528",
    "Location": "Device",
    "Dimensions": [1,96,16,32],
    "Format/Datatype": "Channel major FP32 format"
  }],
  "Outputs": [
  {
    "Name": "Reformatted Input Tensor 0 to Conv_255 + Clip_261",
    "Location": "Device",
    "Dimensions": [1,96,16,32],
    "Format/Datatype": "Channel major FP32 format where channel % 4 == 0"
  }],
  "TacticValue": "0x0000000000000000",
  "StreamId": 0,
  "Metadata": ""
},{
  "Name": "Conv_255 + Clip_261",
  "LayerType": "CaskGemmConvolution",
  "Inputs": [
  {
    "Name": "Reformatted Input Tensor 0 to Conv_255 + Clip_261",
    "Location": "Device",
    "Dimensions": [1,96,16,32],
    "Format/Datatype": "Channel major FP32 format where channel % 4 == 0"
  }],
  "Outputs": [
  {
    "Name": "input.544",
    "Location": "Device",
    "Dimensions": [1,576,16,32],
    "Format/Datatype": "Channel major FP32 format where channel % 4 == 0"
  }],
  "ParameterType": "Convolution",
  "Kernel": [1,1],
  "PaddingMode": "kEXPLICIT_ROUND_DOWN",
  "PrePadding": [0,0],
  "PostPadding": [0,0],
  "Stride": [1,1],
  "Dilation": [1,1],
  "OutMaps": 576,
  "Groups": 1,
  "Weights": {"Type": "Float", "Count": 55296},
  "Bias": {"Type": "Float", "Count": 576},
  "HasBias": 1,
  "HasReLU": 0,
  "HasSparseWeights": 0,
  "HasDynamicFilter": 0,
  "HasDynamicBias": 0,
  "HasResidual": 0,
  "ConvXAsActInputIdx": -1,
  "BiasAsActInputIdx": -1,
  "ResAsActInputIdx": -1,
  "Activation": "CLIPPED_RELU",
  "ParameterSubType": "[0.000000,6.000000]",
  "TacticName": "sm86_xmma_gemm_f32f32_tf32f32_f32_tn_n_tilesize128x64x32_stage4_warpsize2x2x1_tensor16x8x8",
  "TacticValue": "0x0000000000020095",
  "StreamId": 0,
  "Metadata": "[ONNX Layer: Conv_255]\u001e[ONNX Layer: Clip_261]"
},{
  "Name": "Conv_263 + Clip_269",
  "LayerType": "CaskConvolution",
  "Inputs": [
  {
    "Name": "input.544",
    "Location": "Device",
    "Dimensions": [1,576,16,32],
    "Format/Datatype": "Channel major FP32 format where channel % 4 == 0"
  }],
  "Outputs": [
  {
    "Name": "input.560",
    "Location": "Device",
    "Dimensions": [1,576,8,16],
    "Format/Datatype": "Channel major FP32 format where channel % 4 == 0"
  }],
  "ParameterType": "Convolution",
  "Kernel": [3,3],
  "PaddingMode": "kEXPLICIT_ROUND_DOWN",
  "PrePadding": [1,1],
  "PostPadding": [1,1],
  "Stride": [2,2],
  "Dilation": [1,1],
  "OutMaps": 576,
  "Groups": 576,
  "Weights": {"Type": "Float", "Count": 5184},
  "Bias": {"Type": "Float", "Count": 576},
  "HasBias": 1,
  "HasReLU": 0,
  "HasSparseWeights": 0,
  "HasDynamicFilter": 0,
  "HasDynamicBias": 0,
  "HasResidual": 0,
  "ConvXAsActInputIdx": -1,
  "BiasAsActInputIdx": -1,
  "ResAsActInputIdx": -1,
  "Activation": "CLIPPED_RELU",
  "ParameterSubType": "[0.000000,6.000000]",
  "TacticName": "sm50_xmma_convolution_trt_depthwiseFP32NHWC4_fp32nhwcx4_fp32nhwcx4_fp32kcrs",
  "TacticValue": "0x2cac8ad6921b6398",
  "StreamId": 0,
  "Metadata": "[ONNX Layer: Conv_263]\u001e[ONNX Layer: Clip_269]"
},{
  "Name": "Conv_271",
  "LayerType": "CaskGemmConvolution",
  "Inputs": [
  {
    "Name": "input.560",
    "Location": "Device",
    "Dimensions": [1,576,8,16],
    "Format/Datatype": "Channel major FP32 format where channel % 4 == 0"
  }],
  "Outputs": [
  {
    "Name": "input.568",
    "Location": "Device",
    "Dimensions": [1,160,8,16],
    "Format/Datatype": "Channel major FP32 format where channel % 4 == 0"
  }],
  "ParameterType": "Convolution",
  "Kernel": [1,1],
  "PaddingMode": "kEXPLICIT_ROUND_DOWN",
  "PrePadding": [0,0],
  "PostPadding": [0,0],
  "Stride": [1,1],
  "Dilation": [1,1],
  "OutMaps": 160,
  "Groups": 1,
  "Weights": {"Type": "Float", "Count": 92160},
  "Bias": {"Type": "Float", "Count": 160},
  "HasBias": 1,
  "HasReLU": 0,
  "HasSparseWeights": 0,
  "HasDynamicFilter": 0,
  "HasDynamicBias": 0,
  "HasResidual": 0,
  "ConvXAsActInputIdx": -1,
  "BiasAsActInputIdx": -1,
  "ResAsActInputIdx": -1,
  "Activation": "NONE",
  "TacticName": "sm80_xmma_gemm_f32f32_tf32f32_f32_tn_n_tilesize32x32x64_stage3_warpsize2x1x2_tensor16x8x8",
  "TacticValue": "0x00000000000206ea",
  "StreamId": 0,
  "Metadata": "[ONNX Layer: Conv_271]"
},{
  "Name": "Conv_273 + Clip_279",
  "LayerType": "CaskGemmConvolution",
  "Inputs": [
  {
    "Name": "input.568",
    "Location": "Device",
    "Dimensions": [1,160,8,16],
    "Format/Datatype": "Channel major FP32 format where channel % 4 == 0"
  }],
  "Outputs": [
  {
    "Name": "input.584",
    "Location": "Device",
    "Dimensions": [1,960,8,16],
    "Format/Datatype": "Channel major FP32 format where channel % 4 == 0"
  }],
  "ParameterType": "Convolution",
  "Kernel": [1,1],
  "PaddingMode": "kEXPLICIT_ROUND_DOWN",
  "PrePadding": [0,0],
  "PostPadding": [0,0],
  "Stride": [1,1],
  "Dilation": [1,1],
  "OutMaps": 960,
  "Groups": 1,
  "Weights": {"Type": "Float", "Count": 153600},
  "Bias": {"Type": "Float", "Count": 960},
  "HasBias": 1,
  "HasReLU": 0,
  "HasSparseWeights": 0,
  "HasDynamicFilter": 0,
  "HasDynamicBias": 0,
  "HasResidual": 0,
  "ConvXAsActInputIdx": -1,
  "BiasAsActInputIdx": -1,
  "ResAsActInputIdx": -1,
  "Activation": "CLIPPED_RELU",
  "ParameterSubType": "[0.000000,6.000000]",
  "TacticName": "sm86_xmma_gemm_f32f32_tf32f32_f32_tn_n_tilesize64x64x64_stage3_warpsize2x2x1_tensor16x8x8",
  "TacticValue": "0x00000000000202f5",
  "StreamId": 0,
  "Metadata": "[ONNX Layer: Conv_273]\u001e[ONNX Layer: Clip_279]"
},{
  "Name": "Conv_281 + Clip_287",
  "LayerType": "CaskConvolution",
  "Inputs": [
  {
    "Name": "input.584",
    "Location": "Device",
    "Dimensions": [1,960,8,16],
    "Format/Datatype": "Channel major FP32 format where channel % 4 == 0"
  }],
  "Outputs": [
  {
    "Name": "input.600",
    "Location": "Device",
    "Dimensions": [1,960,8,16],
    "Format/Datatype": "Channel major FP32 format where channel % 4 == 0"
  }],
  "ParameterType": "Convolution",
  "Kernel": [3,3],
  "PaddingMode": "kEXPLICIT_ROUND_DOWN",
  "PrePadding": [1,1],
  "PostPadding": [1,1],
  "Stride": [1,1],
  "Dilation": [1,1],
  "OutMaps": 960,
  "Groups": 960,
  "Weights": {"Type": "Float", "Count": 8640},
  "Bias": {"Type": "Float", "Count": 960},
  "HasBias": 1,
  "HasReLU": 0,
  "HasSparseWeights": 0,
  "HasDynamicFilter": 0,
  "HasDynamicBias": 0,
  "HasResidual": 0,
  "ConvXAsActInputIdx": -1,
  "BiasAsActInputIdx": -1,
  "ResAsActInputIdx": -1,
  "Activation": "CLIPPED_RELU",
  "ParameterSubType": "[0.000000,6.000000]",
  "TacticName": "sm50_xmma_convolution_trt_depthwiseFP32NHWC4_fp32nhwcx4_fp32nhwcx4_fp32kcrs",
  "TacticValue": "0x2cac8ad6921b6398",
  "StreamId": 0,
  "Metadata": "[ONNX Layer: Conv_281]\u001e[ONNX Layer: Clip_287]"
},{
  "Name": "Conv_289 + Add_291",
  "LayerType": "CaskGemmConvolution",
  "Inputs": [
  {
    "Name": "input.600",
    "Location": "Device",
    "Dimensions": [1,960,8,16],
    "Format/Datatype": "Channel major FP32 format where channel % 4 == 0"
  },
  {
    "Name": "input.568",
    "Location": "Device",
    "Dimensions": [1,160,8,16],
    "Format/Datatype": "Channel major FP32 format where channel % 4 == 0"
  }],
  "Outputs": [
  {
    "Name": "input.608",
    "Location": "Device",
    "Dimensions": [1,160,8,16],
    "Format/Datatype": "Channel major FP32 format where channel % 4 == 0"
  }],
  "ParameterType": "Convolution",
  "Kernel": [1,1],
  "PaddingMode": "kEXPLICIT_ROUND_DOWN",
  "PrePadding": [0,0],
  "PostPadding": [0,0],
  "Stride": [1,1],
  "Dilation": [1,1],
  "OutMaps": 160,
  "Groups": 1,
  "Weights": {"Type": "Float", "Count": 153600},
  "Bias": {"Type": "Float", "Count": 160},
  "HasBias": 1,
  "HasReLU": 0,
  "HasSparseWeights": 0,
  "HasDynamicFilter": 0,
  "HasDynamicBias": 0,
  "HasResidual": 1,
  "ConvXAsActInputIdx": -1,
  "BiasAsActInputIdx": -1,
  "ResAsActInputIdx": -1,
  "Activation": "NONE",
  "TacticName": "sm80_xmma_gemm_f32f32_tf32f32_f32_tn_n_tilesize32x32x64_stage3_warpsize2x1x2_tensor16x8x8",
  "TacticValue": "0x00000000000206ea",
  "StreamId": 0,
  "Metadata": "[ONNX Layer: Conv_289]\u001e[ONNX Layer: Add_291]"
},{
  "Name": "Conv_293 + Clip_299",
  "LayerType": "CaskGemmConvolution",
  "Inputs": [
  {
    "Name": "input.608",
    "Location": "Device",
    "Dimensions": [1,160,8,16],
    "Format/Datatype": "Channel major FP32 format where channel % 4 == 0"
  }],
  "Outputs": [
  {
    "Name": "input.624",
    "Location": "Device",
    "Dimensions": [1,960,8,16],
    "Format/Datatype": "Channel major FP32 format where channel % 4 == 0"
  }],
  "ParameterType": "Convolution",
  "Kernel": [1,1],
  "PaddingMode": "kEXPLICIT_ROUND_DOWN",
  "PrePadding": [0,0],
  "PostPadding": [0,0],
  "Stride": [1,1],
  "Dilation": [1,1],
  "OutMaps": 960,
  "Groups": 1,
  "Weights": {"Type": "Float", "Count": 153600},
  "Bias": {"Type": "Float", "Count": 960},
  "HasBias": 1,
  "HasReLU": 0,
  "HasSparseWeights": 0,
  "HasDynamicFilter": 0,
  "HasDynamicBias": 0,
  "HasResidual": 0,
  "ConvXAsActInputIdx": -1,
  "BiasAsActInputIdx": -1,
  "ResAsActInputIdx": -1,
  "Activation": "CLIPPED_RELU",
  "ParameterSubType": "[0.000000,6.000000]",
  "TacticName": "sm86_xmma_gemm_f32f32_tf32f32_f32_tn_n_tilesize64x64x64_stage3_warpsize2x2x1_tensor16x8x8",
  "TacticValue": "0x00000000000202f5",
  "StreamId": 0,
  "Metadata": "[ONNX Layer: Conv_293]\u001e[ONNX Layer: Clip_299]"
},{
  "Name": "Conv_301 + Clip_307",
  "LayerType": "CaskConvolution",
  "Inputs": [
  {
    "Name": "input.624",
    "Location": "Device",
    "Dimensions": [1,960,8,16],
    "Format/Datatype": "Channel major FP32 format where channel % 4 == 0"
  }],
  "Outputs": [
  {
    "Name": "input.640",
    "Location": "Device",
    "Dimensions": [1,960,8,16],
    "Format/Datatype": "Channel major FP32 format where channel % 4 == 0"
  }],
  "ParameterType": "Convolution",
  "Kernel": [3,3],
  "PaddingMode": "kEXPLICIT_ROUND_DOWN",
  "PrePadding": [1,1],
  "PostPadding": [1,1],
  "Stride": [1,1],
  "Dilation": [1,1],
  "OutMaps": 960,
  "Groups": 960,
  "Weights": {"Type": "Float", "Count": 8640},
  "Bias": {"Type": "Float", "Count": 960},
  "HasBias": 1,
  "HasReLU": 0,
  "HasSparseWeights": 0,
  "HasDynamicFilter": 0,
  "HasDynamicBias": 0,
  "HasResidual": 0,
  "ConvXAsActInputIdx": -1,
  "BiasAsActInputIdx": -1,
  "ResAsActInputIdx": -1,
  "Activation": "CLIPPED_RELU",
  "ParameterSubType": "[0.000000,6.000000]",
  "TacticName": "sm50_xmma_convolution_trt_depthwiseFP32NHWC4_fp32nhwcx4_fp32nhwcx4_fp32kcrs",
  "TacticValue": "0x2cac8ad6921b6398",
  "StreamId": 0,
  "Metadata": "[ONNX Layer: Conv_301]\u001e[ONNX Layer: Clip_307]"
},{
  "Name": "Conv_309 + Add_311",
  "LayerType": "CaskGemmConvolution",
  "Inputs": [
  {
    "Name": "input.640",
    "Location": "Device",
    "Dimensions": [1,960,8,16],
    "Format/Datatype": "Channel major FP32 format where channel % 4 == 0"
  },
  {
    "Name": "input.608",
    "Location": "Device",
    "Dimensions": [1,160,8,16],
    "Format/Datatype": "Channel major FP32 format where channel % 4 == 0"
  }],
  "Outputs": [
  {
    "Name": "input.648",
    "Location": "Device",
    "Dimensions": [1,160,8,16],
    "Format/Datatype": "Channel major FP32 format where channel % 4 == 0"
  }],
  "ParameterType": "Convolution",
  "Kernel": [1,1],
  "PaddingMode": "kEXPLICIT_ROUND_DOWN",
  "PrePadding": [0,0],
  "PostPadding": [0,0],
  "Stride": [1,1],
  "Dilation": [1,1],
  "OutMaps": 160,
  "Groups": 1,
  "Weights": {"Type": "Float", "Count": 153600},
  "Bias": {"Type": "Float", "Count": 160},
  "HasBias": 1,
  "HasReLU": 0,
  "HasSparseWeights": 0,
  "HasDynamicFilter": 0,
  "HasDynamicBias": 0,
  "HasResidual": 1,
  "ConvXAsActInputIdx": -1,
  "BiasAsActInputIdx": -1,
  "ResAsActInputIdx": -1,
  "Activation": "NONE",
  "TacticName": "sm80_xmma_gemm_f32f32_tf32f32_f32_tn_n_tilesize32x32x64_stage3_warpsize2x1x2_tensor16x8x8",
  "TacticValue": "0x00000000000206ea",
  "StreamId": 0,
  "Metadata": "[ONNX Layer: Conv_309]\u001e[ONNX Layer: Add_311]"
},{
  "Name": "Reformatting CopyNode for Input Tensor 0 to ConvTranspose_313",
  "LayerType": "Reformat",
  "Inputs": [
  {
    "Name": "input.648",
    "Location": "Device",
    "Dimensions": [1,160,8,16],
    "Format/Datatype": "Channel major FP32 format where channel % 4 == 0"
  }],
  "Outputs": [
  {
    "Name": "Reformatted Input Tensor 0 to ConvTranspose_313",
    "Location": "Device",
    "Dimensions": [1,160,8,16],
    "Format/Datatype": "Row major linear FP32"
  }],
  "ParameterType": "Reformat",
  "Origin": "REFORMAT",
  "TacticValue": "0x0000000000000000",
  "StreamId": 0,
  "Metadata": ""
},{
  "Name": "ConvTranspose_313",
  "LayerType": "CaskGemmDeconvolution",
  "Inputs": [
  {
    "Name": "Reformatted Input Tensor 0 to ConvTranspose_313",
    "Location": "Device",
    "Dimensions": [1,160,8,16],
    "Format/Datatype": "Row major linear FP32"
  }],
  "Outputs": [
  {
    "Name": "input.656",
    "Location": "Device",
    "Dimensions": [1,96,16,32],
    "Format/Datatype": "Row major linear FP32"
  }],
  "ParameterType": "Convolution",
  "Kernel": [4,4],
  "PaddingMode": "kEXPLICIT_ROUND_DOWN",
  "PrePadding": [1,1],
  "PostPadding": [1,1],
  "Stride": [2,2],
  "Dilation": [1,1],
  "OutMaps": 96,
  "Groups": 1,
  "Weights": {"Type": "Float", "Count": 245760},
  "Bias": {"Type": "Float", "Count": 96},
  "HasBias": 1,
  "HasReLU": 0,
  "HasSparseWeights": 0,
  "HasDynamicFilter": 0,
  "HasDynamicBias": 0,
  "HasResidual": 0,
  "ConvXAsActInputIdx": -1,
  "BiasAsActInputIdx": -1,
  "ResAsActInputIdx": -1,
  "Activation": "NONE",
  "TacticValue": "0x00000000000200ad",
  "StreamId": 0,
  "Metadata": "[ONNX Layer: ConvTranspose_313]"
},{
  "Name": "__myl_MoveMulLtSele_myl137_0",
  "LayerType": "kgen",
  "Inputs": [
  {
    "Name": "input.656",
    "Dimensions": [1,96,16,32],
    "Format/Datatype": "Float"
  }],
  "Outputs": [
  {
    "Name": "input.664",
    "Dimensions": [1,96,16,32],
    "Format/Datatype": "Float"
  }],
  "TacticName": "__myl_MoveMulLtSele_0x3be8c460a535d8c983b3547b16bd0509",
  "StreamId": 0,
  "Metadata": "[ONNX Layer: LeakyRelu_315]"
},{
…
  "HasDynamicBias": 0,
  "HasResidual": 0,
  "ConvXAsActInputIdx": -1,
  "BiasAsActInputIdx": -1,
  "ResAsActInputIdx": -1,
  "Activation": "CLIPPED_RELU",
  "ParameterSubType": "[0.000000,6.000000]",
  "TacticName": "sm80_xmma_gemm_f32f32_tf32f32_f32_tn_n_tilesize64x128x16_stage4_warpsize2x2x1_tensor16x8x8",
  "TacticValue": "0x0000000000020400",
  "StreamId": 0,
  "Metadata": "[ONNX Layer: Conv_1050]\u001e[ONNX Layer: Clip_1053]"
},{
  "Name": "Conv_1054 + Clip_1057",
  "LayerType": "CaskConvolution",
  "Inputs": [
  {
    "Name": "input.1864",
    "Location": "Device",
    "Dimensions": [1,1536,16,32],
    "Format/Datatype": "Channel major FP32 format where channel % 4 == 0"
  }],
  "Outputs": [
  {
    "Name": "input.1872",
    "Location": "Device",
    "Dimensions": [1,1536,16,32],
    "Format/Datatype": "Channel major FP32 format where channel % 4 == 0"
  }],
  "ParameterType": "Convolution",
  "Kernel": [3,3],
  "PaddingMode": "kEXPLICIT_ROUND_DOWN",
  "PrePadding": [1,1],
  "PostPadding": [1,1],
  "Stride": [1,1],
  "Dilation": [1,1],
  "OutMaps": 1536,
  "Groups": 1536,
  "Weights": {"Type": "Float", "Count": 13824},
  "Bias": {"Type": "Float", "Count": 1536},
  "HasBias": 1,
  "HasReLU": 0,
  "HasSparseWeights": 0,
  "HasDynamicFilter": 0,
  "HasDynamicBias": 0,
  "HasResidual": 0,
  "ConvXAsActInputIdx": -1,
  "BiasAsActInputIdx": -1,
  "ResAsActInputIdx": -1,
  "Activation": "CLIPPED_RELU",
  "ParameterSubType": "[0.000000,6.000000]",
  "TacticName": "sm50_xmma_convolution_trt_depthwiseFP32NHWC4_fp32nhwcx4_fp32nhwcx4_fp32kcrs",
  "TacticValue": "0x2cac8ad6921b6398",
  "StreamId": 0,
  "Metadata": "[ONNX Layer: Conv_1054]\u001e[ONNX Layer: Clip_1057]"
},{
  "Name": "Conv_1058 + Add_1059",
  "LayerType": "CaskGemmConvolution",
  "Inputs": [
  {
    "Name": "input.1872",
    "Location": "Device",
    "Dimensions": [1,1536,16,32],
    "Format/Datatype": "Channel major FP32 format where channel % 4 == 0"
  },
  {
    "Name": "input.1856",
    "Location": "Device",
    "Dimensions": [1,192,16,32],
    "Format/Datatype": "Channel major FP32 format where channel % 4 == 0"
  }],
  "Outputs": [
  {
    "Name": "input.1876",
    "Location": "Device",
    "Dimensions": [1,192,16,32],
    "Format/Datatype": "Channel major FP32 format where channel % 4 == 0"
  }],
  "ParameterType": "Convolution",
  "Kernel": [1,1],
  "PaddingMode": "kEXPLICIT_ROUND_DOWN",
  "PrePadding": [0,0],
  "PostPadding": [0,0],
  "Stride": [1,1],
  "Dilation": [1,1],
  "OutMaps": 192,
  "Groups": 1,
  "Weights": {"Type": "Float", "Count": 294912},
  "Bias": {"Type": "Float", "Count": 192},
  "HasBias": 1,
  "HasReLU": 0,
  "HasSparseWeights": 0,
  "HasDynamicFilter": 0,
  "HasDynamicBias": 0,
  "HasResidual": 1,
  "ConvXAsActInputIdx": -1,
  "BiasAsActInputIdx": -1,
  "ResAsActInputIdx": -1,
  "Activation": "NONE",
  "TacticName": "sm86_xmma_gemm_f32f32_tf32f32_f32_tn_n_tilesize128x64x32_stage4_warpsize2x2x1_tensor16x8x8",
  "TacticValue": "0x0000000206060095",
  "StreamId": 0,
  "Metadata": "[ONNX Layer: Conv_1058]\u001e[ONNX Layer: Add_1059]"
},{
  "Name": "Conv_1060 + Clip_1063",
  "LayerType": "CaskGemmConvolution",
  "Inputs": [
  {
    "Name": "input.1876",
    "Location": "Device",
    "Dimensions": [1,192,16,32],
    "Format/Datatype": "Channel major FP32 format where channel % 4 == 0"
  }],
  "Outputs": [
  {
    "Name": "input.1884",
    "Location": "Device",
    "Dimensions": [1,1536,16,32],
    "Format/Datatype": "Channel major FP32 format where channel % 4 == 0"
  }],
  "ParameterType": "Convolution",
  "Kernel": [1,1],
  "PaddingMode": "kEXPLICIT_ROUND_DOWN",
  "PrePadding": [0,0],
  "PostPadding": [0,0],
  "Stride": [1,1],
  "Dilation": [1,1],
  "OutMaps": 1536,
  "Groups": 1,
  "Weights": {"Type": "Float", "Count": 294912},
  "Bias": {"Type": "Float", "Count": 1536},
  "HasBias": 1,
  "HasReLU": 0,
  "HasSparseWeights": 0,
  "HasDynamicFilter": 0,
  "HasDynamicBias": 0,
  "HasResidual": 0,
  "ConvXAsActInputIdx": -1,
  "BiasAsActInputIdx": -1,
  "ResAsActInputIdx": -1,
  "Activation": "CLIPPED_RELU",
  "ParameterSubType": "[0.000000,6.000000]",
  "TacticName": "sm80_xmma_gemm_f32f32_tf32f32_f32_tn_n_tilesize64x128x16_stage4_warpsize2x2x1_tensor16x8x8",
  "TacticValue": "0x0000000000020400",
  "StreamId": 0,
  "Metadata": "[ONNX Layer: Conv_1060]\u001e[ONNX Layer: Clip_1063]"
},{
  "Name": "Conv_1064 + Clip_1067",
  "LayerType": "CaskConvolution",
  "Inputs": [
  {
    "Name": "input.1884",
    "Location": "Device",
    "Dimensions": [1,1536,16,32],
    "Format/Datatype": "Channel major FP32 format where channel % 4 == 0"
  }],
  "Outputs": [
  {
    "Name": "input.1892",
    "Location": "Device",
    "Dimensions": [1,1536,16,32],
    "Format/Datatype": "Channel major FP32 format where channel % 4 == 0"
  }],
  "ParameterType": "Convolution",
  "Kernel": [3,3],
  "PaddingMode": "kEXPLICIT_ROUND_DOWN",
  "PrePadding": [1,1],
  "PostPadding": [1,1],
  "Stride": [1,1],
  "Dilation": [1,1],
  "OutMaps": 1536,
  "Groups": 1536,
  "Weights": {"Type": "Float", "Count": 13824},
  "Bias": {"Type": "Float", "Count": 1536},
  "HasBias": 1,
  "HasReLU": 0,
  "HasSparseWeights": 0,
  "HasDynamicFilter": 0,
  "HasDynamicBias": 0,
  "HasResidual": 0,
  "ConvXAsActInputIdx": -1,
  "BiasAsActInputIdx": -1,
  "ResAsActInputIdx": -1,
  "Activation": "CLIPPED_RELU",
  "ParameterSubType": "[0.000000,6.000000]",
  "TacticName": "sm50_xmma_convolution_trt_depthwiseFP32NHWC4_fp32nhwcx4_fp32nhwcx4_fp32kcrs",
  "TacticValue": "0x2cac8ad6921b6398",
  "StreamId": 0,
  "Metadata": "[ONNX Layer: Conv_1064]\u001e[ONNX Layer: Clip_1067]"
},{
  "Name": "Conv_1068 + Add_1069",
  "LayerType": "CaskGemmConvolution",
  "Inputs": [
  {
    "Name": "input.1892",
    "Location": "Device",
    "Dimensions": [1,1536,16,32],
    "Format/Datatype": "Channel major FP32 format where channel % 4 == 0"
  },
  {
    "Name": "input.1876",
    "Location": "Device",
    "Dimensions": [1,192,16,32],
    "Format/Datatype": "Channel major FP32 format where channel % 4 == 0"
  }],
  "Outputs": [
  {
    "Name": "input.1896",
    "Location": "Device",
    "Dimensions": [1,192,16,32],
    "Format/Datatype": "Channel major FP32 format where channel % 4 == 0"
  }],
  "ParameterType": "Convolution",
  "Kernel": [1,1],
  "PaddingMode": "kEXPLICIT_ROUND_DOWN",
  "PrePadding": [0,0],
  "PostPadding": [0,0],
  "Stride": [1,1],
  "Dilation": [1,1],
  "OutMaps": 192,
  "Groups": 1,
  "Weights": {"Type": "Float", "Count": 294912},
  "Bias": {"Type": "Float", "Count": 192},
  "HasBias": 1,
  "HasReLU": 0,
  "HasSparseWeights": 0,
  "HasDynamicFilter": 0,
  "HasDynamicBias": 0,
  "HasResidual": 1,
  "ConvXAsActInputIdx": -1,
  "BiasAsActInputIdx": -1,
  "ResAsActInputIdx": -1,
  "Activation": "NONE",
  "TacticName": "sm86_xmma_gemm_f32f32_tf32f32_f32_tn_n_tilesize128x64x32_stage4_warpsize2x2x1_tensor16x8x8",
  "TacticValue": "0x0000000206060095",
  "StreamId": 0,
  "Metadata": "[ONNX Layer: Conv_1068]\u001e[ONNX Layer: Add_1069]"
},{
  "Name": "Conv_1070 + Clip_1073",
  "LayerType": "CaskGemmConvolution",
  "Inputs": [
  {
    "Name": "input.1896",
    "Location": "Device",
    "Dimensions": [1,192,16,32],
    "Format/Datatype": "Channel major FP32 format where channel % 4 == 0"
  }],
  "Outputs": [
  {
    "Name": "input.1904",
    "Location": "Device",
    "Dimensions": [1,1536,16,32],
    "Format/Datatype": "Channel major FP32 format where channel % 4 == 0"
  }],
  "ParameterType": "Convolution",
  "Kernel": [1,1],
  "PaddingMode": "kEXPLICIT_ROUND_DOWN",
  "PrePadding": [0,0],
  "PostPadding": [0,0],
  "Stride": [1,1],
  "Dilation": [1,1],
  "OutMaps": 1536,
  "Groups": 1,
  "Weights": {"Type": "Float", "Count": 294912},
  "Bias": {"Type": "Float", "Count": 1536},
  "HasBias": 1,
  "HasReLU": 0,
  "HasSparseWeights": 0,
  "HasDynamicFilter": 0,
  "HasDynamicBias": 0,
  "HasResidual": 0,
  "ConvXAsActInputIdx": -1,
  "BiasAsActInputIdx": -1,
  "ResAsActInputIdx": -1,
  "Activation": "CLIPPED_RELU",
  "ParameterSubType": "[0.000000,6.000000]",
  "TacticName": "sm80_xmma_gemm_f32f32_tf32f32_f32_tn_n_tilesize64x128x16_stage4_warpsize2x2x1_tensor16x8x8",
  "TacticValue": "0x0000000000020400",
  "StreamId": 0,
  "Metadata": "[ONNX Layer: Conv_1070]\u001e[ONNX Layer: Clip_1073]"
},{
  "Name": "Conv_1074 + Clip_1077",
  "LayerType": "CaskConvolution",
  "Inputs": [
  {
    "Name": "input.1904",
    "Location": "Device",
    "Dimensions": [1,1536,16,32],
    "Format/Datatype": "Channel major FP32 format where channel % 4 == 0"
  }],
  "Outputs": [
  {
    "Name": "input.1912",
    "Location": "Device",
    "Dimensions": [1,1536,16,32],
    "Format/Datatype": "Channel major FP32 format where channel % 4 == 0"
  }],
  "ParameterType": "Convolution",
  "Kernel": [3,3],
  "PaddingMode": "kEXPLICIT_ROUND_DOWN",
  "PrePadding": [1,1],
  "PostPadding": [1,1],
  "Stride": [1,1],
  "Dilation": [1,1],
  "OutMaps": 1536,
  "Groups": 1536,
  "Weights": {"Type": "Float", "Count": 13824},
  "Bias": {"Type": "Float", "Count": 1536},
  "HasBias": 1,
  "HasReLU": 0,
  "HasSparseWeights": 0,
  "HasDynamicFilter": 0,
  "HasDynamicBias": 0,
  "HasResidual": 0,
  "ConvXAsActInputIdx": -1,
  "BiasAsActInputIdx": -1,
  "ResAsActInputIdx": -1,
  "Activation": "CLIPPED_RELU",
  "ParameterSubType": "[0.000000,6.000000]",
  "TacticName": "sm50_xmma_convolution_trt_depthwiseFP32NHWC4_fp32nhwcx4_fp32nhwcx4_fp32kcrs",
  "TacticValue": "0x2cac8ad6921b6398",
  "StreamId": 0,
  "Metadata": "[ONNX Layer: Conv_1074]\u001e[ONNX Layer: Clip_1077]"
},{
  "Name": "Conv_1078 + Add_1079",
  "LayerType": "CaskGemmConvolution",
  "Inputs": [
  {
    "Name": "input.1912",
    "Location": "Device",
    "Dimensions": [1,1536,16,32],
    "Format/Datatype": "Channel major FP32 format where channel % 4 == 0"
  },
  {
    "Name": "input.1896",
    "Location": "Device",
    "Dimensions": [1,192,16,32],
    "Format/Datatype": "Channel major FP32 format where channel % 4 == 0"
  }],
  "Outputs": [
  {
    "Name": "input.1916",
    "Location": "Device",
    "Dimensions": [1,192,16,32],
    "Format/Datatype": "Channel major FP32 format where channel % 4 == 0"
  }],
  "ParameterType": "Convolution",
  "Kernel": [1,1],
  "PaddingMode": "kEXPLICIT_ROUND_DOWN",
  "PrePadding": [0,0],
  "PostPadding": [0,0],
  "Stride": [1,1],
  "Dilation": [1,1],
  "OutMaps": 192,
  "Groups": 1,
  "Weights": {"Type": "Float", "Count": 294912},
  "Bias": {"Type": "Float", "Count": 192},
  "HasBias": 1,
  "HasReLU": 0,
  "HasSparseWeights": 0,
  "HasDynamicFilter": 0,
  "HasDynamicBias": 0,
  "HasResidual": 1,
  "ConvXAsActInputIdx": -1,
  "BiasAsActInputIdx": -1,
  "ResAsActInputIdx": -1,
  "Activation": "NONE",
  "TacticName": "sm86_xmma_gemm_f32f32_tf32f32_f32_tn_n_tilesize128x64x32_stage4_warpsize2x2x1_tensor16x8x8",
  "TacticValue": "0x0000000206060095",
  "StreamId": 0,
  "Metadata": "[ONNX Layer: Conv_1078]\u001e[ONNX Layer: Add_1079]"
},{
  "Name": "Conv_1080 + Clip_1083",
  "LayerType": "CaskGemmConvolution",
  "Inputs": [
  {
    "Name": "input.1916",
    "Location": "Device",
    "Dimensions": [1,192,16,32],
    "Format/Datatype": "Channel major FP32 format where channel % 4 == 0"
  }],
  "Outputs": [
  {
    "Name": "input.1924",
    "Location": "Device",
    "Dimensions": [1,1536,16,32],
    "Format/Datatype": "Channel major FP32 format where channel % 4 == 0"
  }],
  "ParameterType": "Convolution",
  "Kernel": [1,1],
  "PaddingMode": "kEXPLICIT_ROUND_DOWN",
  "PrePadding": [0,0],
  "PostPadding": [0,0],
  "Stride": [1,1],
  "Dilation": [1,1],
  "OutMaps": 1536,
  "Groups": 1,
  "Weights": {"Type": "Float", "Count": 294912},
  "Bias": {"Type": "Float", "Count": 1536},
  "HasBias": 1,
  "HasReLU": 0,
  "HasSparseWeights": 0,
  "HasDynamicFilter": 0,
  "HasDynamicBias": 0,
  "HasResidual": 0,
  "ConvXAsActInputIdx": -1,
  "BiasAsActInputIdx": -1,
  "ResAsActInputIdx": -1,
  "Activation": "CLIPPED_RELU",
  "ParameterSubType": "[0.000000,6.000000]",
  "TacticName": "sm80_xmma_gemm_f32f32_tf32f32_f32_tn_n_tilesize64x128x16_stage4_warpsize2x2x1_tensor16x8x8",
  "TacticValue": "0x0000000000020400",
  "StreamId": 0,
  "Metadata": "[ONNX Layer: Conv_1080]\u001e[ONNX Layer: Clip_1083]"
},{
  "Name": "Conv_1084 + Clip_1087",
  "LayerType": "CaskConvolution",
  "Inputs": [
  {
    "Name": "input.1924",
    "Location": "Device",
    "Dimensions": [1,1536,16,32],
    "Format/Datatype": "Channel major FP32 format where channel % 4 == 0"
  }],
  "Outputs": [
  {
    "Name": "input.1932",
    "Location": "Device",
    "Dimensions": [1,1536,16,32],
    "Format/Datatype": "Channel major FP32 format where channel % 4 == 0"
  }],
  "ParameterType": "Convolution",
  "Kernel": [3,3],
  "PaddingMode": "kEXPLICIT_ROUND_DOWN",
  "PrePadding": [1,1],
  "PostPadding": [1,1],
  "Stride": [1,1],
  "Dilation": [1,1],
  "OutMaps": 1536,
  "Groups": 1536,
  "Weights": {"Type": "Float", "Count": 13824},
  "Bias": {"Type": "Float", "Count": 1536},
  "HasBias": 1,
  "HasReLU": 0,
  "HasSparseWeights": 0,
  "HasDynamicFilter": 0,
  "HasDynamicBias": 0,
  "HasResidual": 0,
  "ConvXAsActInputIdx": -1,
  "BiasAsActInputIdx": -1,
  "ResAsActInputIdx": -1,
  "Activation": "CLIPPED_RELU",
  "ParameterSubType": "[0.000000,6.000000]",
  "TacticName": "sm50_xmma_convolution_trt_depthwiseFP32NHWC4_fp32nhwcx4_fp32nhwcx4_fp32kcrs",
  "TacticValue": "0x2cac8ad6921b6398",
  "StreamId": 0,
  "Metadata": "[ONNX Layer: Conv_1084]\u001e[ONNX Layer: Clip_1087]"
},{
  "Name": "Conv_1088 + Add_1089",
  "LayerType": "CaskGemmConvolution",
  "Inputs": [
  {
    "Name": "input.1932",
    "Location": "Device",
    "Dimensions": [1,1536,16,32],
    "Format/Datatype": "Channel major FP32 format where channel % 4 == 0"
  },
  {
    "Name": "input.1916",
    "Location": "Device",
    "Dimensions": [1,192,16,32],
    "Format/Datatype": "Channel major FP32 format where channel % 4 == 0"
  }],
  "Outputs": [
  {
    "Name": "input.1936",
    "Location": "Device",
    "Dimensions": [1,192,16,32],
    "Format/Datatype": "Channel major FP32 format where channel % 4 == 0"
  }],
  "ParameterType": "Convolution",
  "Kernel": [1,1],
  "PaddingMode": "kEXPLICIT_ROUND_DOWN",
  "PrePadding": [0,0],
  "PostPadding": [0,0],
  "Stride": [1,1],
  "Dilation": [1,1],
  "OutMaps": 192,
  "Groups": 1,
  "Weights": {"Type": "Float", "Count": 294912},
  "Bias": {"Type": "Float", "Count": 192},
  "HasBias": 1,
  "HasReLU": 0,
  "HasSparseWeights": 0,
  "HasDynamicFilter": 0,
  "HasDynamicBias": 0,
  "HasResidual": 1,
  "ConvXAsActInputIdx": -1,
  "BiasAsActInputIdx": -1,
  "ResAsActInputIdx": -1,
  "Activation": "NONE",
  "TacticName": "sm86_xmma_gemm_f32f32_tf32f32_f32_tn_n_tilesize128x64x32_stage4_warpsize2x2x1_tensor16x8x8",
  "TacticValue": "0x0000000206060095",
  "StreamId": 0,
  "Metadata": "[ONNX Layer: Conv_1088]\u001e[ONNX Layer: Add_1089]"
},{
  "Name": "Conv_1090 + Clip_1093",
  "LayerType": "CaskGemmConvolution",
  "Inputs": [
  {
    "Name": "input.1936",
    "Location": "Device",
    "Dimensions": [1,192,16,32],
    "Format/Datatype": "Channel major FP32 format where channel % 4 == 0"
  }],
  "Outputs": [
  {
    "Name": "input.1944",
    "Location": "Device",
    "Dimensions": [1,1536,16,32],
    "Format/Datatype": "Channel major FP32 format where channel % 4 == 0"
  }],
  "ParameterType": "Convolution",
  "Kernel": [1,1],
  "PaddingMode": "kEXPLICIT_ROUND_DOWN",
  "PrePadding": [0,0],
  "PostPadding": [0,0],
  "Stride": [1,1],
  "Dilation": [1,1],
  "OutMaps": 1536,
  "Groups": 1,
  "Weights": {"Type": "Float", "Count": 294912},
  "Bias": {"Type": "Float", "Count": 1536},
  "HasBias": 1,
  "HasReLU": 0,
  "HasSparseWeights": 0,
  "HasDynamicFilter": 0,
  "HasDynamicBias": 0,
  "HasResidual": 0,
  "ConvXAsActInputIdx": -1,
  "BiasAsActInputIdx": -1,
  "ResAsActInputIdx": -1,
  "Activation": "CLIPPED_RELU",
  "ParameterSubType": "[0.000000,6.000000]",
  "TacticName": "sm80_xmma_gemm_f32f32_tf32f32_f32_tn_n_tilesize64x128x16_stage4_warpsize2x2x1_tensor16x8x8",
  "TacticValue": "0x0000000000020400",
  "StreamId": 0,
  "Metadata": "[ONNX Layer: Conv_1090]\u001e[ONNX Layer: Clip_1093]"
},{
  "Name": "Conv_1094 + Clip_1097",
  "LayerType": "CaskConvolution",
  "Inputs": [
  {
    "Name": "input.1944",
    "Location": "Device",
    "Dimensions": [1,1536,16,32],
    "Format/Datatype": "Channel major FP32 format where channel % 4 == 0"
  }],
  "Outputs": [
  {
    "Name": "input.1952",
    "Location": "Device",
    "Dimensions": [1,1536,16,32],
    "Format/Datatype": "Channel major FP32 format where channel % 4 == 0"
  }],
  "ParameterType": "Convolution",
  "Kernel": [3,3],
  "PaddingMode": "kEXPLICIT_ROUND_DOWN",
  "PrePadding": [1,1],
  "PostPadding": [1,1],
  "Stride": [1,1],
  "Dilation": [1,1],
  "OutMaps": 1536,
  "Groups": 1536,
  "Weights": {"Type": "Float", "Count": 13824},
  "Bias": {"Type": "Float", "Count": 1536},
  "HasBias": 1,
  "HasReLU": 0,
  "HasSparseWeights": 0,
  "HasDynamicFilter": 0,
  "HasDynamicBias": 0,
  "HasResidual": 0,
  "ConvXAsActInputIdx": -1,
  "BiasAsActInputIdx": -1,
  "ResAsActInputIdx": -1,
  "Activation": "CLIPPED_RELU",
  "ParameterSubType": "[0.000000,6.000000]",
  "TacticName": "sm50_xmma_convolution_trt_depthwiseFP32NHWC4_fp32nhwcx4_fp32nhwcx4_fp32kcrs",
  "TacticValue": "0x2cac8ad6921b6398",
  "StreamId": 0,
  "Metadata": "[ONNX Layer: Conv_1094]\u001e[ONNX Layer: Clip_1097]"
},{
  "Name": "Conv_1098 + Add_1099",
  "LayerType": "CaskGemmConvolution",
  "Inputs": [
  {
    "Name": "input.1952",
    "Location": "Device",
    "Dimensions": [1,1536,16,32],
    "Format/Datatype": "Channel major FP32 format where channel % 4 == 0"
  },
  {
    "Name": "input.1936",
    "Location": "Device",
    "Dimensions": [1,192,16,32],
    "Format/Datatype": "Channel major FP32 format where channel % 4 == 0"
  }],
  "Outputs": [
  {
    "Name": "input.1956",
    "Location": "Device",
    "Dimensions": [1,192,16,32],
    "Format/Datatype": "Channel major FP32 format where channel % 4 == 0"
  }],
  "ParameterType": "Convolution",
  "Kernel": [1,1],
  "PaddingMode": "kEXPLICIT_ROUND_DOWN",
  "PrePadding": [0,0],
  "PostPadding": [0,0],
  "Stride": [1,1],
  "Dilation": [1,1],
  "OutMaps": 192,
  "Groups": 1,
  "Weights": {"Type": "Float", "Count": 294912},
  "Bias": {"Type": "Float", "Count": 192},
  "HasBias": 1,
  "HasReLU": 0,
  "HasSparseWeights": 0,
  "HasDynamicFilter": 0,
  "HasDynamicBias": 0,
  "HasResidual": 1,
  "ConvXAsActInputIdx": -1,
  "BiasAsActInputIdx": -1,
  "ResAsActInputIdx": -1,
  "Activation": "NONE",
  "TacticName": "sm86_xmma_gemm_f32f32_tf32f32_f32_tn_n_tilesize128x64x32_stage4_warpsize2x2x1_tensor16x8x8",
  "TacticValue": "0x0000000206060095",
  "StreamId": 0,
  "Metadata": "[ONNX Layer: Conv_1098]\u001e[ONNX Layer: Add_1099]"
},{
  "Name": "Conv_1100 + Clip_1103",
  "LayerType": "CaskGemmConvolution",
  "Inputs": [
  {
    "Name": "input.1956",
    "Location": "Device",
    "Dimensions": [1,192,16,32],
    "Format/Datatype": "Channel major FP32 format where channel % 4 == 0"
  }],
  "Outputs": [
  {
    "Name": "input.1964",
    "Location": "Device",
    "Dimensions": [1,1536,16,32],
    "Format/Datatype": "Channel major FP32 format where channel % 4 == 0"
  }],
  "ParameterType": "Convolution",
  "Kernel": [1,1],
  "PaddingMode": "kEXPLICIT_ROUND_DOWN",
  "PrePadding": [0,0],
  "PostPadding": [0,0],
  "Stride": [1,1],
  "Dilation": [1,1],
  "OutMaps": 1536,
  "Groups": 1,
  "Weights": {"Type": "Float", "Count": 294912},
  "Bias": {"Type": "Float", "Count": 1536},
  "HasBias": 1,
  "HasReLU": 0,
  "HasSparseWeights": 0,
  "HasDynamicFilter": 0,
  "HasDynamicBias": 0,
  "HasResidual": 0,
  "ConvXAsActInputIdx": -1,
  "BiasAsActInputIdx": -1,
  "ResAsActInputIdx": -1,
  "Activation": "CLIPPED_RELU",
  "ParameterSubType": "[0.000000,6.000000]",
  "TacticName": "sm80_xmma_gemm_f32f32_tf32f32_f32_tn_n_tilesize64x128x16_stage4_warpsize2x2x1_tensor16x8x8",
  "TacticValue": "0x0000000000020400",
  "StreamId": 0,
  "Metadata": "[ONNX Layer: Conv_1100]\u001e[ONNX Layer: Clip_1103]"
},{
  "Name": "Conv_1104 + Clip_1107",
  "LayerType": "CaskConvolution",
  "Inputs": [
  {
    "Name": "input.1964",
    "Location": "Device",
    "Dimensions": [1,1536,16,32],
    "Format/Datatype": "Channel major FP32 format where channel % 4 == 0"
  }],
  "Outputs": [
  {
    "Name": "input.1972",
    "Location": "Device",
    "Dimensions": [1,1536,16,32],
    "Format/Datatype": "Channel major FP32 format where channel % 4 == 0"
  }],
  "ParameterType": "Convolution",
  "Kernel": [3,3],
  "PaddingMode": "kEXPLICIT_ROUND_DOWN",
  "PrePadding": [1,1],
  "PostPadding": [1,1],
  "Stride": [1,1],
  "Dilation": [1,1],
  "OutMaps": 1536,
  "Groups": 1536,
  "Weights": {"Type": "Float", "Count": 13824},
  "Bias": {"Type": "Float", "Count": 1536},
  "HasBias": 1,
  "HasReLU": 0,
  "HasSparseWeights": 0,
  "HasDynamicFilter": 0,
  "HasDynamicBias": 0,
  "HasResidual": 0,
  "ConvXAsActInputIdx": -1,
  "BiasAsActInputIdx": -1,
  "ResAsActInputIdx": -1,
  "Activation": "CLIPPED_RELU",
  "ParameterSubType": "[0.000000,6.000000]",
  "TacticName": "sm50_xmma_convolution_trt_depthwiseFP32NHWC4_fp32nhwcx4_fp32nhwcx4_fp32kcrs",
  "TacticValue": "0x2cac8ad6921b6398",
  "StreamId": 0,
  "Metadata": "[ONNX Layer: Conv_1104]\u001e[ONNX Layer: Clip_1107]"
},{
  "Name": "Conv_1108 + Add_1109",
  "LayerType": "CaskGemmConvolution",
  "Inputs": [
  {
    "Name": "input.1972",
    "Location": "Device",
    "Dimensions": [1,1536,16,32],
    "Format/Datatype": "Channel major FP32 format where channel % 4 == 0"
  },
  {
    "Name": "input.1956",
    "Location": "Device",
    "Dimensions": [1,192,16,32],
    "Format/Datatype": "Channel major FP32 format where channel % 4 == 0"
  }],
  "Outputs": [
  {
    "Name": "input.1976",
    "Location": "Device",
    "Dimensions": [1,192,16,32],
    "Format/Datatype": "Channel major FP32 format where channel % 4 == 0"
  }],
  "ParameterType": "Convolution",
  "Kernel": [1,1],
  "PaddingMode": "kEXPLICIT_ROUND_DOWN",
  "PrePadding": [0,0],
  "PostPadding": [0,0],
  "Stride": [1,1],
  "Dilation": [1,1],
  "OutMaps": 192,
  "Groups": 1,
  "Weights": {"Type": "Float", "Count": 294912},
  "Bias": {"Type": "Float", "Count": 192},
  "HasBias": 1,
  "HasReLU": 0,
  "HasSparseWeights": 0,
  "HasDynamicFilter": 0,
  "HasDynamicBias": 0,
  "HasResidual": 1,
  "ConvXAsActInputIdx": -1,
  "BiasAsActInputIdx": -1,
  "ResAsActInputIdx": -1,
  "Activation": "NONE",
  "TacticName": "sm86_xmma_gemm_f32f32_tf32f32_f32_tn_n_tilesize128x64x32_stage4_warpsize2x2x1_tensor16x8x8",
  "TacticValue": "0x0000000206060095",
  "StreamId": 0,
  "Metadata": "[ONNX Layer: Conv_1108]\u001e[ONNX Layer: Add_1109]"
},{
  "Name": "Conv_1110 + Clip_1113",
  "LayerType": "CaskGemmConvolution",
  "Inputs": [
  {
    "Name": "input.1976",
    "Location": "Device",
    "Dimensions": [1,192,16,32],
    "Format/Datatype": "Channel major FP32 format where channel % 4 == 0"
  }],
  "Outputs": [
  {
    "Name": "input.1984",
    "Location": "Device",
    "Dimensions": [1,1536,16,32],
    "Format/Datatype": "Channel major FP32 format where channel % 4 == 0"
  }],
  "ParameterType": "Convolution",
  "Kernel": [1,1],
  "PaddingMode": "kEXPLICIT_ROUND_DOWN",
  "PrePadding": [0,0],
  "PostPadding": [0,0],
  "Stride": [1,1],
  "Dilation": [1,1],
  "OutMaps": 1536,
  "Groups": 1,
  "Weights": {"Type": "Float", "Count": 294912},
  "Bias": {"Type": "Float", "Count": 1536},
  "HasBias": 1,
  "HasReLU": 0,
  "HasSparseWeights": 0,
  "HasDynamicFilter": 0,
  "HasDynamicBias": 0,
  "HasResidual": 0,
  "ConvXAsActInputIdx": -1,
  "BiasAsActInputIdx": -1,
  "ResAsActInputIdx": -1,
  "Activation": "CLIPPED_RELU",
  "ParameterSubType": "[0.000000,6.000000]",
  "TacticName": "sm80_xmma_gemm_f32f32_tf32f32_f32_tn_n_tilesize64x128x16_stage4_warpsize2x2x1_tensor16x8x8",
  "TacticValue": "0x0000000000020400",
  "StreamId": 0,
  "Metadata": "[ONNX Layer: Conv_1110]\u001e[ONNX Layer: Clip_1113]"
},{
  "Name": "Conv_1114 + Clip_1117",
  "LayerType": "CaskConvolution",
  "Inputs": [
  {
    "Name": "input.1984",
    "Location": "Device",
    "Dimensions": [1,1536,16,32],
    "Format/Datatype": "Channel major FP32 format where channel % 4 == 0"
  }],
  "Outputs": [
  {
    "Name": "input.1992",
    "Location": "Device",
    "Dimensions": [1,1536,16,32],
    "Format/Datatype": "Channel major FP32 format where channel % 4 == 0"
  }],
  "ParameterType": "Convolution",
  "Kernel": [3,3],
  "PaddingMode": "kEXPLICIT_ROUND_DOWN",
  "PrePadding": [1,1],
  "PostPadding": [1,1],
  "Stride": [1,1],
  "Dilation": [1,1],
  "OutMaps": 1536,
  "Groups": 1536,
  "Weights": {"Type": "Float", "Count": 13824},
  "Bias": {"Type": "Float", "Count": 1536},
  "HasBias": 1,
  "HasReLU": 0,
  "HasSparseWeights": 0,
  "HasDynamicFilter": 0,
  "HasDynamicBias": 0,
  "HasResidual": 0,
  "ConvXAsActInputIdx": -1,
  "BiasAsActInputIdx": -1,
  "ResAsActInputIdx": -1,
  "Activation": "CLIPPED_RELU",
  "ParameterSubType": "[0.000000,6.000000]",
  "TacticName": "sm50_xmma_convolution_trt_depthwiseFP32NHWC4_fp32nhwcx4_fp32nhwcx4_fp32kcrs",
  "TacticValue": "0x2cac8ad6921b6398",
  "StreamId": 0,
  "Metadata": "[ONNX Layer: Conv_1114]\u001e[ONNX Layer: Clip_1117]"
},{
  "Name": "Conv_1118 + Add_1119",
  "LayerType": "CaskGemmConvolution",
  "Inputs": [
  {
    "Name": "input.1992",
    "Location": "Device",
    "Dimensions": [1,1536,16,32],
    "Format/Datatype": "Channel major FP32 format where channel % 4 == 0"
  },
  {
    "Name": "input.1976",
    "Location": "Device",
    "Dimensions": [1,192,16,32],
    "Format/Datatype": "Channel major FP32 format where channel % 4 == 0"
  }],
  "Outputs": [
  {
    "Name": "onnx::Mul_2582",
    "Location": "Device",
    "Dimensions": [1,192,16,32],
    "Format/Datatype": "Channel major FP32 format where channel % 4 == 0"
  }],
  "ParameterType": "Convolution",
  "Kernel": [1,1],
  "PaddingMode": "kEXPLICIT_ROUND_DOWN",
  "PrePadding": [0,0],
  "PostPadding": [0,0],
  "Stride": [1,1],
  "Dilation": [1,1],
  "OutMaps": 192,
  "Groups": 1,
  "Weights": {"Type": "Float", "Count": 294912},
  "Bias": {"Type": "Float", "Count": 192},
  "HasBias": 1,
  "HasReLU": 0,
  "HasSparseWeights": 0,
  "HasDynamicFilter": 0,
  "HasDynamicBias": 0,
  "HasResidual": 1,
  "ConvXAsActInputIdx": -1,
  "BiasAsActInputIdx": -1,
  "ResAsActInputIdx": -1,
  "Activation": "NONE",
  "TacticName": "sm86_xmma_gemm_f32f32_tf32f32_f32_tn_n_tilesize128x64x32_stage4_warpsize2x2x1_tensor16x8x8",
  "TacticValue": "0x0000000206060095",
  "StreamId": 0,
  "Metadata": "[ONNX Layer: Conv_1118]\u001e[ONNX Layer: Add_1119]"
},{
  "Name": "__myl_Mul_myl368_0",
  "LayerType": "kgen",
  "Inputs": [
  {
    "Name": "onnx::Mul_1808",
    "Dimensions": [1,192,16,32],
    "Format/Datatype": "Float"
  },
  {
    "Name": "onnx::Mul_2582",
    "Dimensions": [1,192,16,32],
    "Format/Datatype": "Float"
  }],
  "Outputs": [
  {
    "Name": "input.1996",
    "Dimensions": [1,192,16,32],
    "Format/Datatype": "Float"
  }],
  "TacticName": "__myl_Mul_0x2bf4c322b4e9f04a2e38226610154c6b",
  "StreamId": 0,
  "Metadata": "[ONNX Layer: Mul_1120]"
},{
  "Name": "Conv_808 + Add_810",
  "LayerType": "CaskGemmConvolution",
  "Inputs": [
  {
    "Name": "input.1372",
    "Location": "Device",
    "Dimensions": [1,768,32,64],
    "Format/Datatype": "Channel major FP32 format where channel % 4 == 0"
  },
  {
    "Name": "input.1340",
    "Location": "Device",
    "Dimensions": [1,96,32,64],
    "Format/Datatype": "Channel major FP32 format where channel % 4 == 0"
  }],
  "Outputs": [
  {
    "Name": "onnx::Add_2273",
    "Location": "Device",
    "Dimensions": [1,96,32,64],
    "Format/Datatype": "Channel major FP32 format where channel % 4 == 0"
  }],
  "ParameterType": "Convolution",
  "Kernel": [1,1],
  "PaddingMode": "kEXPLICIT_ROUND_DOWN",
  "PrePadding": [0,0],
  "PostPadding": [0,0],
  "Stride": [1,1],
  "Dilation": [1,1],
  "OutMaps": 96,
  "Groups": 1,
  "Weights": {"Type": "Float", "Count": 73728},
  "Bias": {"Type": "Float", "Count": 96},
  "HasBias": 1,
  "HasReLU": 0,
  "HasSparseWeights": 0,
  "HasDynamicFilter": 0,
  "HasDynamicBias": 0,
  "HasResidual": 1,
  "ConvXAsActInputIdx": -1,
  "BiasAsActInputIdx": -1,
  "ResAsActInputIdx": -1,
  "Activation": "NONE",
  "TacticName": "sm86_xmma_gemm_f32f32_tf32f32_f32_tn_n_tilesize128x64x32_stage4_warpsize2x2x1_tensor16x8x8",
  "TacticValue": "0x0000000000020095",
  "StreamId": 0,
  "Metadata": "[ONNX Layer: Conv_808]\u001e[ONNX Layer: Add_810]"
},{
  "Name": "Reformatting CopyNode for Input Tensor 0 to ConvTranspose_1121 + Add_1122 + Relu_1123",
  "LayerType": "NoOp",
  "Inputs": [
  {
    "Name": "input.1996",
    "Location": "Device",
    "Dimensions": [1,192,16,32],
    "Format/Datatype": "Channel major FP32 format where channel % 4 == 0"
  }],
  "Outputs": [
  {
    "Name": "Reformatted Input Tensor 0 to ConvTranspose_1121 + Add_1122 + Relu_1123",
    "Location": "Device",
    "Dimensions": [1,192,16,32],
    "Format/Datatype": "Channel major FP32 format"
  }],
  "TacticValue": "0x0000000000000000",
  "StreamId": 0,
  "Metadata": ""
},{
  "Name": "Reformatting CopyNode for Input Tensor 1 to ConvTranspose_1121 + Add_1122 + Relu_1123",
  "LayerType": "NoOp",
  "Inputs": [
  {
    "Name": "onnx::Add_2273",
    "Location": "Device",
    "Dimensions": [1,96,32,64],
    "Format/Datatype": "Channel major FP32 format where channel % 4 == 0"
  }],
  "Outputs": [
  {
    "Name": "Reformatted Input Tensor 1 to ConvTranspose_1121 + Add_1122 + Relu_1123",
    "Location": "Device",
    "Dimensions": [1,96,32,64],
    "Format/Datatype": "Channel major FP32 format"
  }],
  "TacticValue": "0x0000000000000000",
  "StreamId": 0,
  "Metadata": ""
},{
  "Name": "ConvTranspose_1121 + Add_1122 + Relu_1123",
  "LayerType": "CaskDeconvolutionV2",
  "Inputs": [
  {
    "Name": "Reformatted Input Tensor 0 to ConvTranspose_1121 + Add_1122 + Relu_1123",
    "Location": "Device",
    "Dimensions": [1,192,16,32],
    "Format/Datatype": "Channel major FP32 format"
  },
  {
    "Name": "Reformatted Input Tensor 1 to ConvTranspose_1121 + Add_1122 + Relu_1123",
    "Location": "Device",
    "Dimensions": [1,96,32,64],
    "Format/Datatype": "Channel major FP32 format"
  }],
  "Outputs": [
  {
    "Name": "input.2004",
    "Location": "Device",
    "Dimensions": [1,96,32,64],
    "Format/Datatype": "Channel major FP32 format"
  }],
  "ParameterType": "Convolution",
  "Kernel": [3,3],
  "PaddingMode": "kEXPLICIT_ROUND_DOWN",
  "PrePadding": [1,1],
  "PostPadding": [0,0],
  "Stride": [2,2],
  "Dilation": [1,1],
  "OutMaps": 96,
  "Groups": 1,
  "Weights": {"Type": "Float", "Count": 165888},
  "Bias": {"Type": "Float", "Count": 96},
  "HasBias": 1,
  "HasReLU": 1,
  "HasSparseWeights": 0,
  "HasDynamicFilter": 0,
  "HasDynamicBias": 0,
  "HasResidual": 1,
  "ConvXAsActInputIdx": -1,
  "BiasAsActInputIdx": -1,
  "ResAsActInputIdx": -1,
  "Activation": "RELU",
  "TacticName": "sm80_xmma_deconv_implicit_gemm_indexed_f32f32_f32f32_f32_nhwckrsc_nhwc_tilesize64x64x8_stage3_warpsize1x4x1_g1_ffma_strided_aligna4_alignc4",
  "TacticValue": "0x55c5f197e3b7e8aa",
  "StreamId": 0,
  "Metadata": "[ONNX Layer: ConvTranspose_1121]\u001e[ONNX Layer: Add_1122]\u001e[ONNX Layer: Relu_1123]"
},{
  "Name": "Reformatting CopyNode for Input Tensor 0 to ConvTranspose_1124",
  "LayerType": "NoOp",
  "Inputs": [
  {
    "Name": "input.2004",
    "Location": "Device",
    "Dimensions": [1,96,32,64],
    "Format/Datatype": "Channel major FP32 format"
  }],
  "Outputs": [
  {
    "Name": "Reformatted Input Tensor 0 to ConvTranspose_1124",
    "Location": "Device",
    "Dimensions": [1,96,32,64],
    "Format/Datatype": "Channel major FP32 format where channel % 4 == 0"
  }],
  "TacticValue": "0x0000000000000000",
  "StreamId": 0,
  "Metadata": ""
},{
  "Name": "ConvTranspose_1124",
  "LayerType": "CaskDeconvolutionV2",
  "Inputs": [
  {
    "Name": "Reformatted Input Tensor 0 to ConvTranspose_1124",
    "Location": "Device",
    "Dimensions": [1,96,32,64],
    "Format/Datatype": "Channel major FP32 format where channel % 4 == 0"
  }],
  "Outputs": [
  {
    "Name": "onnx::Add_2587",
    "Location": "Device",
    "Dimensions": [1,48,64,128],
    "Format/Datatype": "Channel major FP32 format where channel % 4 == 0"
  }],
  "ParameterType": "Convolution",
  "Kernel": [3,3],
  "PaddingMode": "kEXPLICIT_ROUND_DOWN",
  "PrePadding": [1,1],
  "PostPadding": [0,0],
  "Stride": [2,2],
  "Dilation": [1,1],
  "OutMaps": 48,
  "Groups": 1,
  "Weights": {"Type": "Float", "Count": 41472},
  "Bias": {"Type": "Float", "Count": 48},
  "HasBias": 1,
  "HasReLU": 0,
  "HasSparseWeights": 0,
  "HasDynamicFilter": 0,
  "HasDynamicBias": 0,
  "HasResidual": 0,
  "ConvXAsActInputIdx": -1,
  "BiasAsActInputIdx": -1,
  "ResAsActInputIdx": -1,
  "Activation": "NONE",
  "TacticName": "sm80_xmma_deconv_implicit_gemm_indexed_f32f32_f32f32_f32_nhwckrsc_nhwc_tilesize128x64x8_stage3_warpsize2x2x1_g1_ffma_strided_aligna4_alignc4",
  "TacticValue": "0xba791a7991b0361c",
  "StreamId": 0,
  "Metadata": "[ONNX Layer: ConvTranspose_1124]"
},{
  "Name": "Conv_526",
  "LayerType": "CaskConvolution",
  "Inputs": [
  {
    "Name": "input.812",
    "Location": "Device",
    "Dimensions": [1,24,64,128],
    "Format/Datatype": "Row major linear FP32"
  }],
  "Outputs": [
  {
    "Name": "input_data.11",
    "Location": "Device",
    "Dimensions": [1,24,64,128],
    "Format/Datatype": "Row major linear FP32"
  }],
  "ParameterType": "Convolution",
  "Kernel": [3,3],
  "PaddingMode": "kEXPLICIT_ROUND_DOWN",
  "PrePadding": [1,1],
  "PostPadding": [1,1],
  "Stride": [1,1],
  "Dilation": [1,1],
  "OutMaps": 24,
  "Groups": 1,
  "Weights": {"Type": "Float", "Count": 5184},
  "Bias": {"Type": "Float", "Count": 0},
  "HasBias": 0,
  "HasReLU": 0,
  "HasSparseWeights": 0,
  "HasDynamicFilter": 0,
  "HasDynamicBias": 0,
  "HasResidual": 0,
  "ConvXAsActInputIdx": -1,
  "BiasAsActInputIdx": -1,
  "ResAsActInputIdx": -1,
  "Activation": "NONE",
  "TacticName": "ampere_scudnn_winograd_128x128_ldg1_ldg4_relu_tile148t_nt_v1",
  "TacticValue": "0x94119b4c514b211a",
  "StreamId": 0,
  "Metadata": "[ONNX Layer: Conv_526]"
},{
  "Name": "Reformatting CopyNode for Input Tensor 0 to {ForeignNode[initializers.onnx_initializer_863...Relu_532]}",
  "LayerType": "Reformat",
  "Inputs": [
  {
    "Name": "input.1004",
    "Location": "Device",
    "Dimensions": [1,48,64,128],
    "Format/Datatype": "Channel major FP32 format where channel % 4 == 0"
  }],
  "Outputs": [
  {
    "Name": "Reformatted Input Tensor 0 to {ForeignNode[initializers.onnx_initializer_863...Relu_532]}",
    "Location": "Device",
    "Dimensions": [1,48,64,128],
    "Format/Datatype": "Row major linear FP32"
  }],
  "ParameterType": "Reformat",
  "Origin": "REFORMAT",
  "TacticValue": "0x0000000000000000",
  "StreamId": 0,
  "Metadata": ""
},{
  "Name": "Reformatting CopyNode for Input Tensor 1 to {ForeignNode[initializers.onnx_initializer_863...Relu_532]}",
  "LayerType": "Reformat",
  "Inputs": [
  {
    "Name": "onnx::Add_2101",
    "Location": "Device",
    "Dimensions": [1,48,64,128],
    "Format/Datatype": "Channel major FP32 format where channel % 4 == 0"
  }],
  "Outputs": [
  {
    "Name": "Reformatted Input Tensor 1 to {ForeignNode[initializers.onnx_initializer_863...Relu_532]}",
    "Location": "Device",
    "Dimensions": [1,48,64,128],
    "Format/Datatype": "Row major linear FP32"
  }],
  "ParameterType": "Reformat",
  "Origin": "REFORMAT",
  "TacticValue": "0x0000000000000000",
  "StreamId": 0,
  "Metadata": ""
},{
  "Name": "Reformatting CopyNode for Input Tensor 2 to {ForeignNode[initializers.onnx_initializer_863...Relu_532]}",
  "LayerType": "Reformat",
  "Inputs": [
  {
    "Name": "onnx::Add_2587",
    "Location": "Device",
    "Dimensions": [1,48,64,128],
    "Format/Datatype": "Channel major FP32 format where channel % 4 == 0"
  }],
  "Outputs": [
  {
    "Name": "Reformatted Input Tensor 2 to {ForeignNode[initializers.onnx_initializer_863...Relu_532]}",
    "Location": "Device",
    "Dimensions": [1,48,64,128],
    "Format/Datatype": "Row major linear FP32"
  }],
  "ParameterType": "Reformat",
  "Origin": "REFORMAT",
  "TacticValue": "0x0000000000000000",
  "StreamId": 0,
  "Metadata": ""
},{
  "Name": "__myl_AddAddReluMaxrSubExpSumDivMulMulSum_myl379_0",
  "LayerType": "kgen",
  "Inputs": [
  {
    "Name": "Reformatted Input Tensor 0 to {ForeignNode[initializers.onnx_initializer_863...Relu_532]}",
    "Dimensions": [1,48,64,128],
    "Format/Datatype": "Float"
  },
  {
    "Name": "Reformatted Input Tensor 1 to {ForeignNode[initializers.onnx_initializer_863...Relu_532]}",
    "Dimensions": [1,48,64,128],
    "Format/Datatype": "Float"
  },
  {
    "Name": "Reformatted Input Tensor 2 to {ForeignNode[initializers.onnx_initializer_863...Relu_532]}",
    "Dimensions": [1,48,64,128],
    "Format/Datatype": "Float"
  }],
  "Outputs": [
  {
    "Name": "__myln_k_arg__bb1_5_myl379",
    "Dimensions": [1,1,64,128],
    "Format/Datatype": "Float"
  }],
  "TacticName": "__myl_AddAddReluMaxrSubExpSumDivMulMulSum_0x843e4522526aebe16f1a8dc7dd67c621",
  "StreamId": 0,
  "Metadata": "[ONNX Layer: Softmax_1127]\u001f[ONNX Layer: Mul_1128]\u001f[ONNX Layer: ReduceSum_1129]\u001f[ONNX Layer: Relu_1126]\u001f[ONNX Layer: Add_1125]\u001f[ONNX Layer: Add_640]"
},{
  "Name": "__myl_MulReplReplConc_myl379_1",
  "LayerType": "kgen",
  "Inputs": [
  {
    "Name": "__myln_k_arg__bb1_5_myl379",
    "Dimensions": [1,1,64,128],
    "Format/Datatype": "Float"
  }],
  "Outputs": [
  {
    "Name": "__myln_k_arg__bb1_6_myl379",
    "Dimensions": [1,1,66,128],
    "Format/Datatype": "Float"
  }],
  "TacticName": "__myl_MulReplReplConc_0x92ebe9e4caf3b45bcfed810708222575",
  "StreamId": 0,
  "Metadata": "[ONNX Layer: Pad_1131]\u001f[ONNX Layer: Mul_1130]"
},{
  "Name": "__myl_ReplReplConcGathGathTran_myl379_2",
  "LayerType": "kgen",
  "Inputs": [
  {
    "Name": "__myln_k_arg__bb1_6_myl379",
    "Dimensions": [1,1,66,128],
    "Format/Datatype": "Float"
  }],
  "Outputs": [
  {
    "Name": "input_tensor.7",
    "Dimensions": [1,1,3,3,64,128],
    "Format/Datatype": "Float"
  }],
  "TacticName": "__myl_ReplReplConcGathGathTran_0xb14cf0792ee30ec5defe2f161e31deeb",
  "StreamId": 0,
  "Metadata": "[ONNX Layer: Pad_1131]\u001f[ONNX Layer: Gather_1132]\u001f[ONNX Layer: Transpose_1134]\u001e[ONNX Layer: Reshape_1135]\u001f[ONNX Layer: Gather_1133]"
},{
  "Name": "__myl_InorRelu_myl379_3",
  "LayerType": "kgen",
  "Inputs": [
  {
    "Name": "input_data.11",
    "Dimensions": [1,24,64,128],
    "Format/Datatype": "Float"
  }],
  "Outputs": [
  {
    "Name": "input.832",
    "Dimensions": [1,24,64,128],
    "Format/Datatype": "Float"
  }],
  "TacticName": "__myl_InorRelu_0xd52657e8b871918add131b4d1d941780",
  "StreamId": 0,
  "Metadata": "[ONNX Layer: InstanceNormalization_529]\u001f[ONNX Layer: Relu_532]"
},{
  "Name": "Conv_2",
  "LayerType": "CaskConvolution",
  "Inputs": [
  {
    "Name": "Reformatted left_img",
    "Location": "Device",
    "Dimensions": [1,3,256,512],
    "Format/Datatype": "Channel major FP32 format where channel % 4 == 0"
  }],
  "Outputs": [
  {
    "Name": "input.8",
    "Location": "Device",
    "Dimensions": [1,16,128,256],
    "Format/Datatype": "Channel major FP32 format where channel % 4 == 0"
  }],
  "ParameterType": "Convolution",
  "Kernel": [3,3],
  "PaddingMode": "kEXPLICIT_ROUND_DOWN",
  "PrePadding": [1,1],
  "PostPadding": [1,1],
  "Stride": [2,2],
  "Dilation": [1,1],
  "OutMaps": 16,
  "Groups": 1,
  "Weights": {"Type": "Float", "Count": 432},
  "Bias": {"Type": "Float", "Count": 16},
  "HasBias": 1,
  "HasReLU": 0,
  "HasSparseWeights": 0,
  "HasDynamicFilter": 0,
  "HasDynamicBias": 0,
  "HasResidual": 0,
  "ConvXAsActInputIdx": -1,
  "BiasAsActInputIdx": -1,
  "ResAsActInputIdx": -1,
  "Activation": "NONE",
  "TacticName": "sm80_xmma_fprop_implicit_gemm_indexed_wo_smem_f32f32_tf32f32_f32_nhwckrsc_nhwc_tilesize128x16x64_stage1_warpsize4x1x1_g1_tensor16x8x8",
  "TacticValue": "0x10383a0781d24dde",
  "StreamId": 0,
  "Metadata": "[ONNX Layer: Conv_2]"
},{
  "Name": "Reformatting CopyNode for Input Tensor 0 to PWN(LeakyRelu_9)",
  "LayerType": "NoOp",
  "Inputs": [
  {
    "Name": "input.8",
    "Location": "Device",
    "Dimensions": [1,16,128,256],
    "Format/Datatype": "Channel major FP32 format where channel % 4 == 0"
  }],
  "Outputs": [
  {
    "Name": "Reformatted Input Tensor 0 to PWN(LeakyRelu_9)",
    "Location": "Device",
    "Dimensions": [1,16,128,256],
    "Format/Datatype": "Channel major FP32 format"
  }],
  "TacticValue": "0x0000000000000000",
  "StreamId": 0,
  "Metadata": ""
},{
  "Name": "__myl_MoveMulLtSele_myl382_0",
  "LayerType": "kgen",
  "Inputs": [
  {
    "Name": "Reformatted Input Tensor 0 to PWN(LeakyRelu_9)",
    "Dimensions": [1,16,128,256],
    "Format/Datatype": "Float"
  }],
  "Outputs": [
  {
    "Name": "input.20",
    "Dimensions": [1,16,128,256],
    "Format/Datatype": "Float"
  }],
  "TacticName": "__myl_MoveMulLtSele_0x1e2183501e0cd2900eef3ba6ffb54a2a",
  "StreamId": 0,
  "Metadata": "[ONNX Layer: LeakyRelu_9]"
},{
  "Name": "Reformatting CopyNode for Input Tensor 0 to Conv_12 + Relu_19",
  "LayerType": "NoOp",
  "Inputs": [
  {
    "Name": "input.20",
    "Location": "Device",
    "Dimensions": [1,16,128,256],
    "Format/Datatype": "Channel major FP32 format"
  }],
  "Outputs": [
  {
    "Name": "Reformatted Input Tensor 0 to Conv_12 + Relu_19",
    "Location": "Device",
    "Dimensions": [1,16,128,256],
    "Format/Datatype": "Channel major FP32 format where channel % 4 == 0"
  }],
  "TacticValue": "0x0000000000000000",
  "StreamId": 0,
  "Metadata": ""
},{
  "Name": "Conv_12 + Relu_19",
  "LayerType": "CaskConvolution",
  "Inputs": [
  {
    "Name": "Reformatted Input Tensor 0 to Conv_12 + Relu_19",
    "Location": "Device",
    "Dimensions": [1,16,128,256],
    "Format/Datatype": "Channel major FP32 format where channel % 4 == 0"
  }],
  "Outputs": [
  {
    "Name": "Reformatted Output Tensor 0 to Conv_12 + Relu_19",
    "Location": "Device",
    "Dimensions": [1,16,128,256],
    "Format/Datatype": "Channel major FP32 format where channel % 4 == 0"
  }],
  "ParameterType": "Convolution",
  "Kernel": [3,3],
  "PaddingMode": "kEXPLICIT_ROUND_DOWN",
  "PrePadding": [1,1],
  "PostPadding": [1,1],
  "Stride": [1,1],
  "Dilation": [1,1],
  "OutMaps": 16,
  "Groups": 1,
  "Weights": {"Type": "Float", "Count": 2304},
  "Bias": {"Type": "Float", "Count": 16},
  "HasBias": 1,
  "HasReLU": 1,
  "HasSparseWeights": 0,
  "HasDynamicFilter": 0,
  "HasDynamicBias": 0,
  "HasResidual": 0,
  "ConvXAsActInputIdx": -1,
  "BiasAsActInputIdx": -1,
  "ResAsActInputIdx": -1,
  "Activation": "RELU",
  "TacticName": "sm80_xmma_fprop_implicit_gemm_indexed_wo_smem_f32f32_tf32f32_f32_nhwckrsc_nhwc_tilesize128x16x32_stage1_warpsize4x1x1_g1_tensor16x8x8",
  "TacticValue": "0xae48d3ccfe1edfcd",
  "StreamId": 0,
  "Metadata": "[ONNX Layer: Conv_12]\u001e[ONNX Layer: Relu_19]"
},{
  "Name": "Reformatting CopyNode for Output Tensor 0 to Conv_12 + Relu_19",
  "LayerType": "Reformat",
  "Inputs": [
  {
    "Name": "Reformatted Output Tensor 0 to Conv_12 + Relu_19",
    "Location": "Device",
    "Dimensions": [1,16,128,256],
    "Format/Datatype": "Channel major FP32 format where channel % 4 == 0"
  }],
  "Outputs": [
  {
    "Name": "input.852",
    "Location": "Device",
    "Dimensions": [1,16,128,256],
    "Format/Datatype": "Row major linear FP32"
  }],
  "ParameterType": "Reformat",
  "Origin": "REFORMAT",
  "TacticValue": "0x0000000000000000",
  "StreamId": 0,
  "Metadata": ""
},{
  "Name": "Resize_1136",
  "LayerType": "Resize",
  "Inputs": [
  {
    "Name": "input_tensor.7",
    "Location": "Device",
    "Dimensions": [1,9,64,128],
    "Format/Datatype": "Row major linear FP32"
  }],
  "Outputs": [
  {
    "Name": "onnx::Mul_2601",
    "Location": "Device",
    "Dimensions": [1,9,256,512],
    "Format/Datatype": "Row major linear FP32"
  }],
  "ParameterType": "Resize",
  "InterpolationMode": "NEAREST",
  "ResizeScales": [0, 0, 0, 0, 0, 0, 0, 0],
  "ExcludeOutside": 0,
  "CubicCoeff": -0.75,
  "CoordTransform": "kASYMMETRIC",
  "ResizeSelector": "kFORMULA",
  "NNRounding": "kFLOOR",
  "TacticValue": "0x0000000000000000",
  "StreamId": 0,
  "Metadata": "[ONNX Layer: Resize_1136]"
},{
  "Name": "ConvTranspose_537",
  "LayerType": "CaskGemmDeconvolution",
  "Inputs": [
  {
    "Name": "input.832",
    "Location": "Device",
    "Dimensions": [1,24,64,128],
    "Format/Datatype": "Row major linear FP32"
  }],
  "Outputs": [
  {
    "Name": "input.840",
    "Location": "Device",
    "Dimensions": [1,16,128,256],
    "Format/Datatype": "Row major linear FP32"
  }],
  "ParameterType": "Convolution",
  "Kernel": [4,4],
  "PaddingMode": "kEXPLICIT_ROUND_DOWN",
  "PrePadding": [1,1],
  "PostPadding": [1,1],
  "Stride": [2,2],
  "Dilation": [1,1],
  "OutMaps": 16,
  "Groups": 1,
  "Weights": {"Type": "Float", "Count": 6144},
  "Bias": {"Type": "Float", "Count": 16},
  "HasBias": 1,
  "HasReLU": 0,
  "HasSparseWeights": 0,
  "HasDynamicFilter": 0,
  "HasDynamicBias": 0,
  "HasResidual": 0,
  "ConvXAsActInputIdx": -1,
  "BiasAsActInputIdx": -1,
  "ResAsActInputIdx": -1,
  "Activation": "NONE",
  "TacticValue": "0x0000000000020490",
  "StreamId": 0,
  "Metadata": "[ONNX Layer: ConvTranspose_537]"
},{
  "Name": "__myl_MoveMulLtSele_myl388_0",
  "LayerType": "kgen",
  "Inputs": [
  {
    "Name": "input.840",
    "Dimensions": [1,16,128,256],
    "Format/Datatype": "Float"
  }],
  "Outputs": [
  {
    "Name": "input.852",
    "Dimensions": [1,16,128,256],
    "Format/Datatype": "Float"
  }],
  "TacticName": "__myl_MoveMulLtSele_0x4cf1e0e1f4dafe8d91017594da8844fb",
  "StreamId": 0,
  "Metadata": "[ONNX Layer: LeakyRelu_542]"
},{
  "Name": "Conv_546",
  "LayerType": "CaskConvolution",
  "Inputs": [
  {
    "Name": "input.852",
    "Location": "Device",
    "Dimensions": [1,32,128,256],
    "Format/Datatype": "Row major linear FP32"
  }],
  "Outputs": [
  {
    "Name": "input.860",
    "Location": "Device",
    "Dimensions": [1,16,128,256],
    "Format/Datatype": "Row major linear FP32"
  }],
  "ParameterType": "Convolution",
  "Kernel": [3,3],
  "PaddingMode": "kEXPLICIT_ROUND_DOWN",
  "PrePadding": [1,1],
  "PostPadding": [1,1],
  "Stride": [1,1],
  "Dilation": [1,1],
  "OutMaps": 16,
  "Groups": 1,
  "Weights": {"Type": "Float", "Count": 4608},
  "Bias": {"Type": "Float", "Count": 16},
  "HasBias": 1,
  "HasReLU": 0,
  "HasSparseWeights": 0,
  "HasDynamicFilter": 0,
  "HasDynamicBias": 0,
  "HasResidual": 0,
  "ConvXAsActInputIdx": -1,
  "BiasAsActInputIdx": -1,
  "ResAsActInputIdx": -1,
  "Activation": "NONE",
  "TacticName": "sm80_xmma_fprop_wngd_f32f32_f32_f32_nchwkcrs_nchw_tilesize8x16x16x8_warpsize8x1x1_wngd2x2",
  "TacticValue": "0xe38e9dfd56c33779",
  "StreamId": 0,
  "Metadata": "[ONNX Layer: Conv_546]"
},{
  "Name": "__myl_MoveMulLtSele_myl390_0",
  "LayerType": "kgen",
  "Inputs": [
  {
    "Name": "input.860",
    "Dimensions": [1,16,128,256],
    "Format/Datatype": "Float"
  }],
  "Outputs": [
  {
    "Name": "input.868",
    "Dimensions": [1,16,128,256],
    "Format/Datatype": "Float"
  }],
  "TacticName": "__myl_MoveMulLtSele_0x1d3393db4cfc80038c71647a8b134645",
  "StreamId": 0,
  "Metadata": "[ONNX Layer: LeakyRelu_548]"
},{
  "Name": "ConvTranspose_552",
  "LayerType": "CaskGemmDeconvolution",
  "Inputs": [
  {
    "Name": "input.868",
    "Location": "Device",
    "Dimensions": [1,16,128,256],
    "Format/Datatype": "Row major linear FP32"
  }],
  "Outputs": [
  {
    "Name": "onnx::Softmax_2015",
    "Location": "Device",
    "Dimensions": [1,9,256,512],
    "Format/Datatype": "Row major linear FP32"
  }],
  "ParameterType": "Convolution",
  "Kernel": [4,4],
  "PaddingMode": "kEXPLICIT_ROUND_DOWN",
  "PrePadding": [1,1],
  "PostPadding": [1,1],
  "Stride": [2,2],
  "Dilation": [1,1],
  "OutMaps": 9,
  "Groups": 1,
  "Weights": {"Type": "Float", "Count": 2304},
  "Bias": {"Type": "Float", "Count": 0},
  "HasBias": 0,
  "HasReLU": 0,
  "HasSparseWeights": 0,
  "HasDynamicFilter": 0,
  "HasDynamicBias": 0,
  "HasResidual": 0,
  "ConvXAsActInputIdx": -1,
  "BiasAsActInputIdx": -1,
  "ResAsActInputIdx": -1,
  "Activation": "NONE",
  "TacticValue": "0x0000000000020490",
  "StreamId": 0,
  "Metadata": "[ONNX Layer: ConvTranspose_552]"
},{
  "Name": "Softmax_554",
  "LayerType": "CaskSoftMaxV2",
  "Inputs": [
  {
    "Name": "onnx::Softmax_2015",
    "Location": "Device",
    "Dimensions": [1,9,256,512],
    "Format/Datatype": "Row major linear FP32"
  }],
  "Outputs": [
  {
    "Name": "(Unnamed Layer* 1692) [Softmax]_output",
    "Location": "Device",
    "Dimensions": [1,9,256,512],
    "Format/Datatype": "Row major linear FP32"
  }],
  "ParameterType": "SoftMax",
  "Axes": 2,
  "HasLog": 0,
  "TacticValue": "0x48c115a824ac468d",
  "StreamId": 0,
  "Metadata": "[ONNX Layer: Softmax_554]"
},{
  "Name": "__myl_Mul_myl393_0",
  "LayerType": "kgen",
  "Inputs": [
  {
    "Name": "onnx::Mul_2601",
    "Dimensions": [1,9,256,512],
    "Format/Datatype": "Float"
  },
  {
    "Name": "(Unnamed Layer* 1692) [Softmax]_output",
    "Dimensions": [1,9,256,512],
    "Format/Datatype": "Float"
  }],
  "Outputs": [
  {
    "Name": "onnx::ReduceSum_2602",
    "Dimensions": [1,9,256,512],
    "Format/Datatype": "Float"
  }],
  "TacticName": "__myl_Mul_0x8a99687b2fa7999cd43d6a54674ce147",
  "StreamId": 0,
  "Metadata": "[ONNX Layer: Mul_1137]"
},{
  "Name": "ReduceSum_1138",
  "LayerType": "Reduce",
  "Inputs": [
  {
    "Name": "onnx::ReduceSum_2602",
    "Location": "Device",
    "Dimensions": [1,9,256,512],
    "Format/Datatype": "Row major linear FP32"
  }],
  "Outputs": [
  {
    "Name": "disp_pred",
    "Location": "Device",
    "Dimensions": [1,1,256,512],
    "Format/Datatype": "Row major linear FP32"
  }],
  "ParameterType": "Reduce",
  "Operation": "SUM",
  "ReduceAxes": [0,1,0,0],
  "KeepDimensions": 1,
  "TacticValue": "0x0000000000000005",
  "StreamId": 0,
  "Metadata": "[ONNX Layer: ReduceSum_1138]"
}],
"Bindings": ["left_img"
,"right_img"
,"disp_pred"
]}
